model/slide_nn_model_weights/trained_on_phasepred_saps_notrunc/dense_650_20_5_1_weights_7.pth (torch, 55366 bytes, 5 tensors)

layer1.weight f4 [20, 650]
00000000: 1bb0 7bbd 57ac 49bd 8ffc 583e 5a00 1fbc
00000010: 4ff5 283d c5be 92bd 76fe 993d a7f6 c5bd
00000020: edbb 57bd 463e 843d cba0 e5bd 2b9e 4fbd
00000030: b454 ad3d c4c0 0bbe a76c 09be 4508 8e3b
00000040: b7ce e9bd 58d2 013e 5a8a d93d fba4 23bc
00000050: 41df 743d 558d 06bd bca6 b0bc b786 1f3e
00000060: a5a2 da3c 79e8 ce3d dd87 ddbc 17aa 16be
00000070: 8535 0c3d e279 38bb 859f 1f3e 0f1a 913d
00000080: 5972 143e 715c a1bb d2cd 32be c008 38be
00000090: 15ad 7eba 523c 993d 4e70 6abd 99c4 1abe
000000a0: 89c9 013e bc48 9cbd 567f 00bc bfeb 623d
000000b0: a79a 95bd d257 b2bd dfae 983d a55b 88bd
000000c0: 5c95 45be 396c 4b3d a764 26bd 983f 79bd
000000d0: 3943 dc3c 0b6e 38bd a3f3 cfbd 29cc 43ba
000000e0: 8543 acbd be52 07be 5b10 903d f21b 4e3c
000000f0: 8f40 e83c ebaa 86bd 7e1a 37bc 927d a13c
00000100: 8c00 93bd eb9f a23b 0287 d5bd 4117 72bc
00000110: 934f 62bc 36cb c9bd 13f3 a03d d9cd 293e
00000120: f5be 5a3e 2ebf 683d e21a 113e 3ead 523d
00000130: 7e81 f0bd c5bb 183c b3ec 10bd e9b2 86bd
00000140: 1bfc bebd 1045 cbbd f806 c93d 014c fa3c
00000150: d457 cd3d 1802 8bbd 61b7 5b3c 069d 75bd
00000160: 9074 b93d 9259 8fbd 5fbd c2bd 9bd1 76bc
00000170: d1b7 8a3d 9b48 2ebe aa70 63bd 21c2 3a3e
00000180: 8cd0 ac3c b063 73bd 5b14 d03d a092 fe3b
00000190: 2041 a9bd cebc e53c 91a9 5c3d 959d 8bbd
000001a0: f390 b03d d353 c03b 0b20 f53c 0fe3 b33d
000001b0: 3842 1dbe 896a 2a3d caac e7bd fb82 aebd
000001c0: 4d3c 523d d072 afbd 003c f3bc 9a61 0a3d
000001d0: 0fa3 e9bc f7e8 4cbb 654e 3a3d b47c 21bd
000001e0: 9db3 65bd 5bac 293d 4ddf 29be 9552 d2bd
000001f0: 1676 423e ab10 f7bd 7b40 3a3d 885e 193d
00000200: 6053 8e3d 0977 babc e457 69be 65f1 603d
00000210: ef91 073e 9003 a23d 80ca b7bd b3a4 733d
00000220: b442 6b3d 889c e4bb 18d7 d1bd 62c8 3dbe
00000230: 6495 553d 3019 d33c 5e52 483e d181 72bd
00000240: ea0b 18bd a31c b2bd 4de8 83bc 3531 d33c
00000250: 56ad c3bc 6f55 2c3d 4c2b 30be 78c5 09bd
00000260: c18d adbd 82e5 a6bb 9269 013e 0cbe 23bd
00000270: 290a c5bd 8cb0 833c b2d8 0dbd dd54 d8bd
00000280: 8df4 cf3c e7d2 1c3d b1b1 e23d 8d7f 403d
00000290: 2f7b 11be 0c4a 1f3e 2947 28be 91f9 1cbd
000002a0: ba59 c13d 58a3 2a3e 0267 33be cf15 903d
000002b0: 0c59 433b a349 c93d e869 32be 3237 013d
000002c0: e8b1 3bbb c5a7 c1bd 97d4 0abe 2c1d 16bd
000002d0: 3196 31bd d020 07be ca93 073e c1aa 99bd
000002e0: 799f 5abd 1b02 1c3d eb2c a93d 4428 e2bd
000002f0: 966f 95bd 6db5 673d 885a 25bc 5be7 ab3d
00000300: 605b b13d cebd 27ba bd1c d2bc a02a 08be
00000310: 7604 afbd 5c8a 81bd 44e2 02be faab a8bb
00000320: 1bc8 ce3c de9c dbbd 608f 623d f116 b43d
00000330: db71 023d 4cfd 0abe 260c 7ebd 39be b6bb
00000340: c7cc 71bd 54bf 183d 6b33 9cbd bec6 03bb
00000350: 78cc 443e 8be7 b4bd 06ce 0dbe 470f 40bd
00000360: f5f4 13be 71c9 343c fb6b 88bd 0c43 813d
00000370: 5502 953d d036 373b 84ab 7e3d 37c3 34be
00000380: 0058 703d 1f44 313d dfee 0c3d 96fa 98be
00000390: 082f 91bd 40bd 863c b012 ab3d 6fba fe3c
000003a0: 70a7 b43d cfaa 303d 8273 d0bd 2156 153d
000003b0: a69a c5bc c2f9 babc fd7a d3bd 3b18 98bd
000003c0: d468 30bd 0025 a8b9 7875 913c 2761 d63d
000003d0: 2443 e1bb 18c8 f9bd 0adc fdbd 764a d73c
000003e0: 7f80 b13e c2ab dbbc 12e6 81be f995 1a3d
000003f0: d3eb a3bc 9d39 c83d a807 dc3d 8e4a bbbc
-0.061447244 -0.04923662 0.21190093 -0.009704674 0.04124957 -0.07165293 0.07519238 -0.09666186
-0.052669454 0.0645719 -0.112123094 -0.05068795 0.084634215 -0.13647753 -0.13420354 0.004334482
-0.11416381 0.12677896 0.106220916 -0.009988065 0.059783224 -0.03284963 -0.02156388 0.15578733
0.026688883 0.101029344 -0.027042324 -0.14713322 0.034230728 -0.002814882 0.15588196 0.070850484
0.14496745 -0.00492435 -0.17461327 -0.17972088 -0.0009715122 0.07482208 -0.05723601 -0.15114059
0.12674536 -0.076310605 -0.007842859 0.055400606 -0.07304888 -0.08708157 0.07455229 -0.06658105
-0.19295257 0.049663756 -0.040623333 -0.060851663 0.026887523 -0.04502682 -0.10153892 -0.0007469082
-0.08411316 -0.13215157 0.070343696 0.012579905 0.028351096 -0.06575569 -0.01117575 0.019713197
-0.07177839 0.0049629114 -0.10426141 -0.014776052 -0.013812917 -0.098532125 0.07858863 0.16582431
0.21361907 0.05682295 0.14170411 0.051434748 -0.11743449 0.0093221115 -0.035381984 -0.06577093
-0.09325429 -0.09925282 0.09815782 0.03055382 0.100265175 -0.06787509 0.01341042 -0.059964202
0.09055436 -0.06999506 -0.09508776 -0.015064622 0.067733414 -0.17019884 -0.055527367 0.18238117
0.021095537 -0.05942124 0.101601325 0.007768944 -0.08264375 0.02804413 0.05387265 -0.06817166
0.08621397 0.0058693676 0.029922506 0.08783542 -0.15357292 0.041605506 -0.11312254 -0.08521076
0.05132704 -0.085668206 -0.029691696 0.033784486 -0.028520135 -0.0031266788 0.04548492 -0.039425567
-0.056079496 0.041424137 -0.16589089 -0.102696575 0.18990359 -0.12063726 0.04547165 0.037443668
0.06949496 -0.022761839 -0.22787434 0.05491771 0.13239263 0.07910836 -0.08974171 0.05948324
0.05743666 -0.006976668 -0.10246104 -0.18533471 0.052144423 0.025768846 0.1956267 -0.059205834
-0.037120737 -0.08696868 -0.01610198 0.0257803 -0.023886364 0.042073663 -0.17204016 -0.033635587
-0.08474303 -0.0050932774 0.12637928 -0.039976165 -0.096210785 0.016075395 -0.034630485 -0.105630614
0.025385166 0.03828707 0.11069048 0.046996642 -0.14207147 0.1555559 -0.16433395 -0.038323943
0.09440942 0.16663873 -0.17519763 0.0703541 0.0029807715 0.09828498 -0.17423213 0.03154678
-0.0028639976 -0.094558276 -0.13557659 -0.036648914 -0.043356124 -0.1319611 0.13239971 -0.07503272
-0.05337474 0.038087945 0.082605205 -0.11042836 -0.07296674 0.056569505 -0.010092385 0.08393737
0.086600065 -0.00063988275 -0.02564847 -0.1329751 -0.08545773 -0.06325218 -0.12781626 -0.0051474543
0.025241902 -0.107232794 0.055312514 0.08793438 0.031846862 -0.13573188 -0.062023304 -0.0055768755
-0.05903318 0.03729184 -0.07626995 -0.0020107473 0.19218624 -0.08833226 -0.13848123 -0.04688957
-0.14448912 0.0110343555 -0.06661221 0.06311616 0.072758354 0.0027956255 0.06217529 -0.17652594
0.058677673 0.043277856 0.034407493 -0.29878682 -0.070890486 0.016447663 0.08353174 0.031094758
0.08820999 0.043131646 -0.10178281 0.036459092 -0.024121594 -0.022824172 -0.103261925 -0.074264966
-0.043068722 -0.00032071024 0.017756209 0.10467749 -0.006874459 -0.12196368 -0.12395485 0.026280623
0.34668347 -0.026815299 -0.25370842 0.03774068 -0.02000991 0.09776614 0.10743648 -0.022862699

layer1.bias f4 [20]
00000000: 2db0 70ba 2a0a febc 5feb 70bc 8e05 0c39
00000010: ae4d 13ba e583 9ab9 1e8a 17ba 8ccb 88ba
00000020: 9241 3ebc 9101 9f39 e2f0 10b9 080d cbbb
00000030: 6aad 9e3b 9f6a b4b9 5231 d8b7 84dc e338
00000040: 3bbc 88b9 8adc 173c 8b31 2ebb 2f9d ed38
-0.00091815257 -0.031010706 -0.014704554 0.0001335351 -0.000561918 -0.00029471438 -0.0005780774 -0.0010436638
-0.011612313 0.0003032801 -0.00013822646 -0.006196622 0.00484245 -0.00034411714 -2.5772173e-05 0.00010865278
-0.00026080184 0.009268889 -0.0026579823 0.000113303184

layer2.weight f4 [5, 20]
00000000: b894 6b39 da8a ef38 d406 e0b8 8838 0a38
00000010: c87a 0739 243f 5139 f474 f0b7 6013 b838
00000020: b814 0eba 8b05 233a 17c8 043a d063 8eb7
00000030: ea3e f4b8 a2f9 5139 e021 1e3a e5cf e739
00000040: 5824 a739 6ce3 ba38 05fc bb39 e8ca bbb9
00000050: 29de 9abc 6b44 89be ffa3 60be cd2c cc3c
00000060: a3ab 95bb 6a5d 393d 398a 49bc 37ec ddbc
00000070: 572c 35be f0a0 973c ccde 803d 352d bf3e
00000080: 2c59 273f 0d8c d23b b814 bcbb 70a4 693c
00000090: 6492 5cb7 58b4 d03e 4f9f d93d f37f cdbb
000000a0: 22d8 253a caf4 63b7 0463 b6b8 a433 0f3a
000000b0: d8c5 e6b8 5012 0537 c576 36ba c46a 57ba
000000c0: 59e9 e138 0961 e6b9 82b9 61b8 10e0 8fb7
000000d0: 5095 9136 3068 ee37 6e32 72b8 febe df39
000000e0: c8d6 4838 c415 70b7 c69a aa39 bc3a 6538
000000f0: 569b 963c 602a 603e 052b d3bd 45e8 a1bc
00000100: 4bb4 3f3c 928e c73a 6d4b 7b3c a1c7 ca3c
00000110: 6f55 a1bd b65a 0b3b e921 9ebd a27a 17bf
00000120: bf94 bbbe 1b5b 323c f54e 9b3b fb20 16ba
00000130: 0bc3 ac3b 7c85 dfbe 5cf4 19b8 0f0c 1f3c
00000140: f4b2 0b3a 62fd e136 8c10 9c38 5633 bf39
00000150: 8884 27b7 b05c 1337 f852 0f3a 406e 6937
00000160: 5a55 59b9 ae05 c039 a0f3 a638 0e63 5d38
00000170: 3d9d b738 3c3f f0b8 65e8 b3b8 de10 1339
00000180: a9f4 023a b7ff 8939 8cd2 89b8 6e8f 2fba
0.00022466748 0.00011422271 -0.00010682424 3.2954413e-05 0.00012920343 0.00019955315 -2.866469e-05 8.7774126e-05
-0.00054199575 0.00062187825 0.0005065216 -1.6974198e-05 -0.00011646545 0.00020024789 0.00060322694 0.00044214647
0.000318798 8.911532e-05 0.0003585519 -0.00035818596 -0.018904762 -0.2681001 -0.2193756 0.024923706
-0.00456758 0.045255102 -0.012301021 -0.027090175 -0.17692696 0.018509358 0.06292495 0.37339178
0.6537044 0.0064253868 -0.0057397746 0.014260396 -1.3147106e-05 0.4076259 0.10626089 -0.0062713563
0.0006326457 -1.3587249e-05 -8.6968794e-05 0.0005462712 -0.00011004106 7.9316815e-06 -0.0006960447 -0.00082175084
0.000107723004 -0.00043941315 -5.3816948e-05 -1.7151266e-05 4.338719e-06 2.8420327e-05 -5.7744262e-05 0.00042676175
4.7883746e-05 -1.4310182e-05 0.00032540242 5.4652555e-05 0.018384617 0.21891165 -0.1031094 -0.019764075
0.0117007 0.0015224984 0.015337807 0.024753394 -0.07877623 0.0021263785 -0.077213116 -0.591715
-0.36636922 0.010885979 0.004739637 -0.00057269604 0.0052722744 -0.43656528 -3.670562e-05 0.009707465
0.00053290953 6.73502e-06 7.441742e-05 0.00036468607 -9.984833e-06 8.783463e-06 0.00054673804 1.3913552e-05
-0.00020726529 0.00036625325 7.9608755e-05 5.2782758e-05 8.755408e-05 -0.0001145587 -8.578672e-05 0.00014025296
0.00049955636 0.000263212 -6.5718865e-05 -0.0006697093

layer2.bias f4 [5]
00000000: 308d dab8 794b 56be c06c f5b6 46d4 383e
00000010: be6a 5239
-0.00010421348 -0.20927228 -7.314229e-06 0.18049726 0.00020066925

layer3.weight f4 [1, 5]
00000000: 1153 0239 a789 95bf fae4 78b7 8db1 1d3f
00000010: 83e7 f1b7
0.00012428711 -1.1682633 -1.4835265e-05 0.61599046 -2.8837245e-05
