model/slide_nn_model_weights/trained_on_phasepred_saps_notrunc/dense_650_20_5_1_weights_5.pth (torch, 55366 bytes, 5 tensors)

layer1.weight f4 [20, 650]
00000000: 8c21 38be 1662 923e 9958 2f3f 90c8 623c
00000010: 5a4a e33e 8061 183f 5e71 aa3e fe50 e93e
00000020: 59ea b4be c0be 01be f97a 96bf c667 97be
00000030: 934a 8a3d 8087 babe ef23 45bf 833f 2dbd
00000040: ab04 80be d15f 4b3f 3fba 62be b976 85be
00000050: 610d 3f3f 1881 503f 372a cebb 8c6b 483d
00000060: 76c5 69be 27a7 963e e69f bfbe 7acf f13e
00000070: 7082 263d 84f7 a83e 7723 9b3e 6363 f13e
00000080: 2b58 4b3f c8b1 8a3e f25b 01bf 4f62 c5bf
00000090: e3c6 c03e faea c5be 5108 e5be f15d 12be
000000a0: bcb1 eebd 8f26 853e dee1 7e3b 7f84 533e
000000b0: ecf2 903d 36b4 19bf 53a8 3ebe 31d0 7e3d
000000c0: 986b f63e d560 d23e add8 25bf 78ce 29bf
000000d0: 9ecd 263e 1b37 d43d 386f c4bf 2c47 81bc
000000e0: a49a c43c fc79 92bf 951d 963e eafe 1cbf
000000f0: 4cd8 453f ee9e 2a3e 5dd2 2e3d 0ad0 8ebe
00000100: ddad b1be 7935 e23d 31a7 45bd 3764 3abe
00000110: be10 62be 45a4 74be 976a ba3e aa4b 083f
00000120: f538 c53e e14e f23d 0226 783e 1575 1b3f
00000130: 4ba0 ec3e e513 6cbe fcc1 bbbd b2a1 463e
00000140: 23d2 1d3e 2543 873d 6d69 e23f b4fb 863e
00000150: fb71 bc3e c3d7 52be a06c 8abe 84a0 84be
00000160: e825 4e3f 9f61 ac3e 6acd 55bf b6a6 fdbd
00000170: e635 993f 8017 29be 7030 5cbf 2d54 223f
00000180: 514b 313f 3f3d a63e a59d 863e f2d3 73be
00000190: 0a8f 0dbf 53b9 ce3d eb31 503e c39b 92be
000001a0: 774f 443f c2c9 333e 2be8 c8bc 0533 4e3e
000001b0: b577 d4be 2d19 823e 7c24 39bd 99f9 00bf
000001c0: 4561 003f 14c1 6abf 23c5 33bf deb4 f2be
000001d0: 5dbe 8dbc 9db6 0f3e aa1f 233e 565c eebe
000001e0: 54a7 82be d304 c63e 9e8c d1be 4275 39bf
000001f0: 6b1b 0f3f 9919 603e f44d c0be 4eec d23d
00000200: 52a2 e33e 903c 0c3e caf1 67bf a330 273f
00000210: 934a 983e 80a3 10be 9dcc 52bd 96b4 0e3c
00000220: fa29 f1be 46e3 cfbe a245 75bf 91c3 3fbf
00000230: 5334 123f 223d 513e e7c2 8b3f c542 04bd
00000240: 43dd a6bf f42a febe cdbb 923e bd5c fe3d
00000250: 8cb3 3abf 7a6f afbd d720 9bbe c972 8fbf
00000260: 1550 a2be 1015 17bf b890 3cbe ac2c 333f
00000270: 840a 9cbf 3a39 033f 786a 8dbf 2cb3 38be
00000280: a382 e93e e458 863d 6f83 143f 9f8a 303f
00000290: 3343 02bf 83ac 81bd fcae 95bf e7e6 063f
000002a0: 4b47 d5be 3114 4b3f 7b2c eabe 1365 723f
000002b0: c87a 553c 365a 733f dd6f d4be 8c88 fa3e
000002c0: 52ee 613f 9282 03be a8d7 f6be 81e4 16bf
000002d0: 4835 483e a1a5 5ebf be76 8a3f 6d60 423f
000002e0: b06e cebe 9c10 933e c74d 0a3e e84b e33d
000002f0: f514 4bbf 90fc 083b 28b2 25bf 1292 c03e
00000300: 960d 023f 2ad4 14be 43e1 8c3d 9a12 a73e
00000310: b1cd 0ebe 48e8 17bf 1c7a 083d b009 96be
00000320: 5289 9d3e 828c 363d 3ab9 ab3e c138 173e
00000330: 136e 263e 6fe5 3bbf 7468 12bf c18b 62bf
00000340: 1638 05bf 2d07 b1bc 44b2 053f c627 1dbf
00000350: 06e1 9c3e b71c 6ebf 6419 36bf be8d b33e
00000360: 2c22 2fbe 93ac f6be f029 f93c dac2 cabd
00000370: 7833 09be 19af 93be 4176 603e ddf0 14be
00000380: a15d b6be 99e2 24be fe8c 0c3f 5669 8ebf
00000390: 4e1b bdbd cc24 c53d a5f4 0a3f bc3e 2e3f
000003a0: c30f 17bd 6c54 283e 81af 98be 5cf3 343d
000003b0: 740b 21be 167d 95be dd4d 003e 48a0 9e3f
000003c0: fc86 a5bc babe 873e b1aa 49bf f82f 81bd
000003d0: d493 733c 6f6b 16bf c577 ff3e fe53 5c3f
000003e0: a22e 073e 92fb 1dbf 251a 0cbf bf4b 883d
000003f0: 7e2e 17be 764e 333f 4f72 543d c675 91bf
-0.17981547 0.2859046 0.68494564 0.013841763 0.44392663 0.59523773 0.33289617 0.45569605
-0.35335043 -0.12670422 -1.1756278 -0.2957136 0.06752505 -0.36431503 -0.77007955 -0.042296898
-0.2500356 0.7944308 -0.2214136 -0.2606714 0.7462979 0.8144698 -0.0062916535 0.04893069
-0.22829232 0.29424402 -0.3742668 0.47228605 0.04065174 0.3300134 0.30300495 0.4714614
0.7943141 0.2708876 -0.5053092 -1.5420626 0.3765174 -0.38655835 -0.44732907 -0.14293648
-0.11654994 0.2600598 0.0038891952 0.20656012 0.07077584 -0.60040605 -0.18618898 0.062210266
0.48128963 0.41089502 -0.64783746 -0.6633067 0.16289374 0.10362073 -1.5346441 -0.015781008
0.02399952 -1.1443477 0.29319444 -0.6132647 0.7728317 0.1666219 0.042681087 -0.27893096
-0.3470296 0.11045355 -0.04825515 -0.18202291 -0.22076699 -0.23890789 0.36409447 0.53240454
0.38520017 0.11831451 0.24233249 0.6072553 0.46216044 -0.23054464 -0.09167859 0.1939762
0.15412192 0.06604604 1.7688423 0.2636391 0.3680571 -0.20590119 -0.27036 -0.25903714
0.8052659 0.3366823 -0.8351656 -0.12385313 1.1969573 -0.16512871 -0.8601141 0.6340969
0.6925555 0.32468602 0.26292148 -0.2381132 -0.55296385 0.100939415 0.20331542 -0.28634462
0.76683754 0.17557433 -0.024524769 0.2013665 -0.4149758 0.25409833 -0.04520081 -0.50380856
0.5014842 -0.91700864 -0.7022268 -0.47403616 -0.017302686 0.14034505 0.15930048 -0.46554822
-0.25518286 0.38675556 -0.40927595 -0.72444546 0.5590121 0.21884765 -0.37559474 0.10298978
0.44459778 0.13694978 -0.90603316 0.6530859 0.29744396 -0.1412487 -0.051464666 0.008710047
-0.47102338 -0.40603083 -0.95809376 -0.74907786 0.5711109 0.20433477 1.0918854 -0.03229024
-1.3036274 -0.49642146 0.28658906 0.12420032 -0.72930217 -0.08566184 -0.30298492 -1.1206905
-0.31701723 -0.59016514 -0.18414581 0.6999004 -1.2190709 0.51259196 -1.1048117 -0.18037099
0.4560748 0.06559923 0.5801305 0.6896152 -0.5088379 -0.06331732 -1.1694026 0.5269608
-0.41655955 0.79327685 -0.4573706 0.94685477 0.013029762 0.95059526 -0.41491595 0.48932302
0.8825427 -0.12842777 -0.48211408 -0.5894242 0.19551575 -0.8697148 1.0817487 0.75928384
-0.40318823 0.2872361 0.13506232 0.11098462 -0.7932885 0.0020902492 -0.6472497 0.37611443
0.5080198 -0.14534059 0.06878903 0.3263138 -0.13945653 -0.5933881 0.033319578 -0.29304266
0.3076883 0.044567592 0.33539754 0.14767744 0.16252927 -0.7339696 -0.5719063 -0.884945
-0.52038705 -0.021609867 0.52225137 -0.61388814 0.3064043 -0.93012565 -0.71132493 0.35069078
-0.1710288 -0.4817854 0.030415505 -0.09900446 -0.1339854 -0.28844526 0.2192011 -0.14545007
-0.35618308 -0.16102065 0.54902637 -1.1125896 -0.092337236 0.09626159 0.5427955 0.68064475
-0.036880266 0.16438454 -0.298214 0.044177398 -0.15727025 -0.29196995 0.12529702 1.2392664
-0.020205967 0.265127 -0.7877608 -0.063079774 0.014866788 -0.5875768 0.49896064 0.8606566
0.13201383 -0.6171199 -0.54727393 0.066550724 -0.14763829 0.70041597 0.051866826 -1.1364067

layer1.bias f4 [20]
00000000: 260d fc3b 8af9 22b9 faca ebb9 4a66 edb8
00000010: 4a41 33bd d067 03b9 1968 01bb 4cf4 efbb
00000020: eeda 4fb9 51c6 edb9 b40f 003b c86a 5bb9
00000030: 91a2 61ba 12a8 bf3b 0288 d2b9 bc27 1bb9
00000040: 2026 6dbb 3c23 3f38 480b 4cb7 60ae 5eb9
0.007691997 -0.00015542484 -0.00044973922 -0.000113200935 -0.043763436 -0.00012531807 -0.0019745885 -0.0073228236
-0.00019822616 -0.0004535192 0.001954061 -0.00020925247 -0.0008607293 0.005848893 -0.00040155655 -0.00014796754
-0.0036186054 4.5570763e-05 -1.2161974e-05 -0.0002123653

layer2.weight f4 [5, 20]
00000000: 2468 e038 644e a738 07e9 17b9 4b73 8339
00000010: 4d7d 2939 1810 3039 1048 3237 6246 91b8
00000020: 5464 813a 56bd 0f3a 32cb 9d39 8218 b839
00000030: e25b 1b39 66f1 5cb8 a0e4 f8b7 b098 ca39
00000040: 8906 4139 cc90 35b8 50e4 9db8 8e23 3a39
00000050: c3a2 ecbd 2245 2ebc a1aa 8bbb 6fe9 daba
00000060: 515d c73e e139 76bb 9f45 57bf 8f87 c73c
00000070: cc09 253a b9d2 52bc 7e87 1bbf e488 9839
00000080: 15b8 5cbb 1398 873e 8df6 6bbd f53f 003d
00000090: 265c 5b3e cc06 ce3a d183 59bb 24cd 83ba
000000a0: c05e 26bd 7cd7 513a 76f0 1b3b 6c11 533b
000000b0: c029 83bd d046 ed39 664f 90bc 2a2b 4e3d
000000c0: 2049 fb3a 08a4 8b3a 8bab 323c 5cd8 6639
000000d0: 802a a639 82f6 c0bd e9c5 5c3b 0022 8a36
000000e0: 4147 833c 843b 2f3b b806 a33a a28e 9a38
000000f0: 9cd0 21bd 5a5e 943a ffaf d73a 9ef7 663a
00000100: 7207 953c b717 ae3a 8304 bcbc fe53 aa3c
00000110: 069d 633b 03a1 bc3a 85bb 9e3c 862d 413b
00000120: 586d dfba 69a8 09be 6066 103b 4070 54b9
00000130: b67e af3c e407 8b39 b0b9 c83a 2673 c33a
00000140: b8b5 263f 2c6b 363c c32f a33b 9fc2 1e3b
00000150: b5c7 bebe 4d95 ac3b 8b86 aa3e 13b2 10bd
00000160: 8e58 d7b9 cebe 9b3c 7a8a b03f 6a4d c6b9
00000170: aaee 793b fa55 e0be dc33 6e3d bdd2 0ebd
00000180: 6955 753d 9aa8 dcb9 6a18 9b3b a806 7e3b
0.0001070055 7.977782e-05 -0.00014487292 0.00025072167 0.00016163774 0.00016790663 1.0626405e-05 -6.9272486e-05
0.0009871819 0.00054832303 0.00030096766 0.00035113475 0.00014816181 -5.2676907e-05 -2.9670366e-05 0.00038642203
0.00018408349 -4.3288615e-05 -7.52887e-05 0.00017751587 -0.11554482 -0.0106366 -0.004262284 -0.0016701649
0.38938382 -0.003757112 -0.8409061 0.024356632 0.00062957103 -0.012867623 -0.6075362 0.0002909369
-0.0033679057 0.2648321 -0.057608176 0.031310994 0.2142187 0.0015718578 -0.003319014 -0.0010055644
-0.040617704 0.0008004827 0.002379445 0.003220643 -0.064044476 0.00045256922 -0.017615985 0.050334133
0.0019171573 0.0010653744 0.010905157 0.0002201511 0.00031693652 -0.09422018 0.00336873 4.1166786e-06
0.016025187 0.0026738355 0.0012437915 7.36986e-05 -0.039505586 0.0011319623 0.0016455649 0.00088107015
0.018192027 0.0013282214 -0.02295137 0.020792004 0.0034731044 0.0014391247 0.019376526 0.0029476597
-0.0017046137 -0.1344315 0.0022033677 -0.00020259712 0.021422725 0.00026518025 0.0015314128 0.0014911636
0.6512103 0.01113395 0.004980059 0.002422489 -0.3726174 0.0052668215 0.33305773 -0.035326075
-0.00041073974 0.019011881 1.379226 -0.0003782318 0.003813664 -0.43815595 0.058154926 -0.034868944
0.059895907 -0.00042087288 0.004733135 0.0038761292

layer2.bias f4 [5]
00000000: ee6a 1039 1380 c63d bf6e 12bb 7021 dbba
00000010: 5e5a d9bd
0.00013772745 0.09692397 -0.0022343842 -0.0016718339 -0.10612939

layer3.weight f4 [1, 5]
00000000: 10a7 eab6 d760 d93e 63d8 1dbd c875 49bd
00000010: 0c34 0bbf
-6.993192e-06 0.42456695 -0.03853644 -0.04918459 -0.5437629
