model/slide_nn_model_weights/trained_on_psphunter/dense_650_20_5_1_weights_8.pth (torch, 55366 bytes, 5 tensors)

layer1.weight f4 [20, 650]
000000 13 ab 80 b7 48 dd 7b b9 48 85 d2 39 e8 58 93 38
       -1.5338452e-05 -0.00024019659 0.00040153624 7.026066e-05
000010 70 28 33 ba da ea 1a ba d5 60 8f ba 94 ff 96 b9
       -0.0006834334 -0.00059096294 -0.0010938892 -0.0002880065
000020 fe fb af b8 9e be f3 b9 12 56 08 ba 30 43 eb b8
       -8.3915875e-05 -0.00046490593 -0.0005200814 -0.00011218188
000030 f2 91 e5 39 c8 90 e3 b9 05 90 8b b9 ba 9e c8 38
       0.0004378702 -0.00043404684 -0.0002661945 9.566308e-05
000040 2e 62 5f b9 de c7 3b 39 cf 30 8e 39 82 da d5 b9
       -0.00021303512 0.00017908166 0.00027120716 -0.00040789327
000050 dc 90 7c ba 62 f5 a6 b9 f7 41 2a 3a 2c 76 57 b8
       -0.0009634623 -0.00031844812 0.0006494815 -5.137005e-05
000060 39 5c 82 39 78 29 2a 39 8e 1c ad b9 26 37 64 39
       0.00024864243 0.00016227912 -0.00033018406 0.00021764319
000070 87 96 85 ba 15 6a b0 b9 10 f9 87 38 4c 4f c3 b9
       -0.0010191955 -0.00033648373 6.483693e-05 -0.0003725238
000080 76 74 47 39 dd 6a 99 b9 28 57 27 39 e1 89 41 ba
       0.00019021504 -0.00029262053 0.0001595883 -0.0007382911
000090 e0 76 7a 39 a8 64 18 39 10 61 b0 37 8d 8f 4b b9
       0.00023886142 0.00014533347 2.1026033e-05 -0.00019413065
0000a0 2f 79 86 39 7f b3 c5 b8 82 3f ab b8 14 85 d3 39
       0.0002564876 -9.427126e-05 -8.165745e-05 0.00040344207
0000b0 92 82 24 b9 10 39 56 38 b6 67 c1 b9 da 00 fe b9
       -0.000156889 5.107472e-05 -0.000368891 -0.0004844729
0000c0 a0 45 3a b8 6e d5 1c 39 b6 fd bc b9 d5 ed 27 3a
       -4.44107e-05 0.00014956828 -0.00036047184 0.0006405984
0000d0 73 37 04 3a e8 75 20 3a 2b c9 02 39 9a 2f 0c 3a
       0.0005043663 0.0006121085 0.00012472707 0.00053476694
0000e0 91 6a c2 b9 f2 c6 36 b9 58 8e ce 39 0c f3 13 3a
       -0.00037081962 -0.00017430985 0.00039397436 0.0005643822
0000f0 6e b1 9f b9 cb 06 7c b9 96 6b d0 38 cf a0 00 b9
       -0.0003045904 -0.00024035123 9.938252e-05 -0.00012266937
000100 83 72 bf 39 66 88 56 39 38 5a 9d 37 59 a9 7a b9
       0.00036515677 0.00020459443 1.875787e-05 -0.00023904945
000110 18 74 5d 3a cf 59 a1 b9 48 7e bf 38 5e 5a a8 39
       0.000844778 -0.00030775226 9.1311114e-05 0.00032110786
000120 75 15 ba 39 d4 6c ea 39 18 10 27 b8 de 11 51 b9
       0.0003549267 0.0004471304 -3.983089e-05 -0.00019938449
000130 ec 03 3e 3a 77 a2 ce b9 d6 e3 b0 39 d0 73 b0 b9
       0.0007248509 -0.00039412428 0.00033739087 -0.00033655623
000140 36 b3 13 39 b2 18 af 38 2b 4a e4 b8 20 37 ed b7
       0.00014085774 8.34925e-05 -0.00010885702 -2.8278271e-05
000150 e5 ec b1 39 cd b5 af b9 35 67 e7 b9 d2 0d 3d b9
       0.0003393657 -0.00033514053 -0.0004413665 -0.00018029593
000160 fa 52 aa 39 6a 81 8c b8 13 70 ed 39 6e e7 a4 39
       0.0003248675 -6.6998255e-05 0.00045287664 0.00031452946
000170 6e 0f df 39 6c 23 80 b9 b3 73 9f 39 9a 8e a0 b9
       0.0004254537 -0.00024440454 0.00030413046 -0.00030623825
000180 1a 4a b3 b9 38 3b dd b7 34 9c ce 38 2e 00 22 3a
       -0.0003419675 -2.6372829e-05 9.8519406e-05 0.00061798363
000190 a9 83 f6 38 c8 f4 31 ba 9a 8e 84 b7 d8 45 16 b8
       0.00011754718 -0.00067884894 -1.580203e-05 -3.5827834e-05
0001a0 52 6e c6 38 ff ec 38 3a 8c 4a 12 ba e2 42 a6 39
       9.4619245e-05 0.0007054358 -0.00055805664 0.0003171182
0001b0 42 92 b0 39 20 ef 40 b7 8e e5 c3 b9 bc bc d5 39
       0.00033678306 -1.1499767e-05 -0.0003736433 0.00040767144
0001c0 7f 63 a8 b9 e4 83 0a 3a 52 6a e2 b9 52 45 36 3a
       -0.00032117587 0.00052839355 -0.00043185294 0.00069530786
0001d0 a8 b1 b7 b8 fc 9c 4c 39 20 13 e5 39 d4 66 16 b9
       -8.759211e-05 0.00019513437 0.00043692533 -0.00014343421
0001e0 a6 44 ab 39 2b cf 88 39 c8 88 9e 39 de 3f 9b 39
       0.0003266681 0.00026094294 0.00030238018 0.0002961149
0001f0 c2 6c 21 b9 9c c7 a5 b8 b2 fa b1 b9 86 78 1c 39
       -0.00015394672 -7.904993e-05 -0.00033946853 0.00014922218
000200 fa 18 68 b9 b0 72 58 39 fc 33 36 39 c8 fd c3 b8
       -0.00022134549 0.0002064209 0.00017376238 -9.345595e-05
000210 84 44 fb b7 8d d9 43 ba 19 ba 91 b9 47 e2 da 38
       -2.9953437e-05 -0.0007471077 -0.0002779521 0.000104371975
000220 22 a0 b5 b9 08 fe 6d b9 64 7c f5 b8 08 78 64 39
       -0.00034642318 -0.00022696715 -0.0001170568 0.0002178849
000230 40 c3 8c 38 01 9e dc 39 24 07 07 ba 70 d5 4a 39
       6.712088e-05 0.00042079392 -0.00051509053 0.00019343733
000240 eb ad 84 b9 56 58 0a 3a 13 ed ff 39 10 4f bc 37
       -0.0002530658 0.00052774453 0.00048814024 2.2448163e-05
000250 86 6e d4 b9 1c dc 46 b9 3a bd 24 39 0c 80 08 3a
       -0.00040518137 -0.00018964749 0.00015710751 0.0005207069
000260 88 5c 8c 38 0a f6 c1 39 ec cc ed 39 eb 1c 28 39
       6.6929555e-05 0.00036995142 0.0004535684 0.00016032501
000270 73 80 73 39 8c 5b 9e b9 60 d8 cf 39 c8 73 59 b8
       0.00023222137 -0.00030204316 0.0003964333 -5.184466e-05
000280 c2 1b 0b 39 c0 ab a6 37 b7 48 28 b9 0c 86 2c 3a
       0.00013266414 1.986872e-05 -0.00016048817 0.0006581254
000290 d0 49 0c b9 ad 0b 79 b9 72 03 11 b9 8e de b6 38
       -0.00013378938 -0.0002375084 -0.00013829561 8.71989e-05
0002a0 a1 1f a2 38 fb 0f dc b9 00 d8 48 b5 de 24 05 3a
       7.730653e-05 -0.00041973576 -7.482013e-07 0.0005079041
0002b0 6b 33 81 39 8e 68 d1 b9 e1 f9 39 b9 e1 e4 35 b9
       0.00024643107 -0.00039941486 -0.00017736062 -0.00017346769
0002c0 d8 ce 1a b8 12 56 16 3a 80 01 5b b7 a0 cf a3 37
       -3.69091e-05 0.00057348714 -1.3053766e-05 1.9527797e-05
0002d0 7a 89 a1 39 38 af 56 39 80 2c 33 ba 68 1c 63 38
       0.0003081074 0.00020473904 -0.0006834939 5.4147473e-05
0002e0 74 0e 2b b7 60 ad 2d b7 fc ae 1e b9 fc ea 18 b8
       -1.0195759e-05 -1.0351971e-05 -0.00015133241 -3.645847e-05
0002f0 2e 10 c6 39 43 1f 14 b9 bb b9 aa b9 ee d0 38 ba
       0.00037777558 -0.00014126026 -0.00032563307 -0.0007050176
000300 1c fe 0a ba 93 2d 98 39 47 0f 10 ba da 8a 52 39
       -0.00053021475 0.00029025655 -0.00054954406 0.00020078887
000310 77 c2 29 b9 88 07 84 39 60 ab ca b7 78 be 7e 38
       -0.0001618954 0.00025182613 -2.416008e-05 6.0735707e-05
000320 1e 4c a0 ba f0 94 c8 39 82 fb d5 b9 eb fa 2c 39
       -0.0012229716 0.0003825794 -0.00040813914 0.00016496672
000330 a3 2a 1c ba 80 a1 c9 b9 c0 bd 4e b7 30 c1 0c 39
       -0.0005957281 -0.00038458034 -1.2322736e-05 0.00013423408
000340 e2 51 67 b9 00 d1 0b b7 2d 7b 49 39 2c 6d 87 38
       -0.0002206038 -8.333707e-06 0.0001921474 6.4576365e-05
000350 20 8d 4c b7 fa 7d f5 b9 40 9c 73 39 80 7b d1 38
       -1.2192206e-05 -0.000468239 0.00023232494 9.9889e-05
000360 ea 1b f2 39 dc 6e 50 39 19 73 ba b9 19 79 1f 3a
       0.00046178635 0.00019877724 -0.0003556244 0.00060834136
000370 b6 be 25 b8 e0 2e 46 39 80 55 e0 b9 c4 5c 2c b9
       -3.951668e-05 0.00018900214 -0.00042788312 -0.00016437756
000380 e2 26 a9 37 00 2c 06 36 64 12 85 38 68 07 1f 3a
       2.0164476e-05 1.9993167e-06 6.34536e-05 0.0006066472
000390 86 13 9a 38 98 a1 e8 b8 d9 87 17 39 2c 7d 6d 3a
       7.346929e-05 -0.00011092721 0.0001445109 0.00090594846
0003a0 ac 70 24 39 70 72 70 b8 35 03 7e 39 66 c2 ec 39
       0.00015682232 -5.7327037e-05 0.00024224522 0.00045158266
0003b0 ab 5b 6e 39 46 51 98 b9 2a 66 b7 38 a8 2f 79 39
       0.00022731598 -0.00029052253 8.7451495e-05 0.00023764244
0003c0 04 7d fb 38 31 93 d3 b9 96 e7 0b 3a a0 9d 49 ba
       0.00011991899 -0.00040354722 0.0005336938 -0.00076910295
0003d0 08 18 c0 37 a9 2f 53 b9 1f 90 21 3a a6 d2 46 ba
       2.2899374e-05 -0.00020140283 0.00061631383 -0.00075844896
0003e0 28 ee 78 38 69 d7 4e b9 41 49 17 ba 30 07 61 3a
       5.9349608e-05 -0.00019725937 -0.00057711086 0.000858414
0003f0 de e9 61 39 1a a3 94 39 5a 27 51 39 f0 3f 06 b9
       0.00021544794 0.0002835028 0.00019946453 -0.00012803054

layer1.bias f4 [20]
000000 de 91 80 b9 b3 6f 7a 39 07 36 15 ba 88 3d 9d b8
       -0.00024522742 0.00023883469 -0.00056919496 -7.4978045e-05
000010 6c 86 d2 3c bf 45 20 39 f0 d6 aa 39 70 85 13 ba
       0.025698863 0.00015284772 0.00032585068 -0.0005627489
000020 fd 1a d5 b9 49 cd 0d 3c 4e 5f 84 38 78 31 a7 36
       -0.00040646634 0.008654901 6.3120024e-05 4.9827468e-06
000030 94 0f 5b b9 58 28 71 37 70 01 21 38 78 fb 14 b9
       -0.00020891271 1.4374113e-05 3.838673e-05 -0.0001420806
000040 66 85 1d 38 ec 65 8d 38 9d f8 c4 b9 ba 85 48 b8
       3.7555954e-05 6.742388e-05 -0.00037569265 -4.780826e-05

layer2.weight f4 [5, 20]
000000 da c2 bf 39 b2 9a b3 b9 50 8e c3 b7 e2 74 af b9
       0.00036575535 -0.00034256798 -2.331208e-05 -0.00033465686
000010 dc 82 5d 37 27 fd e8 b8 51 27 94 b9 32 9c 65 39
       1.3203095e-05 -0.000111097754 -0.00028258053 0.00021897329
000020 bf a4 42 b9 88 6a bb 37 30 b6 85 b8 26 88 cc b9
       -0.00018562654 2.2341745e-05 -6.375869e-05 -0.0003901135
000030 b8 6c 0f b9 8a 2e 52 b9 38 de a3 b9 80 63 99 b4
       -0.00013678044 -0.00020044498 -0.0003125535 -2.8570867e-07
000040 9e fb e3 38 38 a1 3e 39 76 f8 0a 39 e8 35 59 b9
       0.00010871071 0.0001817987 0.00013253264 -0.00020714814
000050 25 3b 81 39 d0 49 47 b7 cc f0 a4 b8 20 3d ed 35
       0.00024648863 -1.187851e-05 -7.864981e-05 1.7675666e-06
000060 88 46 a1 3d ae b7 a8 b9 fc 71 93 b8 27 a8 5c 3a
       0.07874781 -0.0003218031 -7.0307375e-05 0.00084173906
000070 2f 15 27 3a 59 31 04 3c a8 5f bf 39 d0 05 b2 38
       0.0006373701 0.008068406 0.00036501628 8.488784e-05
000080 fc 65 4c b9 e8 5b 54 38 d0 d0 df b7 76 e5 24 ba
       -0.00019492948 5.0630333e-05 -2.6680907e-05 -0.0006290296
000090 f7 d5 23 ba 70 0a da 36 da a8 27 b9 71 3a 17 37
       -0.000624984 6.4981214e-06 -0.00015989263 9.013908e-06
0000a0 e7 5b 80 39 fa 59 ca b6 12 50 51 39 7c a5 a6 39
       0.00024482535 -6.030544e-06 0.00019961622 0.00031785283
0000b0 0b 1f 14 bb d0 c2 a0 38 1c 1c 0c ba 23 a5 07 b9
       -0.002260151 7.665681e-05 -0.0005344765 -0.00012936121
0000c0 f2 be e0 39 80 a3 38 39 c0 7e 56 3a 32 0c 96 b8
       0.00042866875 0.00017608516 0.00081823394 -7.154829e-05
0000d0 ec d2 34 39 1c 7c 66 b9 c7 e3 ae b8 f0 9e da b9
       0.00017244712 -0.00021980744 -8.3393934e-05 -0.00041698618
0000e0 12 af 8a b8 58 89 9a b6 1d b0 02 3a 23 94 00 39
       -6.612962e-05 -4.6055466e-06 0.00049853494 0.00012262216
0000f0 18 cd 28 3a 4a 41 42 39 5e 2c 2d b8 a8 82 99 39
       0.0006439253 0.00018525604 -4.1287734e-05 0.0002927978
000100 36 6c 20 be d4 bb ad 38 1b f6 b1 ba c9 b3 c4 39
       -0.15666279 8.2842686e-05 -0.0013577373 0.00037517984
000110 96 bc 17 b8 e8 1b cf 3d 2a 76 93 ba b4 01 a7 b6
       -3.617684e-05 0.101127446 -0.0011250426 -4.977186e-06
000120 10 fa f2 b6 72 9c 03 ba 98 35 8f 3a 4b 0f cb 39
       -7.241273e-06 -0.00050205656 0.0010926006 0.0003873057
000130 a6 40 aa b9 b2 5f 80 b6 7b f8 9e b9 30 32 de b7
       -0.00032473094 -3.8258377e-06 -0.0003032124 -2.6487833e-05
000140 ac c0 61 37 88 72 03 3d bd 45 2f 3a 06 7f 20 36
       1.3455905e-05 0.032091647 0.0006686112 2.3915795e-06
000150 74 38 9f 3f 4a 15 3d 39 5b cf 14 bb 0a 7d 65 38
       1.2439103 0.00018032375 -0.0022706601 5.4714306e-05
000160 66 fc 01 b8 52 f8 7d be de 54 73 b6 d8 7e 09 bd
       -3.099106e-05 -0.24801758 -3.625922e-06 -0.033568233
000170 46 ed 9a 37 1e b4 68 37 41 4d 88 b7 c3 f0 17 37
       1.846872e-05 1.3870214e-05 -1.6248438e-05 9.056358e-06
000180 ba 6e 83 36 cd c1 36 b5 60 85 84 39 f9 80 8a ba
       3.9169945e-06 -6.80823e-07 0.00025276374 -0.0010567001

layer2.bias f4 [5]
000000 75 bd c2 b8 38 90 37 bd 86 3e a2 b9 76 1b 86 3c
       -9.28593e-05 -0.044815272 -0.0003094563 0.016370516
000010 a1 4a 2a bf
       -0.66520125

layer3.weight f4 [1, 5]
000000 02 62 31 b7 18 66 ac bc 97 53 96 3a 17 38 02 3d
       -1.0572841e-05 -0.021044776 0.0011469004 0.031791773
000010 3c 7d 44 bf
       -0.7675359
