model/slide_nn_model_weights/trained_on_psphunter/dense_650_20_5_1_weights_3.pth (torch, 55366 bytes, 5 tensors)

layer1.weight f4 [20, 650]
000000 aa 45 c6 b9 12 67 8a b9 3d cf 08 ba 2d 8e 34 3a
       -0.00037817407 -0.00026398204 -0.0005218869 0.0006887641
000010 32 14 03 b9 fa 92 c0 b9 4e e7 6b 38 fd e2 c0 b9
       -0.00012500657 -0.000367306 5.6243785e-05 -0.00036790213
000020 b4 e8 8e b9 38 aa 4e 39 a4 b7 25 39 9a a7 4c 39
       -0.00027257728 0.00019709102 0.00015804038 0.00019517393
000030 58 ba 6e b9 00 2d f7 b9 59 79 0e 3a f6 e4 b1 b9
       -0.00022766867 -0.0004714504 0.00054349523 -0.0003393066
000040 30 ca 95 b8 80 3d c1 b6 ac 98 cb b8 30 3a 8f b8
       -7.142534e-05 -5.7590078e-06 -9.708232e-05 -6.8296096e-05
000050 da ba 1b 3a f8 18 81 b8 d0 53 16 38 98 d9 91 b7
       0.0005940624 -6.15585e-05 3.5840843e-05 -1.7386672e-05
000060 ec be bc 39 c8 c2 df b8 b2 0b f0 39 5a c4 a6 b9
       0.00036000402 -0.000106697495 0.0004578508 -0.0003180828
000070 f8 eb 30 ba 46 55 b2 39 da 0e ec 39 6e c1 f4 39
       -0.0006749029 0.0003401434 0.00045024493 0.00046683423
000080 19 4b 6b 39 07 3f 2d ba 27 ef ce 39 2f 27 eb 39
       0.00022439322 -0.0006608818 0.00039469564 0.00044851887
000090 30 3b 1a b9 0a 45 c6 b9 49 3b 2c 39 8b 3e 08 3a
       -0.00014708634 -0.0003781694 0.00016425284 0.0005197308
0000a0 88 46 f0 38 83 a7 56 39 68 2e 0c ba 23 36 a8 39
       0.00011457229 0.00020471033 -0.0005347491 0.00032083792
0000b0 a4 9e 4d 3a 18 ff 81 37 80 cf e1 b7 56 0a 52 b9
       0.00078437687 1.5496786e-05 -2.6918715e-05 -0.00020031011
0000c0 30 f2 60 39 e8 af 88 39 71 e6 1e 39 ff a7 1d ba
       0.00021452527 0.00026071002 0.000151539 -0.0006014108
0000d0 b1 5b 02 3a b4 92 de 39 1b 49 25 b9 21 39 b8 b9
       0.00049727695 0.00042452442 -0.0001576286 -0.0003513778
0000e0 e1 b6 2d 3a 18 96 ed b9 24 50 c8 b8 1b bb 19 3a
       0.00066266774 -0.0004531599 -9.5516705e-05 0.00058643677
0000f0 86 62 19 39 e0 37 d2 b8 a3 69 70 b9 a8 da 3f 39
       0.0001462792 -0.00010023988 -0.00022927536 0.00018296635
000100 54 a4 84 b9 83 02 3e 39 cc 97 fa 39 ee 36 c9 39
       -0.00025299436 0.00018120748 0.00047796813 0.00038378633
000110 fe 9e c5 39 06 5e 9d 39 18 45 8e 39 61 4f 8f b9
       0.00037693226 0.00030015426 0.0002713583 -0.00027334227
000120 88 aa d0 b9 a9 7d 86 38 04 fd aa 39 6c b8 29 38
       -0.00039799907 6.413024e-05 0.00032613438 4.0464496e-05
000130 9f 78 13 3a 01 b0 cd b9 e9 3e ac b9 36 a2 33 39
       0.0005625579 -0.0003923178 -0.00032853268 0.00017131199
000140 e6 c7 dd b8 1d a9 26 3a 00 f8 c7 39 05 97 73 b9
       -0.00010575335 0.00063575973 0.00038141012 -0.00023230545
000150 ca 10 16 ba ce f9 89 39 f6 c5 24 39 22 26 9a b8
       -0.00057245477 0.00026316795 0.00015714005 -7.350395e-05
000160 79 a1 df 38 fa 72 a7 b9 48 57 2a 3a 94 8c 4d ba
       0.00010663545 -0.00031938386 0.0006497991 -0.0007841077
000170 46 72 9b 39 50 42 d6 b9 cb fa 5e 3a 24 cc 11 39
       0.00029649044 -0.00040866667 0.0008505999 0.00013904326
000180 9a f3 23 ba db 19 58 39 18 0f 25 3a 8e a6 de b9
       -0.0006254256 0.00020608997 0.00062964996 -0.00042467233
000190 90 83 cc 37 30 d9 3c 38 ec ff ef 39 a8 1a cf 38
       2.4379959e-05 4.5024964e-05 0.0004577631 9.875494e-05
0001a0 9a 04 56 3a 2d 5b 0a ba 20 b0 b4 39 73 9f 1f 39
       0.0008164138 -0.00052778685 0.000344635 0.00015222821
0001b0 71 5c 24 b9 30 9d 70 39 72 b7 0c 3a 42 ac 0c 39
       -0.00015674696 0.0002294674 0.00053679117 0.00013415611
0001c0 1e cd aa 39 c0 f6 c6 b9 ec dd 66 3a 0d ff 63 b9
       0.0003257775 -0.00037949346 0.00088068726 -0.00021743421
0001d0 f0 4b 92 37 6e 4e eb 39 d4 d5 b7 38 93 cf 85 3a
       1.7439917e-05 0.00044881128 8.7659486e-05 0.0010208957
0001e0 24 01 12 b8 b4 d9 2e ba 6c ee aa 39 55 ea 6c 38
       -3.4810175e-05 -0.00066700135 0.00032602565 5.6485023e-05
0001f0 0c 42 f7 38 62 db cc b9 6e b0 63 b9 20 33 4e b9
       0.0001179018 -0.00039073365 -0.00021714132 -0.00019664736
000200 a4 de 4d b9 9a e4 5e 39 de 76 a4 b9 7b 38 1d 39
       -0.00019633264 0.0002125673 -0.0003136908 0.00014993727
000210 e2 f3 0c ba 82 d8 0e ba 60 06 94 37 6a 4f d9 b9
       -0.00053769175 -0.00054491323 1.7645943e-05 -0.00041448633
000220 e3 66 d1 b9 47 d8 99 38 1e a6 00 ba fb e7 01 ba
       -0.00039940243 7.335893e-05 -0.0004907566 -0.0004955527
000230 63 e3 66 b9 5e ca 40 3a f2 34 03 ba a8 9e c1 b9
       -0.00022019217 0.0007354374 -0.0005005143 -0.00036930037
000240 83 99 a4 b9 70 50 01 3a 6c bf 22 b8 80 4e 07 b8
       -0.00031394893 0.00049329456 -3.8802085e-05 -3.2259617e-05
000250 4e 84 1b b9 00 49 20 b5 84 ef 1e 3a 52 70 4a 39
       -0.00014831239 -5.9710874e-07 0.0006062912 0.00019306064
000260 d3 0d 80 39 10 b8 83 b8 ba 15 59 39 dc 26 61 3a
       0.00024424362 -6.280851e-05 0.00020702826 0.00085888593
000270 b5 20 12 ba b2 85 7c 39 df 9c 11 3a 8d 94 a5 b9
       -0.0005574332 0.00024082398 0.00055546866 -0.0003158193
000280 20 09 4e 36 5e 6e 33 b9 59 2a dc 39 02 d4 2c 3a
       3.0701704e-06 -0.00017111885 0.0004199322 0.0006592871
000290 b7 6f 83 39 7e 51 4e b9 a0 37 64 39 64 f6 a7 38
       0.000250695 -0.00019676049 0.00021764496 8.0090744e-05
0002a0 20 b9 4e 39 a1 0d 2b b9 cb 23 10 3a 2c 2a bc b9
       0.00019714655 -0.00016312908 0.00054984976 -0.00035889575
0002b0 a2 2e ff 39 c0 2f c7 b9 9c 04 09 b9 98 8b 39 3a
       0.00048672134 -0.00037991814 -0.00013067055 0.0007077991
0002c0 8c 53 b1 b9 e0 4a 70 b9 9c 91 c6 39 18 d8 aa b9
       -0.00033822318 -0.00022916077 0.0003787399 -0.0003258593
0002d0 42 98 8b b8 72 d4 03 b9 24 b5 b7 b9 05 d5 cc b9
       -6.656397e-05 -0.00012572276 -0.0003503944 -0.00039068624
0002e0 cc d6 b4 b9 2f 03 13 3a 57 c8 80 39 f0 9d b8 b9
       -0.00034492312 0.00056080794 0.00024563327 -0.00035212887
0002f0 d0 31 7a 3a 1e 13 c9 39 43 e2 3a 39 f8 08 db 38
       0.0009544166 0.0003835195 0.00017822631 0.00010444404
000300 bd 75 54 b9 b8 55 1c 38 5f 9b 83 b9 77 1b 39 3a
       -0.00020261756 3.727313e-05 -0.00025102028 0.00070612825
000310 1b ad 0e 3a 66 87 c0 38 12 39 af 38 56 85 f1 39
       0.0005442665 9.180493e-05 8.3552804e-05 0.00046066445
000320 20 4f 11 b7 af 37 24 3a 18 db 01 3a a5 ea 6f b9
       -8.661096e-06 0.0006264401 0.0004953607 -0.00022880228
000330 e2 19 7a b9 d2 42 c9 b9 99 cc c5 b9 ec a7 ac b9
       -0.000238515 -0.00038387493 -0.00037727205 -0.00032931508
000340 de c1 06 3a 20 d3 eb b9 d2 08 b8 38 ed f3 f6 39
       0.0005140583 -0.00044979993 8.7754466e-05 0.00047102515
000350 3a 40 ac 39 b2 84 0c 3a 7b 49 24 b9 90 4a f3 39
       0.0003285425 0.00053603493 -0.00015667632 0.00046404125
000360 8a 0c 1e 39 70 b7 69 b8 58 7f 04 3a 90 ce ee b8
       0.00015072725 -5.572237e-05 0.0005054376 -0.000113871996
000370 b3 e3 f2 39 3a 33 04 3a 14 94 0a b9 bd 66 17 3a
       0.00046327486 0.0005043034 -0.00013215869 0.0005775502
000380 00 1e b2 b7 d0 4a 33 b8 20 8b 06 38 10 5d 19 b9
       -2.1233223e-05 -4.27466e-05 3.207766e-05 -0.00014625886
000390 89 b8 29 ba 3c 9e c7 39 a0 43 fb b8 18 8c c6 b9
       -0.0006474336 0.00038074132 -0.00011981209 -0.0003786988
0003a0 71 cf 09 39 d0 27 3b 38 56 9b 8e b8 b6 3f 50 b9
       0.00013142616 4.4621353e-05 -6.800021e-05 -0.0001986016
0003b0 b8 3e b0 39 6f 09 d8 39 7d 72 b7 b9 9e d7 09 39
       0.00033616065 0.0004120576 -0.0003498978 0.00013145662
0003c0 bd fd 3b 39 b8 18 b3 b8 4a 96 bf 39 34 43 25 b9
       0.00017928235 -8.539989e-05 0.00036542333 -0.00015760661
0003d0 02 1a e6 39 c0 f1 2b 39 de c4 aa 39 1e e3 5e ba
       0.00043888396 0.0001639789 0.00032571604 -0.0008502471
0003e0 44 79 0a ba 29 30 15 b9 1c 15 1f 39 9c 3b 1b 3a
       -0.0005282352 -0.00014227688 0.00015171285 0.0005921663
0003f0 48 d1 ed b9 80 57 cc b6 08 1f 98 39 a2 8e 95 39
       -0.0004536009 -6.08986e-06 0.0002901482 0.00028525764

layer1.bias f4 [20]
000000 61 b9 56 b9 a0 11 55 3c 82 45 88 39 9a ed 87 b8
       -0.0002047769 0.01300469 0.0002599173 -6.4815584e-05
000010 79 95 b7 b9 e8 fb c4 b8 70 48 32 38 04 82 58 39
       -0.00035015846 -9.3929295e-05 4.250597e-05 0.000206478
000020 6a ed db b9 5a 61 f5 39 2e 00 00 3a 54 17 05 3b
       -0.00041947822 0.00046802574 0.0004882839 0.0020308094
000030 40 cf bf b7 ee 5d 9a ba 4b 22 cf 37 e0 16 14 39
       -2.2865483e-05 -0.0011777261 2.4692292e-05 0.00014122901
000040 b0 c4 8a 35 48 db 8d bc d4 cf 92 b8 fa 3e db 37
       1.0339045e-06 -0.017316476 -7.0005335e-05 2.613616e-05

layer2.weight f4 [5, 20]
000000 e2 d4 0f ba 4c b6 ba 37 00 24 53 b7 79 43 6f b9
       -0.0005486739 2.2257816e-05 -1.2584962e-05 -0.00022817952
000010 e0 7b 35 b9 24 1a 60 38 b3 79 0b 3a b0 7b 89 b8
       -0.00017307652 5.3430107e-05 0.0005320564 -6.555708e-05
000020 b4 90 df b9 13 ff 6b 39 14 15 cf 38 28 ab 04 b7
       -0.00042641687 0.00022506369 9.874455e-05 -7.9076635e-06
000030 75 63 bd 38 0e 0c d2 36 df 13 09 3a 58 dc 18 39
       9.0307476e-05 6.259891e-06 0.0005229096 0.00014577934
000040 18 b9 24 b9 fc 31 1f 39 40 0e 99 37 eb 20 7a 39
       -0.00015709212 0.00015182042 1.8245657e-05 0.00023854121
000050 0e 9f 30 b9 b1 28 1b bf aa 12 4e 38 64 5b 10 38
       -0.0001684392 -0.60608965 4.913161e-05 3.441739e-05
000060 e6 07 d2 b7 d0 51 9f b6 b8 3c a8 37 14 b5 0c b7
       -2.5037629e-05 -4.7480935e-06 2.0055435e-05 -8.386811e-06
000070 ac fa bf b7 f8 e7 01 b8 88 87 6f b9 7a 62 d1 ba
       -2.2885702e-05 -3.0972034e-05 -0.00022843305 -0.0015974783
000080 42 75 00 b9 fb a7 57 bd cc b3 16 3d 66 b3 c4 b7
       -0.00012250713 -0.052650433 0.03679256 -2.344856e-05
000090 e8 2d c1 b6 63 07 87 3d 3e 6a 09 b7 05 9d 97 39
       -5.7571924e-06 0.06593206 -8.190573e-06 0.00028917953
0000a0 94 09 a2 39 ea 57 bc bd 1e 7e c6 39 ec 2d 80 b6
       0.00030906184 -0.09196456 0.00037859468 -3.8200433e-06
0000b0 f3 27 04 b8 e9 26 4b 3a 13 bb 99 3a 88 36 f3 38
       -3.1508458e-05 0.00077496335 0.0011728726 0.000115973
0000c0 8a 13 7c 39 0b 92 01 ba f0 ef 74 37 c0 77 a3 b7
       0.00024039872 -0.00049427216 1.4599398e-05 -1.9486877e-05
0000d0 2e b8 a1 39 b3 6f c7 3d f3 85 91 37 90 d7 06 3a
       0.00030845538 0.09738102 1.7347722e-05 0.00051438157
0000e0 7b 85 8a ba f0 fc 86 36 28 16 80 38 d2 27 3d be
       -0.0010568345 4.022957e-06 6.1076425e-05 -0.18472221
0000f0 db 9c ad b9 45 fa 81 bf 5c 99 3c ba 87 e2 9e 3a
       -0.00033113998 -1.0154501 -0.0007194483 0.0012121954
000100 6d c1 b6 36 e0 e4 6e 36 78 66 13 36 6a 72 40 b7
       5.4465404e-06 3.5597986e-06 2.1964352e-06 -1.1470731e-05
000110 66 3d f1 b8 c9 ed 9e b8 cd cb be b9 32 86 94 bb
       -0.00011503212 -7.578318e-05 -0.00036391467 -0.004532599
000120 a3 66 ca b8 6f 2c b8 3e 77 58 06 3d a0 cf 25 ba
       -9.651228e-05 0.359714 0.03279921 -0.0006325189
000130 06 c6 5d b7 c1 ec 83 3d 40 8b a4 33 d4 37 59 3b
       -1.3218732e-05 0.064416416 7.6621745e-08 0.0033144848
000140 08 8f fe 39 ca e3 ee 37 31 e5 ed 39 f0 f1 9d b7
       0.00048553222 2.8477883e-05 0.00045374924 -1.882852e-05
000150 3c 56 5b b8 2a 13 f7 38 83 c1 37 39 fc c2 ca b9
       -5.229398e-05 0.000117814474 0.00017524329 -0.00038673717
000160 42 0c 80 38 b4 f3 2b b9 00 e5 f2 b7 60 ce a8 39
       6.105799e-05 -0.00016398617 -2.8955285e-05 0.00032197218
000170 e9 ca 43 ba 08 81 43 3e 44 dc f3 bc 38 6b 7c b9
       -0.00074688956 0.1909219 -0.029768117 -0.00024072535
000180 00 ca 4f b6 0b e2 25 bd 86 8f d7 b7 bd dd 13 bd
       -3.0962983e-06 -0.040498774 -2.569683e-05 -0.036100138

layer2.bias f4 [5]
000000 08 7f a3 36 8c a5 e0 3e e1 56 84 bb d4 29 0d 3f
       4.872567e-06 0.43876302 -0.004038677 0.5514195
000010 5f 8a d9 b9
       -0.0004149256

layer3.weight f4 [1, 5]
000000 ce 19 04 37 13 81 fa 3d e9 d5 bf 3b b3 39 27 3f
       7.873821e-06 0.1223165 0.0058543575 0.6532242
000010 54 51 19 3b
       0.0023394423
