model/slide_nn_model_weights/trained_on_phasepred_pdps/dense_650_20_5_1_weights_6.pth (torch, 55366 bytes, 5 tensors)

layer1.weight f4 [20, 650]
0.08955776 -0.42697003 1.6125182 -1.1039293 -0.81932604 -0.0034011677 -0.11146614 0.63425297
1.1979506 0.9520177 0.71968776 -0.1367172 -0.05780892 0.92108905 0.8965238 1.0820123
0.0018637665 0.45427465 -0.7072546 0.094016 -0.26113883 -0.23483223 -0.45349258 1.2505907
0.24455777 0.2418775 -0.9696527 0.07914611 0.50657713 -0.41553226 0.94381386 -0.79848593
0.19402559 0.33380765 -2.4751053 -0.6225467 0.68674064 -0.3901923 -0.8840574 0.64730465
-2.0755005 1.4056464 -0.2406674 -0.31068128 -0.9010837 -0.1149568 0.25568238 -0.21533982
0.9814204 1.0466137 -0.3264828 -0.57608217 -1.2767731 -0.24828191 -0.22921453 -2.0237098
-0.99154264 -1.4326205 0.08224771 0.0908856 0.52506953 0.45182374 -0.11611919 -0.13751544
1.1281618 -1.5559512 -0.78045684 -0.5643405 -0.44635853 -0.28509903 0.11148543 -2.0950775
0.9517916 1.0495112 0.4861866 -0.12887956 0.39813104 -1.3369129 0.71119857 -0.1688152
1.4974115 -0.41256535 1.5748681 0.8708643 -0.30322275 0.79485387 0.2822478 -0.27946
-0.6328479 -0.7636213 0.43208387 0.071774006 0.63149136 1.4497283 -0.8040775 0.40559053
-1.1588522 1.5946158 -0.33726487 -0.21604854 -0.3721352 1.4868617 -1.4862863 -1.7452838
0.0167889 2.5526302 0.57117987 -1.126929 -0.13627043 -0.51864696 0.58320683 -1.1303161
0.31990537 -0.18373197 0.06474369 -0.7973195 0.6963894 -0.9636469 0.07607248 0.3265702
0.41523105 -1.0361333 0.1071152 -0.3932292 -1.5971124 0.3146091 -0.5256586 1.2828354
1.0619525 -0.05650075 0.40441877 -1.1330132 0.26450762 -0.15340897 0.54438156 0.7206068
1.1016097 0.3573814 -0.10261611 -0.48435134 -1.2553394 -0.7334577 0.035814177 -0.49571556
0.24147452 1.8517267 -0.60026586 -0.48941672 0.16956446 -0.21540909 -0.31652465 1.120586
0.67599195 -0.6743424 1.0279423 2.3464375 -0.11573949 0.43446985 -0.12821753 -1.2775018
-0.90281713 -0.6884948 1.0836009 -0.7678202 1.581791 -0.990339 0.46480516 0.27310356
-0.4028813 -1.7679994 0.5925301 2.5209928 -0.6847487 0.07301531 -1.0427928 0.052751776
1.2737058 -0.9628739 -1.0566535 -0.9234558 0.75956625 -0.3266735 -0.020265203 0.8006179
-0.8643286 1.0321504 -0.009714743 0.037257552 0.64369154 -0.353152 -1.8675011 1.3600212
0.54375213 0.54829925 -0.76913196 0.27066398 0.36315814 -0.047282055 0.36149302 0.88540787
0.22365193 -0.2738505 1.8263898 2.0233517 -2.5468948 1.1469736 -0.9011699 -0.43897277
0.8604414 0.9558475 -0.81431246 -0.2185469 -0.3961787 0.59020907 -0.903312 -0.350726
0.66688454 -0.32827315 0.40607736 -1.0107281 -1.0767213 -0.108824134 0.05858456 -0.1797178
0.66861916 2.1646678 -0.06387696 1.7034397 1.0182972 1.3357317 0.17901263 -0.30224875
0.102723144 -0.025449818 -0.5839173 1.3093662 0.75537926 -2.3384323 0.7359654 2.4494276
-0.24653243 -0.21122608 0.19493338 -2.1294136 -1.34188 0.14075203 0.87911886 0.2271053
2.482595 -1.0310099 -0.81528884 -0.35414135 0.01806014 -0.77318364 0.05057046 -1.0830712
00000000: 0f6a b73d d19b dabe ff66 ce3f 8e4d 8dbf
00000010: 5abf 51bf 20e6 5ebb 5c48 e4bd 675e 223f
00000020: 7256 993f 6fb7 733f 753d 383f 98ff 0bbe
00000030: 0cc9 6cbd 7ecc 6b3f 9582 653f 617f 8a3f
00000040: a049 f43a b096 e83e a30e 35bf 768b c03d
00000050: fdb3 85be dc77 70be 2e30 e8be 5b13 a03f
00000060: 5a6d 7a3e bcae 773e 293b 78bf 5b17 a23d
00000070: 0aaf 013f a5c0 d4be c99d 713f 9369 4cbf
00000080: a5ae 463e d6e8 aa3e 2068 1ec0 385f 1fbf
00000090: 3cce 2f3f 49c7 c7be 9651 62bf c2b5 253f
000000a0: 00d5 04c0 39ec b33f 8471 76be 9e11 9fbe
000000b0: 6cad 66bf 796e ebbd cde8 823e 0b82 5cbe
000000c0: 5e3e 7b3f 70f7 853f c128 a7be 1f7a 13bf
000000d0: 4d6d a3bf 9d3d 7ebe 37b7 6abe 7684 01c0
000000e0: bdd5 7dbf 1c60 b7bf 7d71 a83d 3b22 ba3d
000000f0: f56a 063f 7155 e73e e6cf edbd d9d0 0cbe
00000100: 9b67 903f 6929 c7bf 05cc 47bf 9e78 10bf
00000110: 1b89 e4be 80f8 91be 7952 e43d c015 06c0
00000120: 9da8 733f 6256 863f 73ed f83e 01f9 03be
00000130: d5d7 cb3e f61f abbf 1c11 363f e4dd 2cbe
00000140: 2eab bf3f c43b d3be 4795 c93f f6f0 5e3f
00000150: 0340 9bbe 8b7b 4b3f c982 903e 6215 8fbe
00000160: 5202 22bf af7c 43bf 193a dd3e 40fe 923d
00000170: 6ba9 213f b290 b93f 06d8 4dbf 90a9 cf3e
00000180: 4555 94bf 5f1c cc3f fbad acbe d43b 5dbe
00000190: 8188 bebe 7c51 be3f a13e bebf 7665 dfbf
000001a0: e088 893c 4b5e 2340 d838 123f 363f 90bf
000001b0: 7a8a 0bbe 0cc6 04bf 0b4d 153f 33ae 90bf
000001c0: a3ca a33e 3c24 3cbe 5798 843d 211d 4cbf
000001d0: 9346 323f 90b1 76bf e3cb 9b3d 3634 a73e
000001e0: 2a99 d43e 04a0 84bf 375f db3d 5655 c9be
000001f0: 2e6e ccbf 7214 a13e 9091 06bf f333 a43f
00000200: 0fee 873f 556d 67bd fa0f cf3e 9406 91bf
00000210: 8b6d 873e 3e17 1dbe 975c 0b3f b079 383f
00000220: 8c01 8d3f b2fa b63e 6528 d2bd e6fc f7be
00000230: f6ae a0bf e2c3 3bbf e3b1 123d 6ece fdbe
00000240: 1945 773e 6105 ed3f 06ab 19bf d494 fabe
00000250: 4ea2 2d3e 3394 5cbe 850f a2be 5d6f 8f3f
00000260: cf0d 2d3f b4a1 2cbf 9d93 833f 082c 1640
00000270: d308 edbd d572 de3e 754b 03be 2e85 a3bf
00000280: 061f 67bf 3241 30bf 6fb3 8a3f dd8f 44bf
00000290: 2178 ca3f db86 7dbf f1fa ed3e 3bd4 8b3e
000002a0: 7546 cebe ce4d e2bf 0db0 173f f257 2140
000002b0: b14b 2fbf 0d89 953d 3c7a 85bf 3f12 583d
000002c0: cb08 a33f e77e 76bf 6c40 87bf 9967 6cbf
000002d0: ef72 423f c041 a7be 3603 a6bc 4bf5 4c3f
000002e0: a444 5dbf 811d 843f 962a 1fbc 609b 183d
000002f0: f8c8 243f 57d0 b4be 470a efbf 2d15 ae3f
00000300: 5733 0b3f 575d 0c3f d5e5 44bf 7894 8a3e
00000310: ddef b93e d4aa 41bd 9d15 b93e 17aa 623f
00000320: 0305 653e 2236 8cbe 24c7 e93f 987e 0140
00000330: 5300 23c0 08d0 923f 12b3 66bf 0ac1 e0be
00000340: e345 5c3f 6cb2 743f c876 50bf c2ca 5fbe
00000350: efd7 cabe f117 173f 753f 67bf 5c92 b3be
00000360: f2b8 2a3f 6b13 a8be 5fe9 cf3e 8a5f 81bf
00000370: 01d2 89bf 30df debd 5df6 6f3d f107 38be
00000380: a02a 2b3f eb89 0a40 ecd1 82bd 500a da3f
00000390: 9057 823f 42f9 aa3f 164f 373e 59c0 9abe
000003a0: 8360 d23d 237c d0bc 9b7b 15bf 5099 a73f
000003b0: 8960 413f e0a8 15c0 3a68 3c3f 6cc3 1c40
000003c0: ff72 7cbe a64b 58be 9e9c 473e 5048 08c0
000003d0: b9c2 abbf 4d21 103e ef0d 613f 4b8e 683e
000003e0: d6e2 1e40 22f8 83bf c5b6 50bf 0452 b5be
000003f0: dcf2 933c 5def 45bf f822 4f3d 14a2 8abf

layer1.bias f4 [20]
-0.17368913 -0.01796849 0.027292663 -2.874076e-07 0.00013576393 -0.09823967 2.9089475e-05 9.801143e-05
0.00027108332 -0.0020005228 0.000588637 -3.7690337e-05 -0.00038113142 0.00029369266 0.00026606087 -5.4831697e-05
0.0007737731 0.005504039 9.9383586e-05 0.0007957699
00000000: 90db 31be a832 93bc dd94 df3c 004d 9ab4
00000010: da5b 0e39 e131 c9bd 2c05 f437 7c8b cd38
00000020: 3020 8e39 341b 03bb c34e 1a3a b115 1eb8
00000030: 98d2 c7b9 c3fa 9939 167e 8b39 16fb 65b8
00000040: 09d7 4a3a 3a5b b43b 286c d038 379b 503a

layer2.weight f4 [5, 20]
-9.286185e-05 0.0006073787 0.00013979063 0.00019300284 -0.00015142864 -0.000105062245 -1.2232445e-05 0.00015674939
-5.8495963e-05 -6.888319e-05 0.00013447962 -9.3538474e-05 4.686789e-05 -0.00017736357 6.847904e-05 -0.0005797106
0.0007931982 2.643335e-05 0.00031190697 -5.5685872e-05 -1.2179403 -0.0328571 -1.5789766 0.0008318568
0.012563282 0.1734182 0.014017218 -0.030683402 0.01946873 0.32194367 0.004353938 0.0025885825
0.0067936955 -0.012105657 0.011935464 0.0075544845 -0.00674567 -0.047237355 -0.003253017 0.043633033
0.0001846334 -0.0003141312 3.2698947e-05 1.2168603e-06 0.0007770984 -6.061762e-06 2.1213102e-05 -0.0004970392
-2.2428429e-05 0.068558864 0.0005926411 -0.00013249506 5.815843e-05 -4.563522e-05 2.7433853e-05 -0.00024812482
-0.00034132754 -0.0006267895 4.2083893e-06 -6.9018934e-06 -7.3853036e-05 -0.00010019623 -6.215461e-05 0.00051022304
0.00016743627 -2.7529833e-05 -5.443982e-05 -0.00045174803 -1.5148775e-05 1.519382e-05 0.00021969798 0.000105466155
0.0004750411 1.3356475e-05 -0.00044162286 1.8502633e-06 -6.3255815e-05 -0.0001919384 -8.8128065e-05 3.890058e-05
-0.00026126797 0.0006521597 -8.056116e-05 0.0004906495 0.00031475467 -0.00014748042 -2.966131e-05 0.00024171124
0.00016370988 0.00012752938 -5.021127e-05 -0.03755814 0.00067598483 0.00018820816 -0.0001851511 0.00043171193
-0.00015521518 0.0033364093 -5.041875e-05 -0.00061472267
00000000: d3be c2b8 7f38 1f3a c394 1239 ce60 4a39
00000010: d1c8 1eb9 dd54 dcb8 f439 4db7 185d 2439
00000020: 9059 75b8 6275 90b8 1903 0d39 162a c4b8
00000030: 0494 4438 acfa 39b9 689c 8f38 b8f7 17ba
00000040: a1ee 4f3a 30bd dd37 7287 a339 4090 69b8
00000050: 78e5 9bbf 2b95 06bd e81b cabf f710 5a3a
00000060: 39d6 4d3c 8a94 313e 79a8 653c c25b fbbc
00000070: e37c 9f3c cdd5 a43e 7bab 8e3b 35a5 293b
00000080: a69d de3b ce56 46bc f78c 433c 9c8b f73b
00000090: c80a ddbb f57b 41bd 9230 55bb 8db8 323d
000000a0: 279a 4139 fab1 a4b9 3a26 0938 0053 a335
000000b0: 31b6 4b3a 2466 cbb6 caf2 b137 bc4b 02ba
000000c0: af24 bcb7 9768 8c3d 795b 1b3a 5fee 0ab9
000000d0: 24ef 7338 7268 3fb8 c021 e637 c016 82b9
000000e0: 35f4 b2b9 224f 24ba ca35 8d36 d096 e7b6
000000f0: 8ce1 9ab8 7120 d2b8 0159 82b8 7dc0 053a
00000100: d591 2f39 deef e6b7 5056 64b8 98d8 ecb9
00000110: 7e27 7eb7 f6e8 7e37 ba5e 6639 b62d dd38
00000120: f00e f939 a015 6037 9e89 e7b9 9056 f835
00000130: 35a8 84b8 1243 49b9 65d1 b8b8 2e29 2338
00000140: cbfa 88b9 b2f5 2a3a f2f2 a8b8 ee9e 003a
00000150: a805 a539 f9a4 1ab9 2ed1 f8b7 de73 7d39
00000160: 89a9 2b39 68b9 0539 f199 52b8 90d6 19bd
00000170: 9334 313a be59 4539 1f25 42b9 6557 e239
00000180: 42c1 22b9 a9a7 5a3b b878 53b8 5725 21ba

layer2.bias f4 [5]
5.7963e-05 0.23573789 -0.0026128222 1.3716435e-06 0.00067545584
00000000: 4c1d 7338 4665 713e e23b 2bbb 5019 b835
00000010: 1311 313a

layer3.weight f4 [1, 5]
1.8478355e-05 0.80300224 -0.0016072409 -1.6361093e-05 0.0016715855
00000000: f701 9b37 8e91 4d3f 0eaa d2ba 2e3f 89b7
00000010: 1a19 db3a
