model/slide_nn_model_weights/trained_on_phasepred_pdps/dense_650_20_5_1_weights_7.pth (torch, 55366 bytes, 5 tensors)

layer1.weight f4 [20, 650]
0	0xbd6397f2	-0.05556483
1	0x3ecf8711	0.40532735
2	0xbdde6c0d	-0.10860453
3	0x3fc5f943	1.5466694
4	0x3f23ac76	0.6393503
5	0xbf59f46c	-0.85138583
6	0x3f8a9e37	1.0829533
7	0xbfa00927	-1.2502793
8	0xbebe4c0b	-0.3716739
9	0x3f47538e	0.7786187
10	0xbf9693ac	-1.1763816
11	0x3f5d4821	0.86438185
12	0x3f706d51	0.93916804
13	0xbe029aee	-0.12754413
14	0x3fae2e72	1.3607924
15	0xbf33cd9a	-0.702356
16	0xbc87a2a3	-0.016557043
17	0xbdd28afd	-0.10280416
18	0xbf69c944	-0.9132273
19	0x3d7b06ee	0.061285906
20	0xbd40f79a	-0.04711113
21	0xbfc3a372	-1.5284255
22	0xbf1e120b	-0.6174628
23	0xbe79a544	-0.2437945
24	0x3e5df902	0.2167702
25	0xbf45587c	-0.7708814
26	0x3eb37bdb	0.35055432
27	0x3ec2d72d	0.3805479
28	0xbfc1930e	-1.5123003
29	0x3ed4908b	0.41516528
30	0xbf9e395f	-1.2361258
31	0x3ecf1587	0.40446112
32	0xbf32e50d	-0.69880754
33	0xbf3cd568	-0.7376313
34	0x3def25f6	0.11677162
35	0xbe3b5303	-0.18293385
36	0xbedf1e02	-0.43577582
37	0x3f46abc9	0.77605873
38	0x3f535ff1	0.8256827
39	0xbf299024	-0.66235566
40	0x3f90c73a	1.1310799
41	0xbf907415	-1.1285425
42	0x3d85b850	0.065292954
43	0xbf19856f	-0.5996923
44	0x3e7a9d54	0.24474078
45	0xbf62079a	-0.8829285
46	0x3d13e894	0.036110476
47	0xbe455d50	-0.19273877
48	0xbf7215fd	-0.945648
49	0x3e144f6f	0.14483427
50	0xbf557e9e	-0.8339633
51	0x3d958a9f	0.073018305
52	0xbe9b0760	-0.30279064
53	0xbe2e0d6e	-0.1699731
54	0x3ec5a890	0.38605165
55	0x3f3f6384	0.74761224
56	0xbe895dac	-0.26829278
57	0xbe3c1406	-0.18367013
58	0xbe83e7fd	-0.2576293
59	0x3f449e59	0.7680412
60	0xbe1466c1	-0.14492323
61	0x3ec6e86e	0.38849205
62	0xbbad7b53	-0.0052942424
63	0x3f7f1200	0.9963684
64	0xbf529e48	-0.8227277
65	0xbed9af4f	-0.42516562
66	0xbf2e0de5	-0.6798995
67	0x3e3babda	0.18327275
68	0xbc68c7e2	-0.014207812
69	0x3f9095b0	1.1295681
70	0x3ea2b608	0.31779504
71	0x3f4e1bc2	0.80511105
72	0xbf9f157a	-1.2428429
73	0xbd1352c1	-0.035967592
74	0x3f8f481c	1.1193881
75	0xbe5d6f58	-0.21624506
76	0xbeb996c9	-0.36247852
77	0x3f576df8	0.84152174
78	0xbf1ccdbf	-0.61251444
79	0x3f10f7ea	0.56628287
80	0xbf5a1506	-0.8518833
81	0x3e807f4a	0.25097114
82	0x3f7c1317	0.9846663
83	0x3efc1a61	0.49238876
84	0x3f8f973d	1.1218029
85	0xbec74c7f	-0.3892555
86	0xbefd1352	-0.49428803
87	0x3db9416d	0.09045682
88	0xbf4f037e	-0.80864704
89	0x3f67dbac	0.9056957
90	0xbf369cfa	-0.7133328
91	0x3f078981	0.5294419
92	0xbebf99ca	-0.3742202
93	0xbf981f88	-1.1884623
94	0xbed35da7	-0.4128239
95	0xbfad4b52	-1.3538611
96	0xbf15d0ea	-0.585219
97	0xbf2489ab	-0.64272565
98	0xbf8ebb29	-1.1150867
99	0x40104f52	2.2548413
100	0x3f2d7b0f	0.677659
101	0xbeec52ce	-0.46156925
102	0x3f98b488	1.1930094
103	0x3eddef63	0.433467
104	0x3f97f5fd	1.1871945
105	0xbecdc37c	-0.40188205
106	0xbf1ac99e	-0.60463893
107	0x3f83e5fb	1.030456
108	0x3f6a26c0	0.9146538
109	0x3f4778d0	0.7791872
110	0x3f3bad39	0.7331119
111	0x3f418bcf	0.75603956
112	0xbc5b337a	-0.013378972
113	0x3f989c32	1.1922667
114	0xbf6f47a5	-0.93468696
115	0x3ff5065e	1.9142568
116	0xbf5f40c3	-0.87208194
117	0x3e4d1b9c	0.20030063
118	0x3faec0ab	1.3652548
119	0xbea01aa1	-0.31270316
120	0x3f6bf7f6	0.92175233
121	0x3ed2cc43	0.41171464
122	0xbfaa312f	-1.329626
123	0xbdfbd011	-0.12295545
124	0xbe7a98eb	-0.24472396
125	0xbe3def0d	-0.18548222
126	0xbc4907e2	-0.012269946
127	0xbf4b77fb	-0.7947995
128	0xbf1370ce	-0.57594
129	0xbefe3361	-0.49648574
130	0x3e8555af	0.26041934
131	0xbea6fd71	-0.32615235
132	0x3f3f6741	0.7476693
133	0xbf651209	-0.89480644
134	0x3f37ed49	0.71846443
135	0x3de4d6b0	0.11173761
136	0x3cb839ce	0.0224885
137	0xbf70d3ed	-0.94073373
138	0xbb991099	-0.004671168
139	0x3eabd116	0.33557957
140	0x3e0200a1	0.12695552
141	0x3e2f1894	0.1709922
142	0xbdd0ab0f	-0.10188877
143	0x3f3b0ca0	0.7306614
144	0xbe0e522b	-0.13898532
145	0x3fc82344	1.5635762
146	0xbdb1d88e	-0.08683883
147	0x3e34a449	0.17640795
148	0xbddb0e9b	-0.10696145
149	0x3f565fd7	0.8373999
150	0x3ec851df	0.39124963
151	0x3f2e2605	0.68026763
152	0xbf081bce	-0.53167427
153	0xbea5e6ac	-0.3240255
154	0x3e98c8db	0.2984074
155	0xbd2a5417	-0.0415841
156	0x3f043e1a	0.5165726
157	0x3eb95f9f	0.36205766
158	0xbf40453d	-0.7510565
159	0xbf651f55	-0.89500934
160	0x3eedb7e8	0.46429372
161	0x3fc4a5cd	1.5363098
162	0xbe0330e6	-0.12811622
163	0x3e5d6a8b	0.21622674
164	0xbf4ff306	-0.812302
165	0x3fda4312	1.7051718
166	0xbe5a8f22	-0.21343663
167	0xbf6a4cfd	-0.91523725
168	0x3ebd8134	0.37012637
169	0x40061f79	2.095671
170	0x3ea4d8c8	0.3219664
171	0xbf55b5c1	-0.8348046
172	0x3fcc7ae4	1.5975003
173	0x3f089ec4	0.5336726
174	0x3f126918	0.5719161
175	0xbf454451	-0.7705737
176	0xbfbfa987	-1.4973611
177	0xbcdd1f86	-0.02699257
178	0x3f7e7ff6	0.99414
179	0x3ebd3fa5	0.3696262
180	0xbe9cbeb4	-0.30614245
181	0x3e86ef82	0.26354605
182	0xbd36c3f7	-0.04462048
183	0xbfb5d71b	-1.420627
184	0x3e6d3d9c	0.23168033
185	0x3f81496d	1.0100533
186	0x3eb797d5	0.35858026
187	0x3f638161	0.8886929
188	0xbeeb6179	-0.45972803
189	0x3f15b161	0.58473784
190	0x3fd369d4	1.6516671
191	0x3e97c67c	0.2964362
192	0x3eed9b0a	0.46407348
193	0xbe548e08	-0.20757306
194	0xbe8f939d	-0.28042307
195	0xbf9eccc6	-1.2406242
196	0xbe1951ad	-0.14972563
197	0xbf3531f6	-0.7077936
198	0xbdf1b721	-0.11802507
199	0xbd0f6619	-0.035009477
200	0x3e53db2a	0.20689073
201	0x3b33d850	0.0027442165
202	0xbfb1d825	-1.3894087
203	0xbf70806b	-0.9394595
204	0x3ff9ae4b	1.9506315
205	0xbf9377e3	-1.1520962
206	0xbeb9dd63	-0.36301717
207	0x3e19b4f8	0.1501044
208	0xbfc30874	-1.5236955
209	0xbf96001c	-1.1718783
210	0xbf9953f7	-1.1978749
211	0x3ed53066	0.41638488
212	0x3f3b7ad5	0.732343
213	0xbf9eb7a6	-1.2399795
214	0xbe9dc885	-0.30817047
215	0xbfbd3e15	-1.4784571
216	0x3ee4e0fb	0.44702896
217	0x3eb7cbd2	0.3589769
218	0xbeb849ea	-0.35993892
219	0x401a65bc	2.4124594
220	0x3e09f98e	0.13474104
221	0xbf723953	-0.9461872
222	0x3e86301e	0.26208586
223	0xbe1b22f8	-0.15150058
224	0x3e844758	0.2583568
225	0xc038faa5	-2.8902981
226	0xbf1481bb	-0.58010453
227	0xbf8ab263	-1.0835689
228	0xbf05c0de	-0.52247417
229	0xbf7e2fa4	-0.99291444
230	0xbfc086e3	-1.5041164
231	0xbf9a6694	-1.2062554
232	0xbef3e2ef	-0.47634074
233	0x3ea291e6	0.31751937
234	0xbf55b7f6	-0.8348383
235	0x3e609cd4	0.21934825
236	0xbe3856f7	-0.18001924
237	0x3f98e025	1.1943403
238	0xbfa1aba6	-1.2630508
239	0xc0110aa4	-2.2662745
240	0xbf014a61	-0.5050412
241	0x3f63296f	0.887351
242	0x3f3aef1b	0.73021096
243	0x3f8518c1	1.0398179
244	0x3f0a2b73	0.5397255
245	0xbf7571dc	-0.9587686
246	0x3ddd425a	0.10803671
247	0xbe3f2c8f	-0.18669342
248	0xbf8078fe	-1.0036924
249	0x3f4a7fe2	0.79101384
250	0xbe2f70ea	-0.17132917
251	0x3de0d175	0.10977451
252	0xbfad8bc7	-1.3558282
253	0xbd7ec2b1	-0.06219739
254	0x3eb0214b	0.344004
255	0x3f8f040e	1.1173112

layer1.bias f4 [20]
0	0x3d6071cb	0.05479602
1	0x388a1897	6.584933e-05
2	0xb9bb4583	-0.0003571921
3	0xb6547950	-3.1661075e-06
4	0x38eae323	0.00011200297
5	0x399e7a94	0.00030227436
6	0x36829ef0	3.8928047e-06
7	0xb98606d2	-0.00025563553
8	0x3a83f03e	0.0010066105
9	0xb963904e	-0.00021702165
10	0xb993d753	-0.00028198454
11	0xb89bda9e	-7.4316966e-05
12	0xbc6aae1a	-0.014323736
13	0xb99c7a20	-0.0002984563
14	0xb78795c2	-1.616299e-05
15	0xbd40dd6f	-0.047086176
16	0xb9e27297	-0.00043191455
17	0xb9967a7d	-0.0002870149
18	0xb8c29d06	-9.279889e-05
19	0x39afbe77	0.00033520508

layer2.weight f4 [5, 20]
0	0x3d307986	0.043084644
1	0xb9506858	-0.00019875297
2	0x3906d998	0.00012860296
3	0xb744aba0	-1.172247e-05
4	0x37aad8c4	2.0366519e-05
5	0x379fbd80	1.904252e-05
6	0x39eda1bf	0.00045324673
7	0x3a123b2b	0.0005578275
8	0x3a0c6cbd	0.00053567794
9	0xb7d24fb3	-2.5071064e-05
10	0xb86d3368	-5.655308e-05
11	0x37f07548	2.8664843e-05
12	0xbb8c8c2f	-0.004289172
13	0xb9a87c54	-0.0003213609
14	0xb8b066c0	-8.411473e-05
15	0xbc9a0f2c	-0.018806063
16	0x3822da40	3.882707e-05
17	0x3a09596c	0.000523946
18	0x37b5abe6	2.1656928e-05
19	0xb99b9a02	-0.0002967865
20	0xb70f09ec	-8.525774e-06
21	0x3953cb59	0.00020198281
22	0xb9f6b549	-0.00047055844
23	0x39d7d42a	0.0004116607
24	0xb85fdb22	-5.3371426e-05
25	0x3a02fab4	0.0004996464
26	0xb85ae64a	-5.2189724e-05
27	0x38f94028	0.00011885195
28	0x3986b13c	0.00025690522
29	0xb958df1e	-0.00020682483
30	0x380a4704	3.2967902e-05
31	0x39045b00	0.00012622401
32	0x382fbe9a	4.1900763e-05
33	0xb877b238	-5.905537e-05
34	0xb9567966	-0.00020453855
35	0x370a88e0	8.25731e-06
36	0xb96c5b08	-0.00022540626
37	0xb9f708fe	-0.0004711821
38	0xba0f3c5a	-0.000546401
39	0xb61c0da0	-2.3253742e-06
40	0xbd059a97	-0.03261813
41	0x3b7fcc2a	0.0039031603
42	0x3887e44c	6.479825e-05
43	0x3c149451	0.0090685645
44	0x3a596fbf	0.00082945445
45	0x3b822bd0	0.003972508
46	0x3ba957c4	0.005167933
47	0x3c3b1cf1	0.011420474
48	0x3c19a9eb	0.0093788905
49	0x3b28351d	0.0025666424
50	0x3b82ac6e	0.0039878404
51	0x3bc3df61	0.0059775566
52	0xbd98063b	-0.07423063
53	0xbc1c5f6e	-0.009544237
54	0x3b944b0d	0.0045255483
55	0x3f75954a	0.9593092
56	0x3ba01f86	0.0048865704
57	0x3ba476cf	0.005019046
58	0x3b0c17cc	0.0021376489
59	0x3a8f17ac	0.0010917089
60	0xb88b3fde	-6.639933e-05
61	0xb62e0880	-2.5932968e-06
62	0xb3dac000	-1.0186341e-07
63	0x393c41c4	0.00017953577
64	0x372c5e40	1.0273943e-05
65	0xb9b13753	-0.0003380129
66	0xb921afa0	-0.00015419582
67	0xba2d429d	-0.00066093524
68	0x395618d8	0.00020417885
69	0xb984a028	-0.00025296328
70	0x395b77d8	0.00020930113
71	0x3986cdd5	0.00025711828
72	0x3981e543	0.0002477561
73	0x38a57f0f	7.8914796e-05
74	0xb97779fc	-0.00023601198
75	0x37b69068	2.1763335e-05
76	0xb863a354	-5.427313e-05
77	0x39ad191f	0.00033015848
78	0x39a169fb	0.00030787275
79	0x398fba8e	0.0002741408
80	0x3eec0817	0.46099922
81	0xbc83a658	-0.01607053
82	0xbc4c251c	-0.012460019
83	0xbcd5cbca	-0.02609815
84	0xbb056c67	-0.0020358802
85	0xbc7f652d	-0.015588087
86	0xbcfe93c3	-0.031076318
87	0x3c91f9b2	0.01781926
88	0xbcf4afb3	-0.029868936
89	0xbd3ff187	-0.046861198
90	0xbc8bbb7c	-0.017057173
91	0x3cf67c52	0.030088577
92	0x3e4c5456	0.19954047
93	0xbc070283	-0.008240345
94	0xbc8f9213	-0.017525708
95	0xbfe9ef21	-1.8276101
96	0xbc99bae5	-0.018765876
97	0xbc85bc4f	-0.016325144
98	0x3c059d34	0.008155156
99	0xbb9d356c	-0.004797628

layer2.bias f4 [5]
0	0x3bdafd6a	0.0066830413
1	0xb67c7620	-3.7619684e-06
2	0xbd17ac5e	-0.037029617
3	0x381c5900	3.7276186e-05
4	0x3ddb1883	0.106980346

layer3.weight f4 [1, 5]
0	0x3c26d678	0.010182969
1	0x3716b0a0	8.98182e-06
2	0xbe0e6b42	-0.13908103
3	0x382689b3	3.9705727e-05
4	0x3f4c7d53	0.7987873
