model/slide_nn_model_weights/trained_on_phasepred_pdps/dense_650_20_5_1_weights_3.pth (torch, 55366 bytes, 5 tensors)

layer1.weight f4 [20, 650]
0	0xbe20635d	-0.15662904
1	0x3da609b7	0.08107322
2	0x3d61bd10	0.055111945
3	0x3e7bf8f4	0.24606687
4	0xbc54e28f	-0.012993469
5	0x3d84803d	0.06469772
6	0x3e52ae09	0.20574202
7	0x3d01e950	0.031716645
8	0x3d91c6ce	0.07117997
9	0xbd9fc310	-0.07800877
10	0x3d28e2aa	0.04123179
11	0x3dc455ea	0.09586699
12	0xbd95cab8	-0.07314056
13	0x3efeb046	0.4974386
14	0x3e8e10c9	0.2774718
15	0x3e23a0c2	0.15979293
16	0x3d98605f	0.07440256
17	0x3e4bdd53	0.19908647
18	0xbe20cf91	-0.1570418
19	0x3dffb72b	0.124861084
20	0x3b586a3b	0.0033022303
21	0x3e94aa7c	0.2903632
22	0x3b656a73	0.0035006076
23	0xbeaa2b07	-0.33235952
24	0xbc0c09da	-0.008547271
25	0x3e77752f	0.24165796
26	0xbe9da445	-0.3078939
27	0x3d064f91	0.032790724
28	0x3ebc72ca	0.36806327
29	0x3e6c9393	0.2310317
30	0xbe51efc6	-0.20501623
31	0x3e5cfc5e	0.21580645
32	0x3e4daee4	0.20086247
33	0x3dbd5d38	0.09246296
34	0xbd92ade9	-0.07162077
35	0xbe0f64dc	-0.14003319
36	0x3dc97628	0.0983699
37	0xbe18ef54	-0.14935046
38	0x3e0d4310	0.13795114
39	0x3e3fbcc8	0.18724358
40	0x3d441880	0.047874928
41	0x3e133824	0.14376885
42	0xbd259c7d	-0.040432442
43	0x3d391592	0.045186587
44	0x3dcef33b	0.10104986
45	0x3da13d40	0.07873011
46	0x3de6db14	0.112722546
47	0x3bfc7d0d	0.007705337
48	0x3d387d1b	0.045041185
49	0xbe63b769	-0.22237934
50	0x3e31be5f	0.17357777
51	0x3efb3d70	0.4907031
52	0x3e16b499	0.1471733
53	0xbe666605	-0.22499855
54	0xbe87b371	-0.2650409
55	0xbdc028a5	-0.09382752
56	0xbd64bda0	-0.055844903
57	0xbef899e6	-0.48554915
58	0xbe1e7e02	-0.15477756
59	0xbd81beee	-0.06335245
60	0x3e961bb0	0.29318
61	0xbe6a5d50	-0.22887158
62	0x3dd834c1	0.10556937
63	0xbce9e3ac	-0.028550945
64	0x3df53e72	0.11974801
65	0x3e2e7e52	0.17040375
66	0x3c260588	0.010133155
67	0xbe3218a7	-0.17392217
68	0xbe54d94c	-0.20786017
69	0xbdd43a8e	-0.10362731
70	0xbbf33b03	-0.007422806
71	0x3ecf7b42	0.40523726
72	0x3ee46948	0.44611573
73	0x3d2231da	0.039598323
74	0x3df2f349	0.11862809
75	0x3e5be2d1	0.21473242
76	0x3e895d93	0.26829204
77	0xbe14e89d	-0.1454186
78	0x3c24fae1	0.01006958
79	0xbeb7c5b4	-0.35893023
80	0xbea3d325	-0.31997028
81	0x3b8d280b	0.004307752
82	0xbd024ac7	-0.031809594
83	0x3de28a15	0.11061493
84	0x3e939b29	0.28829315
85	0xbdc33e02	-0.095333114
86	0x3e5c0a48	0.21488297
87	0xbda43c3e	-0.08019303
88	0xbc8a577b	-0.016887417
89	0xbdb626ee	-0.08894144
90	0xbe62d682	-0.2215214
91	0x3e6ae33d	0.22938247
92	0x3e2ce020	0.16882372
93	0xbe154f56	-0.14581046
94	0xbdb10485	-0.0864344
95	0x3dd615f3	0.10453405
96	0xbf157b11	-0.5839091
97	0xbdb56780	-0.08857632
98	0x3e111c2a	0.141709
99	0xbe09c262	-0.13453057
100	0xbdf990ca	-0.121858194
101	0xbe282118	-0.16418874
102	0xbf066b49	-0.52507454
103	0x3d1f5c74	0.03890653
104	0x3ce22e11	0.027609857
105	0x3dc1ac03	0.09456637
106	0xbe45fc91	-0.19334628
107	0x3dab1148	0.083529055
108	0x3cd3f736	0.025874715
109	0xbdea1b4d	-0.114309885
110	0xbe1f7efb	-0.15575783
111	0xbd98026a	-0.074223354
112	0x3be49272	0.0069754655
113	0x3ea91c06	0.33029193
114	0x3d9b0e85	0.07571129
115	0xbe8596ef	-0.26091716
116	0x3e696812	0.22793606
117	0xbdbeaca4	-0.09310272
118	0xbe81562d	-0.2526106
119	0xbe40d4fe	-0.1883125
120	0x3e7b3e1b	0.2453541
121	0xbda09533	-0.078409575
122	0x3d652996	0.055947863
123	0xbec3da36	-0.3825242
124	0x3d12c638	0.035833567
125	0x3eb5d635	0.3551499
126	0xbdb7e391	-0.08978952
127	0x3d962f41	0.07333232
128	0xbc1aa1cb	-0.0094379885
129	0x3de2f1cb	0.110812746
130	0x3e253102	0.16131976
131	0xbc6df88e	-0.014524592
132	0x3e8d5ce2	0.27609926
133	0x3d9eaf57	0.07748287
134	0x3dd91c5a	0.10601111
135	0xbead7395	-0.33877245
136	0x3e24eff5	0.16107161
137	0x3e820f42	0.25402266
138	0x3e8e87e6	0.27838057
139	0xbde23fde	-0.11047338
140	0x3ef8afe0	0.48571682
141	0xbed8187e	-0.42206186
142	0xbe7406a3	-0.23830657
143	0xbe2f20b2	-0.17102316
144	0x3c2c8a16	0.010530969
145	0xbdfebe8b	-0.12438687
146	0xbe86ec95	-0.26352373
147	0xbd1ae6ab	-0.03781764
148	0xbd94cab0	-0.07265222
149	0x3e1077f9	0.14108266
150	0xbddb5c3e	-0.10710953
151	0x3e54585f	0.20736836
152	0x3e24f229	0.16108002
153	0xbc64b92b	-0.013960163
154	0x3d183605	0.037160892
155	0xbe07e9cc	-0.1327278
156	0xbeaebdd9	-0.34129217
157	0xbdcf91c3	-0.10135224
158	0x3dcb788f	0.09935104
159	0x3ec4189f	0.38300034
160	0x3e780304	0.242199
161	0x3e637fd7	0.22216736
162	0xbda7e469	-0.08197863
163	0x3cf96fab	0.030448755
164	0x3e81c2eb	0.25344023
165	0x3d817faa	0.06323178
166	0xbea0a176	-0.31373185
167	0x3e07aef7	0.13250338
168	0x3e050437	0.12989889
169	0xbd9dcda9	-0.07705242
170	0xbd2a6f23	-0.041609894
171	0xbda5c59d	-0.08094332
172	0x3d41a93b	0.04728053
173	0xbef158b5	-0.4713799
174	0xbeca7ace	-0.39546818
175	0x3e16e278	0.14734828
176	0x3e4b9d3e	0.19884202
177	0xbdce23c3	-0.10065415
178	0xbde40aae	-0.111348495
179	0xbe43d600	-0.19124603
180	0x3dffdbde	0.12493108
181	0xbe38059e	-0.17970893
182	0x3c407640	0.011746943
183	0x3d8db94b	0.069201075
184	0xbe8dcc07	-0.27694723
185	0x3f12d582	0.5735704
186	0xbdb5b488	-0.08872324
187	0x3d9b5504	0.07584575
188	0xbe6329f8	-0.22183979
189	0xbe00c65a	-0.12575665
190	0xbe91d0f3	-0.28479728
191	0xbdba7c16	-0.09105699
192	0x3c3036e4	0.010755274
193	0x3ce0cd8e	0.027441766
194	0x3e0bba94	0.13645393
195	0xbe0a1944	-0.134862
196	0x3eba05bc	0.363325
197	0xbe658715	-0.22414811
198	0x3caeacce	0.021322634
199	0x3e6cf10a	0.23138824
200	0xbe26f382	-0.16303828
201	0xbdb5bdb6	-0.08874075
202	0x3e363fcf	0.17797779
203	0x3dd5b80f	0.10435497
204	0x3e8f1772	0.27947575
205	0xbeffaed0	-0.4993806
206	0x3dbf8d36	0.09353106
207	0xbf04f2c0	-0.5193291
208	0xbdce9e96	-0.100888416
209	0xbeb7369a	-0.35783845
210	0xbdd4d4e7	-0.103921704
211	0x3dee6f68	0.11642343
212	0xbdd78354	-0.10523096
213	0xbe8a7b7a	-0.2704733
214	0x3ecfbea7	0.40575144
215	0x3de3d4c5	0.11124567
216	0xbdecae49	-0.1155668
217	0xbd0470bd	-0.032334078
218	0x3df22dc2	0.11825134
219	0xbd92e187	-0.07171922
220	0xbdc13714	-0.094343334
221	0x3e4ef4a4	0.2021051
222	0xbbf3a601	-0.0074355607
223	0xbe98f864	-0.29877007
224	0x3e616866	0.22012481
225	0xbe2befa8	-0.1679064
226	0x3e0f13b6	0.13972363
227	0x3e02f2b3	0.12787895
228	0xbc28b93b	-0.010298069
229	0xbe67edf2	-0.22649363
230	0x3d355841	0.04427362
231	0xbe04a8dd	-0.12955041
232	0xbd6b1b5f	-0.05739915
233	0x3e3f2f38	0.18670356
234	0xbcea141c	-0.028574042
235	0x3e9a4f47	0.3013861
236	0x3e7c227f	0.24622534
237	0xbd1b5ec4	-0.037932172
238	0x3eca0d22	0.39463145
239	0x3d583630	0.052786052
240	0xbef7a1e2	-0.48365694
241	0xbec6b547	-0.3881018
242	0x3e87e82c	0.2654432
243	0x3e603075	0.21893485
244	0xbf07a46e	-0.52985275
245	0xbd1fa0ea	-0.03897182
246	0x3e1202d9	0.14258899
247	0x3e736030	0.23767161
248	0xbca14740	-0.019687295
249	0xbe3d5b17	-0.1849178
250	0x3e0ef10f	0.13959144
251	0xbe6e91c8	-0.23297799
252	0xbdf15859	-0.11784429
253	0xbe476014	-0.19470245
254	0xbaa7d21c	-0.0012803706
255	0xbda83a9b	-0.08214303

layer1.bias f4 [20]
0	0xba658cc3	-0.0008756632
1	0xbad61638	-0.0016333526
2	0xb9cf117e	-0.0003949515
3	0x37b0096a	2.0985219e-05
4	0x38c0ff1e	9.202793e-05
5	0x3925c205	0.00015807904
6	0x383d7772	4.5172354e-05
7	0x3cea3021	0.028587403
8	0x39552a1e	0.00020328953
9	0xbeddae61	-0.43297103
10	0xbcfde123	-0.030991143
11	0xbe720a4f	-0.23636745
12	0x3981e05e	0.00024771964
13	0x390106b0	0.0001230489
14	0x3926f716	0.0001592304
15	0x3a98ebdd	0.0011666972
16	0xb7070120	-8.046889e-06
17	0x39a63f3e	0.00031709106
18	0x382d97a4	4.138764e-05
19	0x398ba385	0.00026633978

layer2.weight f4 [5, 20]
0	0xb605d440	-1.994209e-06
1	0x3712aab0	8.742019e-06
2	0xb870a338	-5.737247e-05
3	0xb882de88	-6.240333e-05
4	0xb9bf95e0	-0.00036542024
5	0xb85af692	-5.2204887e-05
6	0x386b1040	5.60435e-05
7	0xb7d6f933	-2.562683e-05
8	0x37491296	1.1984861e-05
9	0x38d7c5f1	0.00010288868
10	0x38d2d56c	0.00010053333
11	0x35c7d760	1.4889338e-06
12	0x39131cfa	0.00014029807
13	0xb96a7b3f	-0.00022361892
14	0xb8f9db02	-0.000119140386
15	0xb90e47ea	-0.00013568965
16	0x37e57524	2.7353475e-05
17	0x399907e2	0.00029188307
18	0xb90e06da	-0.00013544728
19	0xb98ceb54	-0.00026878214
20	0xb6550800	-3.174413e-06
21	0x3a2ea7b8	0.0006662565
22	0x3a01c4cb	0.0004950284
23	0x3a414b1a	0.0007373557
24	0x388f89d0	6.844441e-05
25	0x3a0591f9	0.0005095299
26	0x384d8050	4.899531e-05
27	0xb9b549d8	-0.00034578028
28	0x39cf8231	0.00039579117
29	0x3a7b7ed2	0.0009593788
30	0xb941dfab	-0.00018489237
31	0xb99ad78f	-0.00029533773
32	0xb821b624	-3.8555023e-05
33	0x39db10d2	0.00041783467
34	0x3820494c	3.8215236e-05
35	0x39c07a7c	0.00036712352
36	0xb971b9d4	-0.00023052777
37	0x39cb6187	0.0003879184
38	0x392e3d96	0.00016616876
39	0xb9a7865a	-0.00031952822
40	0xbc77482b	-0.01509289
41	0x3b8ab71e	0.004233255
42	0xbc65cc3a	-0.014025742
43	0xbb3e9dfd	-0.0029085868
44	0xbc50f11e	-0.012752799
45	0xbcec308c	-0.028831743
46	0xbb2886fd	-0.0025715225
47	0x3ee083d9	0.43850592
48	0xbc1f7b6b	-0.009734015
49	0xbf2595d9	-0.64681774
50	0x3c4863f3	0.012230861
51	0xbfee5061	-1.861828
52	0xbab1a72c	-0.001355385
53	0xbc51f4ac	-0.012814682
54	0xbb3469fb	-0.002752899
55	0xbc8b0de8	-0.016974404
56	0xbaadcb7d	-0.0013259497
57	0xbbbfe107	-0.005855683
58	0xbc3f4c32	-0.011675881
59	0xbc51ef22	-0.012813361
60	0x3a4c0764	0.0007783084
61	0xb8474578	-4.7509995e-05
62	0xb9633bde	-0.00021670709
63	0xb8c6ae00	-9.473786e-05
64	0xb9daebfc	-0.00041756022
65	0xba08df63	-0.00052212755
66	0xb9a66497	-0.00031736933
67	0xb8d410ee	-0.00010112101
68	0x391f08bb	0.00015166674
69	0xb712ea20	-8.75679e-06
70	0x39037180	0.00012535416
71	0x394d19e2	0.00019559966
72	0x38baf29c	8.914361e-05
73	0xb8558f44	-5.0916584e-05
74	0x3559aa00	8.108618e-07
75	0xb9f5eb30	-0.0004690527
76	0xb9abb6bc	-0.0003275181
77	0x39058733	0.00012734234
78	0xb9a5ed3e	-0.00031648012
79	0xb9fb6823	-0.0004795204
80	0x3c8ca60c	0.017169021
81	0xba8f4b6b	-0.001093251
82	0x3c632609	0.013864049
83	0x3b01853a	0.0019763247
84	0x3c690e92	0.014224665
85	0x3cfe9807	0.031078352
86	0x3b6095bc	0.0034268936
87	0xbde75030	-0.112945914
88	0x3c1a879a	0.009431744
89	0x3f4a1a36	0.78946245
90	0xbe9ba9bd	-0.30402938
91	0x3fd92dba	1.696708
92	0x3a8db826	0.0010812327
93	0x3c4f7532	0.012662219
94	0x3b19d9a5	0.0023475674
95	0x3c7ac1c1	0.015304984
96	0x3a73c432	0.000929895
97	0x3bb488fb	0.0055094934
98	0x3c2d636d	0.010582787
99	0x3c55c746	0.013047999

layer2.bias f4 [5]
0	0xb89f0bfe	-7.5839445e-05
1	0x396a8a66	0.00022367536
2	0x3e86aed1	0.2630525
3	0x3a4d9edb	0.00078438007
4	0xbea7acf8	-0.32749152

layer3.weight f4 [1, 5]
0	0x35eba782	1.7557616e-06
1	0xb9062908	-0.00012794521
2	0x3ed6eb5e	0.41976446
3	0xb85b16f0	-5.223503e-05
4	0xbeb16394	-0.34646285
