model/slide_nn_model_weights/trained_on_phasepred_pdps/dense_650_20_5_1_weights_5.pth (torch, 55366 bytes, 5 tensors)

layer1.weight f4 [20, 650]
0	0x3df2006c	0.11816487
1	0xbe20d5e9	-0.157066
2	0xbdb7a2ba	-0.089665845
3	0x3e009ae0	0.1255908
4	0xbe91747c	-0.28409183
5	0xbf2e0df0	-0.67990017
6	0x3ca92c24	0.02065093
7	0xbe21fe84	-0.15819746
8	0x3eb17162	0.34656817
9	0xbee77c85	-0.45212188
10	0xbd7f3e89	-0.062315498
11	0xbe899803	-0.26873788
12	0xbe3df9e8	-0.18552363
13	0xbe5b5330	-0.21418452
14	0x3eaea10b	0.3410724
15	0xbe3e2bfc	-0.18571466
16	0x3e6ae8e8	0.22940409
17	0xbd2af692	-0.041739054
18	0xbcb576c4	-0.022151358
19	0x3ea8fa3a	0.33003408
20	0x3cd74b85	0.026281128
21	0xbebfa52f	-0.37430713
22	0xbe89f28d	-0.26942864
23	0x3f4a89eb	0.79116696
24	0xbdaf7712	-0.08567633
25	0xbe544023	-0.20727591
26	0xbdf69d7d	-0.12041757
27	0x3e4feb4f	0.20304607
28	0x3e4d8f22	0.20074132
29	0x3ea33744	0.31878102
30	0xbe0bf4d7	-0.13667618
31	0xbf0ce8b3	-0.5504257
32	0x3f077fa7	0.52929157
33	0xbf4be689	-0.79648644
34	0x3d72ce59	0.05927882
35	0xbec7b036	-0.39001626
36	0xbe7ba8e3	-0.24576144
37	0xbc36d0bf	-0.011158167
38	0xbd60ccfe	-0.054882996
39	0xbee3e8b0	-0.44513464
40	0x3dca798e	0.09886466
41	0xbe3152d6	-0.17316756
42	0x3ec8ab2b	0.3919309
43	0xbe4c941a	-0.19978371
44	0xbe3dde3e	-0.1854181
45	0xbe9a72dd	-0.3016576
46	0xbd9aebe9	-0.075645275
47	0xbbd4f6d1	-0.0064991494
48	0xbed0fc3a	-0.40817434
49	0x3da14428	0.07874328
50	0xbe6e4d8f	-0.23271774
51	0x3ec7591e	0.3893518
52	0xbddcf1ef	-0.10788333
53	0x3e200fca	0.15631023
54	0x3dba62aa	0.0910085
55	0x3ea3be80	0.31981277
56	0xbd6814c2	-0.05666042
57	0xbe0902e6	-0.13380012
58	0x3cc67a44	0.024228223
59	0xbe04ac3f	-0.12956332
60	0x3d38c15e	0.045106284
61	0x3eb91ed8	0.36156344
62	0xbd689637	-0.05678388
63	0x3e72d3b7	0.23713575
64	0x3e7a7ca2	0.24461606
65	0xbe805f0f	-0.25072524
66	0x3e91ca38	0.28474593
67	0x3e9e505d	0.30920687
68	0x3cfae9ec	0.03062912
69	0x3eeb446b	0.45950636
70	0xbebf7a1d	-0.37397853
71	0xbdfe1736	-0.12406771
72	0xbe2be923	-0.16788153
73	0x3ea51421	0.3224192
74	0xbe9e53c4	-0.30923283
75	0xbc36ec13	-0.011164683
76	0x3e1ef291	0.15522219
77	0xbd53637d	-0.05160855
78	0xbe0935d6	-0.13399443
79	0x3e8005a7	0.25004312
80	0xbdc3b491	-0.09555925
81	0xbeb1b33a	-0.34707052
82	0x3d52c1fb	0.051454525
83	0x3ea547aa	0.32281238
84	0xbec5ee92	-0.38658577
85	0x3e49fc38	0.1972512
86	0x3d03e7ea	0.032203592
87	0x3f014d32	0.50508416
88	0x3d3336fe	0.043753617
89	0xbe1b1cf0	-0.15147758
90	0xbe9b9354	-0.3038584
91	0x3e8b06bf	0.27153584
92	0xbeae0dd7	-0.33994934
93	0x3e6caab2	0.2311199
94	0xbd7c451f	-0.061589357
95	0xbd5b2927	-0.053506043
96	0x3e5a92dc	0.21345085
97	0xbe08da47	-0.13364516
98	0x3e6e6384	0.2328015
99	0x3c98bf57	0.018645925
100	0xbe0a86bf	-0.13527964
101	0xbe3a828e	-0.18213865
102	0x3d5e25fb	0.05423544
103	0x3c32d157	0.010914168
104	0x3d80632e	0.06268917
105	0x3db1c56c	0.08680233
106	0xbdb967c5	-0.090529956
107	0x3d7e90d6	0.062149845
108	0x3ed34f64	0.41271508
109	0x3e818c8b	0.25302538
110	0xbe87e16d	-0.26539174
111	0x3c626b2f	0.0138195
112	0x3f21cbe5	0.63201743
113	0xbebef604	-0.3729707
114	0xbec3cf3f	-0.38244054
115	0x3f204736	0.6260866
116	0xbd4ac527	-0.049504425
117	0x3dab9d06	0.08379559
118	0xbed16d4b	-0.40903696
119	0x3ea83602	0.32853705
120	0x3e66904e	0.22515985
121	0x3db0166b	0.08598026
122	0x3f07f160	0.53102684
123	0x3efccaa2	0.49373347
124	0xbd928c14	-0.07155624
125	0x3d4043b3	0.046939563
126	0xbdef46ce	-0.11683427
127	0xbdd44ee6	-0.10366611
128	0xbe3374c7	-0.17525016
129	0xbe8ecb73	-0.27889594
130	0x3ed87a28	0.42280698
131	0xbe5cbbb5	-0.2155598
132	0x3e3b1827	0.18270932
133	0xbd61cbc9	-0.055125985
134	0x3be1f610	0.006895788
135	0xbe9df5e4	-0.30851662
136	0x3e958126	0.29200095
137	0xbed9c382	-0.42531973
138	0xbdf334f1	-0.11875332
139	0x3dedac04	0.11605075
140	0xbd55152b	-0.05202214
141	0xbb975a32	-0.0046189064
142	0x3ecfe149	0.40601566
143	0x3de370a9	0.111054726
144	0xbe914f3d	-0.28380767
145	0x3d8f0142	0.06982662
146	0xbe371164	-0.17877728
147	0x3d33aedb	0.043867927
148	0xbe8fe011	-0.28100637
149	0xbe02a13d	-0.1275682
150	0xbd937bf6	-0.07201378
151	0xbd89452d	-0.06702647
152	0x3d700283	0.058596145
153	0xbe4212d1	-0.1895249
154	0x3e6af789	0.2294599
155	0x3e17bd16	0.14818224
156	0x3f31030b	0.6914527
157	0xbe2535c3	-0.1613379
158	0xbd848964	-0.06471518
159	0xbe74319f	-0.23847054
160	0x3e05eb56	0.13078055
161	0xbd6c6286	-0.057711147
162	0x3e3fd39f	0.18733071
163	0xbebe26d0	-0.37138987
164	0xbe3394e4	-0.17537266
165	0x3ca74cea	0.020422418
166	0xbe37c1fa	-0.1794509
167	0xbac3f3f7	-0.0014950027
168	0x3d4bc2ed	0.049746443
169	0xbcc6f2ea	-0.024285752
170	0x3f00b65a	0.50278246
171	0xbebbc2e6	-0.36672133
172	0xbc4bdaec	-0.012442332
173	0x3ec46126	0.38355368
174	0x3f1a8bbf	0.60369486
175	0xbe9d4113	-0.3071371
176	0x3f121135	0.57057506
177	0x3e535d3f	0.2064104
178	0x3eb1b181	0.34705737
179	0xbdc06df2	-0.093959704
180	0xbd866d4d	-0.06563816
181	0xbe31d598	-0.17366636
182	0x3d9c8bfe	0.07643889
183	0xbeb13bff	-0.34616086
184	0x3e943f53	0.28954563
185	0xbea5af59	-0.32360342
186	0x38703640	5.7270983e-05
187	0x3cc69e1d	0.024245316
188	0x3d2f5ccb	0.042813104
189	0x3e9cc304	0.30617535
190	0xbd34d243	-0.044145834
191	0xbebe00a3	-0.3710986
192	0x3e528c4e	0.20561334
193	0xbedc4846	-0.4302389
194	0x3eb16957	0.3465068
195	0xbe144db2	-0.14482763
196	0x3c834901	0.016026022
197	0xbe596d76	-0.21233162
198	0xbd6bbd65	-0.057553668
199	0x3cde71be	0.027153846
200	0x3e9543ee	0.2915339
201	0xbcd8c551	-0.026461275
202	0xbd708d4f	-0.058728512
203	0xbdc28fb8	-0.095000684
204	0x3e39f302	0.18159106
205	0xbe7397a5	-0.23788317
206	0xbe96bc6f	-0.29440638
207	0x3c446e82	0.011989238
208	0x3ebc58cb	0.36786494
209	0x3ea3dfdf	0.32006738
210	0x3d83f521	0.06443239
211	0xbde71909	-0.11284072
212	0xbe69d3a6	-0.22834644
213	0xbecd0ea4	-0.40050232
214	0x3d77e1e5	0.060518164
215	0x3ee5775d	0.4481763
216	0xbd03e0ad	-0.03219669
217	0xbdcfa507	-0.10138898
218	0xbe962eff	-0.2933273
219	0xbe0e8d4a	-0.13921085
220	0xbcb09165	-0.021553705
221	0x3e24428e	0.16041014
222	0x3e87593e	0.26435274
223	0xbe8dfa07	-0.27729818
224	0x3d3c0a9a	0.045908548
225	0x3e90a75b	0.28252682
226	0xbc9d35e8	-0.019190744
227	0xbded586c	-0.11589131
228	0xbe8b14c9	-0.27164295
229	0xbe839808	-0.25701928
230	0xbe5fb548	-0.21846497
231	0x3dc29550	0.09501135
232	0x3ddea625	0.10871533
233	0xbe1ed79e	-0.15511939
234	0xbe9ea3ee	-0.30984443
235	0xbe50cb85	-0.20390137
236	0x3f1dce80	0.6164322
237	0x3e782aa2	0.24235013
238	0xbe9fed94	-0.31235945
239	0xbede58fa	-0.4342726
240	0xbdbec75b	-0.09315368
241	0xbddb93bd	-0.10721538
242	0x3dbc773a	0.09202428
243	0x3e3948aa	0.18094125
244	0xbd455e2d	-0.048185516
245	0x3e550c62	0.20805505
246	0x3e42186e	0.18954632
247	0xbe0ab914	-0.13547164
248	0x3f3a05f8	0.7266536
249	0x3e7b5889	0.24545492
250	0xbe3313a8	-0.17487967
251	0xbf6acbb2	-0.91717064
252	0x3d0ce17b	0.034394722
253	0xbf2ff7d3	-0.68737525
254	0xbe98719c	-0.29774177
255	0xbc753827	-0.014967001

layer1.bias f4 [20]
0	0xb9e1b69b	-0.00043051396
1	0xb7ec6f2f	-2.8185166e-05
2	0x3a19c768	0.00058662007
3	0x38191703	3.6499474e-05
4	0x39402176	0.00018323012
5	0xb94383f1	-0.00018645801
6	0xbd30dd11	-0.043179575
7	0xbc40f771	-0.011777745
8	0x390cdf64	0.0001343466
9	0x38975038	7.215183e-05
10	0x3c8a647c	0.016893618
11	0xbc73d90c	-0.014883291
12	0xbb0f070a	-0.0021824264
13	0xbc219f04	-0.009864572
14	0xb94bbcd4	-0.00019429933
15	0x380b8f97	3.327391e-05
16	0xb95b7a5b	-0.00020931048
17	0xbb3d4478	-0.0028879922
18	0x39e88877	0.00044352163
19	0xb49e3b80	-2.9473085e-07

layer2.weight f4 [5, 20]
0	0x3c84c947	0.016209258
1	0x3c127e01	0.0089411745
2	0x3d73668c	0.05942397
3	0x3c68e9ca	0.014215896
4	0xbd328f00	-0.043593407
5	0xbd6b6ca9	-0.057476673
6	0xbf27a445	-0.6548503
7	0x3a973e64	0.001153898
8	0x3ca0e0ce	0.019638445
9	0x3d01227f	0.03152704
10	0x3e7ddcda	0.2479128
11	0x3e1d77a4	0.1537767
12	0xbea7e299	-0.32790068
13	0xbeaba746	-0.33526057
14	0xbc0302c7	-0.007996268
15	0x3a191203	0.0005839171
16	0xbc479012	-0.012180345
17	0xbffc7953	-1.9724525
18	0xbd4d0532	-0.050053783
19	0xbcdc0fae	-0.026862945
20	0xb8538357	-5.042864e-05
21	0x38c01195	9.158548e-05
22	0xb8762930	-5.868933e-05
23	0xb7c569ea	-2.353355e-05
24	0x3883a1e1	6.276719e-05
25	0xb860059d	-5.341099e-05
26	0xbaf3d89c	-0.0018603983
27	0x38bcd1ec	9.0036396e-05
28	0x39221389	0.00015456801
29	0xb8eb8a4a	-0.000112314316
30	0x3a4361b9	0.00074532215
31	0x3a0df25b	0.0005414837
32	0x381fd69b	3.810842e-05
33	0xb9b04345	-0.00033619456
34	0xb88bcce7	-6.6662025e-05
35	0x371be0f0	9.291092e-06
36	0xb8ba4b3a	-8.883183e-05
37	0xbe53e927	-0.2069441
38	0xb83a8fa5	-4.4479635e-05
39	0x37a347e0	1.9464584e-05
40	0xb9412c9d	-0.00018422534
41	0x3a110006	0.00055313145
42	0xb9bbf43e	-0.00035849394
43	0xb92c3f68	-0.00016426819
44	0x37b374ec	2.1392909e-05
45	0xb9417524	-0.00018449553
46	0xb99f71eb	-0.0003041172
47	0x3823d5e0	3.9061415e-05
48	0x3a7b1140	0.00095774606
49	0x39f0965c	0.00045888394
50	0x37825b38	1.5539685e-05
51	0x37d4ec26	2.5382335e-05
52	0x39a61627	0.00031678492
53	0xb83537cf	-4.320574e-05
54	0x38971fb0	7.206143e-05
55	0xb9c98045	-0.00038433276
56	0xb9907d83	-0.00027559334
57	0x36c0b880	5.7435245e-06
58	0x3a39b9fa	0.00070849026
59	0x38c078c2	9.177766e-05
60	0xbb9b2613	-0.0047347634
61	0xbc3f8a74	-0.011690725
62	0xbce288a9	-0.027653055
63	0x3945e7e7	0.00018873774
64	0xbc33ee8a	-0.010982165
65	0xbbc82cda	-0.0061088623
66	0x3d81ae80	0.06332111
67	0x3c461bc1	0.012091578
68	0x395006a3	0.00019838898
69	0xbbb3373a	-0.00546923
70	0x3d08be89	0.033384833
71	0x3dc82ef5	0.09774581
72	0x3ad78612	0.0016443154
73	0x3ad9d92e	0.0016620511
74	0x38941480	7.0610084e-05
75	0x3d8404f8	0.0644626
76	0xba4bfdfd	-0.00077816827
77	0x3d103737	0.035208907
78	0xbcacd6cb	-0.021098515
79	0xbc75bda8	-0.014998831
80	0x37e84ba2	2.7691774e-05
81	0x38f9c3a0	0.00011909683
82	0xba7dc729	-0.0009680861
83	0xb8ce3af0	-9.8338234e-05
84	0x3972dc2d	0.0002316094
85	0xb989ff17	-0.00026320733
86	0xb8cfc5e4	-9.907389e-05
87	0x37a96abc	2.0196072e-05
88	0x39c5c3bd	0.00037720604
89	0x38a3ad7c	7.80476e-05
90	0xbaccf18a	-0.0015635949
91	0xbb8af643	-0.0042407825
92	0xb8d67f7b	-0.0001022806
93	0x37e94c3e	2.7811268e-05
94	0xb9da605c	-0.00041651994
95	0xbd90df94	-0.07073894
96	0x37dd9b04	2.6417438e-05
97	0x39d04d9e	0.0003973068
98	0x393fbdce	0.00018285887
99	0x3911a85f	0.00013891

layer2.bias f4 [5]
0	0x3e49beb6	0.19701657
1	0xbad36921	-0.0016129353
2	0x38bccca7	9.002658e-05
3	0x3dea403d	0.11438034
4	0x3d496506	0.04916861

layer3.weight f4 [1, 5]
0	0x3f3fa4bf	0.7486076
1	0x3c253913	0.010084408
2	0x37d3dd06	2.5256082e-05
3	0xbd800b71	-0.06252182
4	0x3a00545a	0.0004895382
