model/slide_nn_model_weights/trained_on_phasepred_saps_nophasepro/dense_650_20_5_1_weights_5.pth (torch, 55366 bytes, 5 tensors)

layer1.weight f4 [20, 650]
-0.13147236 -0.20366634 -0.09466333 0.12753986 -0.11439982 -0.005714467 -0.016749466 -0.042229567
0.054067448 0.23003365 0.10695493 0.20530581 -0.08499285 -0.046397652 0.074949116 -0.029901816
0.21850358 -0.16521344 0.3500295 -0.10742553 -0.09488804 0.060191423 0.027750941 -0.06359717
-0.13291201 0.052552424 0.18087249 -0.108413406 0.008867016 -0.064030804 -0.054309517 0.15456218
-0.09210995 0.12614387 0.08337067 0.27498093 0.14442722 0.08987742 -0.092397235 0.04104133
-0.09940738 0.023721702 -0.12279012 0.06766071 0.024450937 0.18399486 -0.058294408 -0.1760256
-0.13504727 0.30163962 -0.008798056 0.047530904 0.053698983 0.11513109 -0.019176634 0.030268252
-0.02874282 0.37752035 0.10764802 -0.09280508 0.1853293 0.19943811 -0.052039046 -0.055631213
-0.1293647 0.124859996 -0.11082426 0.036847908 -0.11866857 -0.016111106 -0.0032760098 -0.099575005
0.020675607 0.15207584 -0.09657461 -0.14941892 -0.010210199 -0.057633433 -0.055182252 0.17891344
-0.37013784 0.2137678 0.37865508 0.0014220669 -0.058911923 -0.13858487 0.038888294 -0.19515775
-0.2844142 -0.004270528 0.14074953 -0.32292846 -0.07285033 0.07193914 0.15105428 -0.20711605
0.004123086 0.016979285 0.096912496 -0.021222962 0.1639738 0.18859144 0.3399068 0.06304084
-0.1500694 0.038660645 0.25802004 0.35996023 0.17562798 -0.12880762 0.19973396 -0.015784629
0.025076468 -0.28109202 0.13847902 0.031947885 -0.14113261 -0.09975642 0.11019243 0.040818617
0.21052806 -0.044141244 -0.08753256 -0.17877789 -0.08458757 0.09392027 -0.2445339 0.1276551
0.038107876 0.09864531 -0.094142795 0.3368747 0.106476516 0.097632736 -0.12460757 -0.033639286
0.09371689 -0.12220487 -0.4568001 -0.018949585 0.17782216 0.08735918 -0.07502905 0.118562534
0.09737878 0.35669824 -0.11477334 -0.08972556 0.2522922 -0.033903956 -0.22450309 0.05523242
0.17674764 -0.17643055 0.0088020535 0.13110411 0.11026574 0.011545139 -0.25575718 -0.24737988
0.04438142 -0.2870726 -0.45430833 -0.041682474 0.15164232 0.24687852 0.054023523 -0.33653706
-0.097595796 0.0006957059 0.10700226 -0.022614513 0.0991528 0.05131452 -0.01738889 0.053785164
-0.38438374 -0.27205232 -0.01962832 -0.18516088 -0.17517717 -0.17348893 -0.122053415 0.335175
0.042318143 -0.09515786 -0.07725424 -0.0990314 -0.11527609 0.0985713 -0.18874674 0.28513643
0.042314436 0.18889974 -0.028060721 0.20615822 -0.20164374 0.31771964 0.036535453 0.11349831
-0.119154364 -0.12115033 -0.1464176 0.13324942 -0.19427273 0.11626509 0.14684932 -0.2757796
0.051370665 0.021786135 -0.24010839 0.087142155 -0.08027918 -0.068357214 0.02625215 -0.09578725
0.1312419 -0.10457125 -0.0035696058 -0.09528957 -0.45557994 0.20145974 0.1696142 0.0026663656
0.20493187 -0.18944284 0.07238729 0.08692345 -0.10087385 0.23258775 -0.1685909 0.13980798
-0.07217731 0.09739408 -0.07774397 0.10169578 -0.19567962 0.12892796 -0.191877 0.03314822
-0.015697317 0.02718972 -0.24775901 -0.20206667 0.07673684 0.33519465 0.051521137 0.17155755
-0.053434204 -0.1886924 -0.10451879 -0.0070428066 -0.100505 0.070139326 -0.11429064 -0.10199887
00000000: b1a0 06be e98d 50be d9de c1bd cf99 023e
00000010: 744a eabd 6c40 bbbb 2d36 89bc e9f8 2cbd
00000020: d475 5d3d f18d 6b3e 300b db3d b03b 523e
00000030: bb10 aebd 770b 3ebd ec7e 993d a7f4 f4bc
00000040: 67bf 5f3e b62d 29be 1137 b33e eb01 dcbd
00000050: a954 c2bd 488b 763d f155 e33c 3c3f 82bd
00000060: 161a 08be 3641 573d a336 393e d907 debd
00000070: f646 113c 9522 83bd a873 5ebd 8c45 1e3e
00000080: 24a4 bcbd dc2b 013e 3ebe aa3d 4dca 8c3e
00000090: bbe4 133e a711 b83d c33a bdbd f41a 283d
000000a0: 1996 cbbd 0454 c23c 6379 fbbd b391 8a3d
000000b0: 554d c83c 2669 3c3e 1ec6 6ebd 0e40 34be
000000c0: d549 0abe 8270 9a3e b925 10bc c4af 423d
000000d0: 77f3 5b3d d9c9 eb3d 5118 9dbc 20f5 f73c
000000e0: 1076 ebbc 594a c13e 9176 dc3d 9710 bebd
000000f0: f7c6 3d3e 8139 4c3e e526 55bd 8edd 63bd
00000100: 2e78 04be 99b6 ff3d d4f7 e2bd d5ed 163d
00000110: 8208 f3bd 70fb 83bc 53b2 56bb fbed cbbd
00000120: e45f a93c c5b9 1b3e e9c8 c5bd 4601 19be
00000130: ae48 27bc 0911 6cbd c906 62bd 1635 373e
00000140: b582 bdbe f2e5 5a3e 14df c13e a664 ba3a
00000150: a14d 71bd 31e9 0dbe 5549 1f3d 6fd7 47be
00000160: bd9e 91be c9ef 8bbb a520 103e e156 a5be
00000170: 8e32 95bd d454 933d f9ad 1a3e 3b16 54be
00000180: f41a 873b 2418 8b3c 0f7a c63d c7db adbc
00000190: bfe8 273e 1d1e 413e 4408 ae3e 8e1b 813d
000001a0: cbab 19be a05a 1e3d 341b 843e b54c b83e
000001b0: d2d7 333e 25e6 03be 0f87 4c3e c44e 81bc
000001c0: 2a6d cd3c 4beb 8fbe 72cd 0d3e c9db 023d
000001d0: 1185 10be 184d ccbd 92ac e13d 6c31 273d
000001e0: ab94 573e 73cd 34bd 4544 b3bd 8d11 37be
000001f0: 3f3c adbd 4559 c03d 1867 7abe 05b8 023e
00000200: 0117 1c3d 8d06 ca3d f0cd c0bd d77a ac3e
00000210: 5c10 da3d acf3 c73d 4132 ffbd 59c9 09bd
00000220: a4ee bf3d 8c46 fabd b4e1 e9be 293c 9bbc
00000230: 0317 363e 5fe9 b23d d5a8 99bd ead0 f23d
00000240: 876e c73d 27a1 b63e 490e ebbd 09c2 b7bd
00000250: 712c 813e e0de 0abd 23e4 65be 643b 623d
00000260: 55fd 343e 36aa 34be 7d36 103c 2840 063e
00000270: 01d3 e13d d327 3d3c 9bf2 82be 2751 7dbe
00000280: 4bc9 353d 2efb 92be 1a9b e8be 3ebb 2abd
00000290: 2048 1b3e b9cd 7c3e c547 5d3d 964e acbe
000002a0: 4ee0 c7bd 0860 363a 0024 db3d 1242 b9bc
000002b0: a010 cb3d 2d2f 523d 2573 8ebc d54d 5c3d
000002c0: f2cd c4be 714a 8bbe 92cb a0bc d09a 3dbe
000002d0: a561 33be 15a7 31be 24f7 f9bd 0f9c ab3e
000002e0: ca55 2d3d 20e2 c2bd 7937 9ebd fad0 cabd
000002f0: df15 ecbd c0df c93d d346 41be 67fd 913e
00000300: e751 2d3d ef6e 413e 99df e5bc 241b 533e
00000310: b27b 4ebe 26ac a23e 33a6 153d cd71 e83d
00000320: 3407 f4bd aa1d f8bd 7fee 15be 8972 083e
00000330: 6eef 46be 641c ee3d ab5f 163e fc32 8dbe
00000340: 0c6a 523d d678 b23c f9de 75be 9677 b23d
00000350: 6969 a4bd defe 8bbd c00e d73c 1b2c c4bd
00000360: 4764 063e 7429 d6bd 0cf0 69bb 2e27 c3bd
00000370: c641 e9be 764b 4e3e 58af 2d3e 31be 2e3b
00000380: a9d9 513e 4efd 41be ca3f 943d ec04 b23d
00000390: f396 cebd 7c2b 6e3e 18a3 2cbe d329 0f3e
000003a0: b3d1 93bd 8c76 c73d 3b38 9fbd e145 d03d
000003b0: 3d60 48be b105 043e 677b 44be 6ec6 073d
000003c0: a997 80bc fabc de3c 8ab4 7dbe 91ea 4ebe
000003d0: 3428 9d3d a29e ab3e d407 533d c8ac 2f3e
000003e0: d3dd 5abd 9538 41be f30d d6bd 58c7 e6bb
000003f0: 91d5 cdbd 35a5 8f3d 3611 eabd c9e4 d0bd

layer1.bias f4 [20]
0.000112072375 -0.000354005 0.0004040209 6.879815e-05 0.00042716062 -0.000108856635 -1.1056538e-05 0.0004174551
0.0065309354 -0.00848312 0.01067408 0.00043805718 0.014341464 -0.0072822166 -5.9978684e-05 0.00061479956
-0.00010753043 -0.000329754 -0.00012652371 -0.0001199384
00000000: 6608 eb38 bf99 b9b9 c4d2 d339 ba47 9038
00000010: 87f4 df39 f649 e4b8 787f 39b7 e0dd da39
00000020: 7501 d63b c9fc 0abc 56e2 2e3c 0aab e539
00000030: 76f8 6a3c a99f eebb 9f91 7bb8 802a 213a
00000040: f681 e1b8 d5e2 acb9 73ab 04b9 7087 fbb8

layer2.weight f4 [5, 20]
-6.651718e-05 -0.0002943531 -0.00039255712 0.00013839352 8.936394e-05 -0.000102254664 5.0082614e-05 -0.00089006947
-0.00018261235 6.9561756e-06 -6.775854e-05 0.00039942047 -8.079399e-06 9.187097e-06 -0.0009403667 3.7109567e-07
-0.0002105936 -0.00019066868 2.8093427e-06 -8.844663e-05 -5.596973e-05 -0.00023232328 0.00049648125 -0.00035422083
-0.0014162643 -0.0013340726 0.0003501614 0.00017049522 0.73834723 -2.7830683e-05 -0.01146626 0.00052007195
-0.015966019 -0.14217627 -0.014402112 -0.00033835106 7.1094655e-05 -0.002544514 -2.630396e-06 -0.0012097529
-0.00051853125 0.00056176214 -6.419554e-05 0.00024298145 0.00019881161 -0.00034338053 -0.00011565312 -0.0002647575
0.0007396629 -0.0043946477 0.00052332244 -0.00071468344 0.02167709 -0.00028294732 -2.6658663e-05 -0.00066017464
-1.3542805e-05 -0.0013401448 -0.00029505248 0.00044929434 -0.0074940273 0.017255027 0.012749566 -0.019376159
0.021787813 -0.010589267 0.011298735 0.0017265365 1.4571935 0.026140979 -0.23831862 0.022115428
-0.42492953 -0.22685567 -0.008994496 0.01761872 0.002454072 0.0033860682 -0.0066114045 -0.0021701525
0.007718624 -0.01452033 -0.0090003 0.020057 -0.014759602 0.0016458427 -0.00827634 -0.00043257058
-1.3975433 0.31692103 0.198031 -0.014297842 0.03995054 0.18322434 0.011575166 -0.014852381
-0.0019439942 -0.00091236166 0.0051955217 0.0016356927
00000000: 247f 8bb8 6853 9ab9 20d0 cdb9 ba1d 1139
00000010: e668 bb38 8e71 d6b8 cc0f 5238 8d53 69ba
00000020: a17b 3fb9 1869 e936 9719 8eb8 4f69 d139
00000030: c18c 07b7 4822 1a37 f182 76ba 003b c734
00000040: cad2 5cb9 3cee 47b9 2488 3c36 6c7c b9b8
00000050: 0ac1 6ab8 ce9b 73b9 4b26 023a b7b6 b9b9
00000060: f2a1 b9ba 0cdc aeba de95 b739 f6c6 3239
00000070: 5304 3d3f f075 e9b7 fbdc 3bbc 7055 083a
00000080: 2bcb 82bc a896 11be d6f6 6bbc b664 b1b9
00000090: a718 9538 dcc1 26bb dc85 30b6 9290 9eba
000000a0: 0bee 07ba 3843 133a b8a0 86b8 d6c8 7e39
000000b0: 1678 5039 c107 b4b9 cc8a f2b8 26cf 8ab9
000000c0: f0e5 413a fa00 90bb 932f 093a 9859 3bba
000000d0: 2794 b13c 8c58 94b9 0ba1 dfb7 920f 2dba
000000e0: e835 63b7 cca7 afba 46b1 9ab9 448f eb39
000000f0: 7590 f5bb 6a5a 8d3c 8ee3 503c c0ba 9ebc
00000100: 5b7c b23c 9b7e 2dbc 541e 393c f44c e23a
00000110: 5185 ba3f 9b25 d63c cc09 74be 6a2b b53c
00000120: 5d90 d9be da4c 68be a75d 13bc 2255 903c
00000130: 7fd4 203b cce8 5d3b 7ba4 d8bb 1e39 0ebb
00000140: 83ec fc3b aee6 6dbc ff75 13bc 944e a43c
00000150: 42d2 71bc 51b9 d73a 7c99 07bc a4ca e2b9
00000160: b3e2 b2bf 7943 a23e a3c8 4a3e 7f41 6abc
00000170: 2da3 233d 299f 3b3e c4a5 3d3c 6757 73bc
00000180: 9fcd feba 8e2b 6fba 323f aa3b bd64 d63a

layer2.bias f4 [5]
4.4261837e-05 -0.080744505 -0.0088153435 -0.17109747 0.18395814
00000000: c9a5 3938 605d a5bd 3b6e 10bc 2d34 2fbe
00000010: 865f 3c3e

layer3.weight f4 [1, 5]
-7.839102e-06 -0.09712968 0.004576206 -0.6683788 0.5257431
00000000: b084 03b7 edeb c6bd 00f4 953b df1a 2bbf
00000010: 1a97 063f
