model/slide_nn_model_weights/trained_on_phasepred_saps_nophasepro/dense_650_20_5_1_weights_3.pth (torch, 55366 bytes, 5 tensors)

layer1.weight f4 [20, 650]
0	0x3dbdd2f9	0.092687555
1	0x3e1f0b6c	0.15531701
2	0xbec25a2a	-0.37959415
3	0xbe65a8d7	-0.22427689
4	0xbd30324b	-0.043016713
5	0x3dea8140	0.11450434
6	0x3eb6dc0c	0.35714757
7	0x3ec10727	0.3770077
8	0xbda1f324	-0.079077035
9	0x3f22fd11	0.636674
10	0x3e19461b	0.1496815
11	0xbc9aeccf	-0.018911747
12	0x3e450977	0.19241892
13	0xbe26f527	-0.16304456
14	0x3e6da615	0.23207887
15	0x3e1ef1ba	0.15521899
16	0xbe823887	-0.25433752
17	0x3cc1a237	0.02363692
18	0xbe6a39f3	-0.22873668
19	0x3d95cd32	0.073145285
20	0xbec797dd	-0.3898305
21	0xbe1d7e5c	-0.15380234
22	0x3e445303	0.19172291
23	0xbda0cd78	-0.0785169
24	0xbdc84bb0	-0.09780061
25	0xbd81c3fb	-0.063362084
26	0x3e4b3794	0.1984542
27	0x3dd90399	0.10596389
28	0xbe7ef07b	-0.24896424
29	0xbca84941	-0.020542743
30	0xbd1782ce	-0.03698998
31	0xbe860619	-0.26176527
32	0xbe3c0e6b	-0.18364875
33	0x3ef1e484	0.47244656
34	0xbdf7aaa2	-0.120930925
35	0x3e5d276b	0.21597068
36	0xbd109041	-0.03529382
37	0x3dab1fdc	0.08355686
38	0xbeb09fe7	-0.34496996
39	0xbe3b8ff7	-0.18316637
40	0xbe5a7195	-0.2133239
41	0xbe9ea9c7	-0.30988905
42	0x3dcf57e2	0.10124184
43	0x3dfce2b9	0.123479314
44	0x3de1ad3b	0.11019369
45	0x3e8a095a	0.2696026
46	0x3e546474	0.20741445
47	0x3d2e07b6	0.042487822
48	0x3f1b570f	0.60679716
49	0xbcc858ce	-0.024456408
50	0xbe9baed6	-0.30406827
51	0xbe1cfade	-0.15330073
52	0x3d26f023	0.040756356
53	0xbcfb1487	-0.030649437
54	0x3b9d5d23	0.0048023625
55	0x3c95b481	0.018274548
56	0xbe7ee235	-0.24890979
57	0x3d972a0b	0.07381066
58	0xbea15dcf	-0.31516883
59	0x3e6ce4a6	0.23134097
60	0x3e00fdaf	0.12596773
61	0xbd9f481e	-0.07777427
62	0x3e35260d	0.17690296
63	0xbe525f5f	-0.20544194
64	0x3d877350	0.06613791
65	0x3e1ccd9e	0.15312812
66	0xbe8e2bff	-0.2776794
67	0xbda4fd3a	-0.08056112
68	0xbd44550c	-0.04793267
69	0x3e9bc395	0.30422655
70	0x3dccf3cd	0.10007439
71	0x3e53c2ef	0.2067983
72	0xbe6e1c82	-0.23253062
73	0xbeb688b4	-0.3565117
74	0x3e57671e	0.2103543
75	0xbe130a84	-0.1435948
76	0xbe00e45b	-0.1258711
77	0xbdb3ad35	-0.08773271
78	0x3ee5c83b	0.44879326
79	0xbe8d622c	-0.27613962
80	0xbc28ed30	-0.010310456
81	0x3e22d689	0.15902151
82	0xbcb3d9f3	-0.021954512
83	0xbe38b1d2	-0.18036583
84	0x3dbe236a	0.092840984
85	0xbd9077dc	-0.07054111
86	0xbc4b687d	-0.012415049
87	0xbe454646	-0.19265088
88	0xbc9bde6d	-0.01902696
89	0x3da4c64c	0.080456346
90	0x3d93cf67	0.07217293
91	0x3dcd87df	0.10035681
92	0xbbb248fb	-0.005440829
93	0xbe25e07b	-0.16198914
94	0x3db360f3	0.08758726
95	0xbca7e082	-0.020492796
96	0x3dba8817	0.09107988
97	0xbe1b9a26	-0.15195522
98	0xbd8df4e5	-0.069314755
99	0x3ebd7b62	0.37008196
100	0x3c3f55a9	0.011678138
101	0xbd99d800	-0.07511902
102	0xbd91af9c	-0.07113573
103	0x3d18751f	0.03722107
104	0xbeb8f13d	-0.3612155
105	0x3dc42ae0	0.0957849
106	0x3e568b80	0.20951653
107	0xbe84ac84	-0.2591287
108	0x3e0fd458	0.14045846
109	0x38d7a408	0.00010282552
110	0xbe08ebb5	-0.13371165
111	0x3c10764f	0.0088172695
112	0xbe6b507e	-0.22979924
113	0x3dce507b	0.10073944
114	0xbcc0c10b	-0.02352955
115	0xbe0f225f	-0.13977955
116	0xbdacca7f	-0.084370606
117	0x3e33b885	0.17550857
118	0x3ec3b8ff	0.38227078
119	0xbe1df88b	-0.15426843
120	0x3e44e613	0.19228391
121	0xbe046828	-0.12930357
122	0xbe668c25	-0.22514398
123	0x3e00d660	0.12581778
124	0xbeb6056e	-0.35551018
125	0x3df8bcfb	0.1214542
126	0xbe88f7c6	-0.26751536
127	0x3e239ad0	0.15977025
128	0x3d426502	0.04745961
129	0x3c93f014	0.018058814
130	0x3c9ffdef	0.019530265
131	0xbee072ae	-0.43837494
132	0x3dc33ecb	0.09533461
133	0xbdec3412	-0.11533369
134	0x3e05dc4e	0.13072321
135	0xbcfd78a1	-0.03094131
136	0xbee3dc48	-0.44504
137	0x3e9c89d9	0.3057392
138	0x3e1ce6d8	0.15322435
139	0x3e73577d	0.23763843
140	0x3e53069b	0.20607989
141	0x3f05ecbd	0.5231436
142	0xbe31d441	-0.17366125
143	0xbe58a9e8	-0.21158564
144	0xbd7c916a	-0.061662115
145	0x3db89dde	0.09014486
146	0xbd39e985	-0.045388717
147	0xbcf86608	-0.03032209
148	0x3e868b4e	0.26278156
149	0xbe95c1ce	-0.29249424
150	0xbf0b878a	-0.5450369
151	0x3db12bd4	0.08650938
152	0x3e07fc42	0.13279822
153	0x3e409388	0.18806279
154	0x3e22b402	0.1588898
155	0xbe4cf4bf	-0.20015238
156	0xbe1e7524	-0.15474373
157	0xbe9fde77	-0.31224415
158	0x3f015f7a	0.5053631
159	0xbec82e2a	-0.3909772
160	0x3e576017	0.21032749
161	0x3eb50d6e	0.3536181
162	0x3e3a0329	0.18165268
163	0x3cfc2eec	0.030784093
164	0x3e946747	0.28985044
165	0x3e2c4a48	0.16825211
166	0x3cc3bb18	0.023892924
167	0x3d475836	0.04866811
168	0x3dfd6f13	0.12374701
169	0x3caabb57	0.020841284
170	0x3e2f35e7	0.17110406
171	0xbc1ae5c9	-0.009454199
172	0xbd8c71f4	-0.06857672
173	0xbe24f776	-0.16110024
174	0xbe3dba7c	-0.1852817
175	0xbe8699c8	-0.262892
176	0xbec7bce0	-0.39011288
177	0x3e2eadeb	0.17058532
178	0x3d0d8576	0.034551106
179	0x3e229630	0.15877604
180	0x3e04e328	0.12977278
181	0x3bd57761	0.006514475
182	0x3d77e5e7	0.060521986
183	0x3d38f7da	0.045158245
184	0xbda75554	-0.08170572
185	0xbe46f38a	-0.1942884
186	0x3e202c51	0.15641905
187	0xbea2f06f	-0.3182406
188	0xbd9daea8	-0.07699329
189	0x3c7a034e	0.015259577
190	0x3d71f8aa	0.059075035
191	0x3e451ad9	0.19248523
192	0xbe93a31f	-0.2883539
193	0x3cd035fe	0.02541637
194	0xbed3d043	-0.4136983
195	0x3d0553d4	0.032550648
196	0x3e865caa	0.26242572
197	0x3e22b78a	0.15890327
198	0xbd423ac5	-0.04741933
199	0xbe5cf104	-0.21576315
200	0xbdb90541	-0.09034205
201	0x3d5494fd	0.0518999
202	0x3d762772	0.06009621
203	0x3dc0376f	0.09385573
204	0x3d6466dc	0.055762157
205	0x3eb6d343	0.35708055
206	0xbe08a191	-0.13342883
207	0x3e83cf91	0.25744298
208	0xbec59f5e	-0.3859815
209	0x3dd63924	0.104601175
210	0xbe28b8da	-0.16476765
211	0x3e1cb123	0.15301947
212	0xbda56e5d	-0.08077691
213	0x3ad820ae	0.0016489231
214	0x3e8e3484	0.2777444
215	0xbe69c3d6	-0.22828612
216	0xbe20f973	-0.15720157
217	0x3e057c56	0.13035712
218	0xbd2c1086	-0.042007945
219	0xbd897e8e	-0.067135915
220	0x3dca0644	0.09864476
221	0x3df5075b	0.119642936
222	0xbd562c08	-0.052288085
223	0x3e59e867	0.2128006
224	0x3eba7ec5	0.36424842
225	0xbeb47195	-0.35242906
226	0xbe89534a	-0.26821357
227	0x3cfdf1df	0.030999122
228	0xbe891f0f	-0.26781508
229	0xbdb43d99	-0.08800811
230	0xbe3da7ee	-0.18521091
231	0xbe759d92	-0.2398589
232	0x3cfe106c	0.03101369
233	0x3d962ca1	0.07332731
234	0x3e643777	0.22286783
235	0x3eb28f92	0.3487516
236	0x3c7a2733	0.015268135
237	0x3e8b9430	0.27261496
238	0x3e3f833d	0.18702407
239	0x3e441b20	0.19150972
240	0x3d3c5ca7	0.045986798
241	0x3ee9c4f0	0.45658064
242	0xbe46f666	-0.19429931
243	0x3b7d02cd	0.0038606406
244	0x3df2a5ec	0.11848053
245	0x3e0d7e31	0.1381767
246	0x3e469298	0.19391859
247	0xbd1b814b	-0.0379651
248	0x3d81f9d7	0.06346481
249	0x3da8e28d	0.08246336
250	0x3e0a7757	0.13522087
251	0x3d429234	0.04750271
252	0xbd9989d6	-0.07496993
253	0xbde03693	-0.10947909
254	0xbe46e5f4	-0.19423658
255	0x3ce91a83	0.028455025

layer1.bias f4 [20]
0	0x39abfd6e	0.0003280448
1	0xba85971e	-0.0010192131
2	0x399c7342	0.00029840512
3	0xb9b83ae1	-0.00035139083
4	0x3c02388b	0.007948051
5	0x396ba0b4	0.00022471213
6	0x38dca72a	0.00010521554
7	0x3a450ad3	0.00075165665
8	0xb7d6adb8	-2.5591682e-05
9	0x3806f990	3.2180513e-05
10	0xb8e044c9	-0.000106939646
11	0xb995dda1	-0.0002858462
12	0x3919c150	0.00014663232
13	0xb9e37a3e	-0.00043387891
14	0xb93afa7c	-0.00017831655
15	0x353c8a00	7.0236274e-07
16	0x3b8b979b	0.004260016
17	0x3ad25bb0	0.0016049054
18	0xb9905ce3	-0.00027535026
19	0xba319443	-0.0006774107

layer2.weight f4 [5, 20]
0	0x39893a5e	0.00026174163
1	0xb9cf744e	-0.0003956877
2	0x39655fea	0.00021874873
3	0xb96dc6b3	-0.00022676103
4	0xba10e5db	-0.0005527415
5	0xb96d9fc4	-0.00022661599
6	0xb9916da4	-0.00027738244
7	0x39c902b0	0.0003833971
8	0x3997571b	0.00028865863
9	0xb9d5b9de	-0.00040765008
10	0xb96f551f	-0.00022824526
11	0xb8eec516	-0.000113854345
12	0x3a216306	0.0006156418
13	0x39ef0573	0.00045589692
14	0xb9d10079	-0.0003986394
15	0x39196cd0	0.00014631753
16	0xb914e751	-0.00014200552
17	0x37445300	1.1701835e-05
18	0x39a4e58c	0.00031451543
19	0x39bb8185	0.0003576392
20	0x3cf82c7b	0.030294647
21	0x3d6fdd44	0.058560625
22	0x3babec63	0.0052466854
23	0x3daf22e2	0.08551575
24	0xbf71f25a	-0.94510424
25	0x3a3dc9b7	0.00072398357
26	0x3a0e2138	0.000542182
27	0x3ab74247	0.0013981544
28	0xb98a7657	-0.0002640958
29	0x3a535c88	0.00080627995
30	0x3b975869	0.0046186936
31	0xbaed5c0c	-0.0018109097
32	0x3b0b977b	0.0021300006
33	0x38587e02	5.1615767e-05
34	0x3b343764	0.0027498836
35	0x3ac5a322	0.0015078525
36	0x3d3e386e	0.046440534
37	0x3e7bf36a	0.24604574
38	0x3b8ca85a	0.00429253
39	0x3b455d24	0.003011533
40	0x37295b60	1.009446e-05
41	0x393d7da2	0.00018071246
42	0x37b00bc0	2.0986306e-05
43	0xb9763966	-0.00023481771
44	0xb9441176	-0.00018698521
45	0x3992d205	0.00028003767
46	0x3a0d98f3	0.00054015144
47	0x39567826	0.00020453389
48	0xb8f687c8	-0.00011755485
49	0x3925cee0	0.00015812693
50	0xb9132dc4	-0.00014036061
51	0x39adc924	0.00033146993
52	0x3987a6ea	0.00025873567
53	0x3976187b	0.00023469508
54	0xb8d8591e	-0.00010316282
55	0x3948ce7e	0.0001915041
56	0x39617ff3	0.00021505337
57	0x37b9d5c2	2.2153257e-05
58	0x39e19111	0.00043023427
59	0xb855884c	-5.0910094e-05
60	0xbdd16621	-0.10224558
61	0x3e198c11	0.14994837
62	0x39bacc4c	0.00035628898
63	0x3e2cf3fe	0.1688995
64	0xbf97fb1e	-1.187351
65	0xbbb17315	-0.00541533
66	0x3c399144	0.011326138
67	0x3b3f67d4	0.0029206173
68	0xbc9f56a6	-0.019450497
69	0xbc330005	-0.010925298
70	0xba058eea	-0.0005094843
71	0xbc0626a5	-0.0081879245
72	0x3c675170	0.014118537
73	0xbbe508f9	-0.006989595
74	0xbce19c34	-0.027540304
75	0xbd13ecd7	-0.03611454
76	0x3e54f396	0.20796046
77	0x3dcbd869	0.09953386
78	0xbcb56ac3	-0.022145635
79	0xb94786f8	-0.00019028399
80	0xbba494fb	-0.0050226427
81	0x3d829362	0.06375767
82	0x3bc2ce26	0.005944985
83	0x3db81afb	0.08989521
84	0xbf44474e	-0.766713
85	0x3a942b15	0.0011304343
86	0x3a345ceb	0.0006880301
87	0x3ac4a5d6	0.0015003036
88	0xb984247b	-0.00025204182
89	0x3a890ac2	0.0010455477
90	0x3ba442ba	0.0050128372
91	0xbad73ceb	-0.0016421353
92	0x3b1680db	0.0022964987
93	0x3a08073b	0.00051890657
94	0x3b491b7c	0.0030686548
95	0x3b0eb15e	0.00217732
96	0x3d46f73f	0.048575636
97	0x3f49e6d8	0.78867865
98	0x3b9114c3	0.004427524
99	0x3b68e40c	0.0035536317

layer2.bias f4 [5]
0	0xb9ad32ae	-0.0003303489
1	0x3c671f53	0.014106589
2	0xb8e8c39c	-0.00011099057
3	0x3e0cb081	0.13739206
4	0x3c04accd	0.00809784

layer3.weight f4 [1, 5]
0	0x38a1fdf4	7.724381e-05
1	0x3ec1cd13	0.37851772
2	0x38200a94	3.8156824e-05
3	0x3f893e64	1.0722165
4	0x3ebdd263	0.37074575
