model/slide_nn_model_weights/trained_on_phasepred_saps_nophasepro/dense_650_20_5_1_weights_9.pth (torch, 55366 bytes, 5 tensors)

layer1.weight f4 [20, 650]
-0.121785074 0.081768505 0.06983064 -0.011531299 0.018685099 0.0019351537 0.5951924 0.2512691
0.060880303 -0.2230847 0.033683028 -0.026710624 -0.3973976 -0.11863909 -1.3986329 0.18500945
-0.2602974 -0.00900355 -0.052258234 -0.059212003 0.31306717 0.055012576 -0.68221486 -0.43888605
0.14106062 0.20711175 0.59341717 0.46818396 -0.09110636 -0.6257461 0.9316032 0.70997906
0.20660836 -0.11716959 -0.48735356 -0.26912546 -0.69270456 0.6349293 -0.2802585 -0.3436677
0.6848719 0.59735614 -1.2910018 -0.071244195 0.04835379 0.07886587 -0.30202714 0.11460792
-0.64972764 0.14960848 0.25345522 -0.3942871 0.8206185 0.15389211 -0.3940316 0.31806242
0.33756056 -0.33330557 0.21425302 -0.48674288 -0.29015347 -0.10037216 -0.045771223 0.21402225
-0.290495 0.8329917 0.49786195 -0.2850279 0.13763909 0.07205512 0.39863753 -0.7368461
-0.34167618 0.42254287 -0.35083365 1.1804184 -0.19420029 -0.09867729 -0.40556803 1.6474491
0.6075371 -0.08473791 0.3676333 -0.15039137 -0.6731713 0.49459118 -0.37563914 -0.34344968
0.8634753 0.30836943 -0.4026212 0.70194674 0.6522408 0.56165737 0.36436516 -0.3637945
-0.44279107 0.06342344 0.5951174 0.5179697 0.119178504 0.009840928 -0.07747443 0.56915325
-0.738986 -0.7101266 0.08473681 0.45190552 -0.8573292 0.19943225 0.028496489 -0.5508731
0.81160104 -0.7001988 0.017925236 0.07787774 0.0023328878 -0.07525714 0.0072351587 0.29794827
-0.24783336 0.30583763 0.25179932 -0.2137493 -0.06118201 -0.36449355 0.5047429 0.6079287
0.009192112 -0.09137439 -0.3917536 0.23189557 -0.32658234 0.80139554 -0.75919366 0.55832225
0.24872997 -0.5183665 -0.24329488 -0.3295109 -1.4700245 0.23037961 0.5128968 0.3530527
-0.023881987 0.07498426 0.040893205 -0.6551692 0.38430586 -0.654738 0.3836541 -0.12546088
0.13230783 -0.46042943 -0.4648716 0.75691605 -0.21469006 1.0325412 0.090976104 0.50727034
0.84856606 -1.1927537 0.55268073 0.05876346 0.343229 -0.27716225 -0.1064173 0.49348304
-1.5541986 0.10582745 -0.72708684 1.0920091 -0.10340182 0.48520663 -0.037446637 0.2476933
-0.18271783 0.3467009 -0.30426577 -0.2663977 0.15159118 0.4509382 0.9377353 -0.9584851
-0.975486 -0.51288754 0.055599157 -0.21146561 -0.030058378 0.69843113 0.19414452 0.11129784
-0.3602362 0.12691699 -0.2543443 0.11658623 0.1846183 -0.8263545 -0.6708657 0.23822084
-0.6261237 0.3955121 0.16714226 0.5542992 -0.3102032 -0.19129121 0.63249946 -0.64724755
0.8053238 -0.34710848 0.33293462 -0.30008408 -0.0075591435 0.36424574 -0.2915899 -0.5219965
-0.83890086 0.3591507 -0.4250443 -0.5011857 0.29184932 0.47332758 -0.4191654 0.080150135
-0.024307333 0.54110324 0.17208919 0.06579292 0.017157102 0.15203331 0.46810785 0.6239226
0.11483675 0.4891336 -0.84869826 -0.13406782 0.6684458 -0.12807411 -0.32423392 -0.088656195
0.9974392 0.40601692 0.1755463 -0.36893708 1.4659292 -0.7286595 0.079201266 0.4908924
-0.3058437 0.09622193 -0.8050706 -0.31291574 0.31837448 0.34155947 0.057987597 -0.5368169
00000000: 746a f9bd 3f76 a73d 5e03 8f3d c6ed 3cbc
00000010: 7e11 993c fca4 fd3a 875e 183f 58a6 803e
00000020: a05d 793d 5170 64be 37f7 093d 3dd0 dabc
00000030: b377 cbbe 0df9 f2bd 6706 b3bf 1e73 3d3e
00000040: b345 85be a083 13bc bb0c 56bd 4988 72bd
00000050: 574a a03e de54 613d a2a5 2ebf acb5 e0be
00000060: 3272 103e 1a15 543e 30ea 173f cfb5 ef3e
00000070: f995 babd e530 20bf 8c7d 6e3f 30c1 353f
00000080: 2491 533e 9cf6 efbd 6886 f9be d0ca 89be
00000090: 1655 31bf ba8a 223f 0b7e 8fbe 36f5 afbe
000000a0: c453 2f3f 55ec 183f 8c3f a5bf 7ae8 91bd
000000b0: a00e 463d 6e84 a13d 4da3 9abe 8fb7 ea3d
000000c0: 8d54 26bf f732 193e e2c4 813e 00e0 c9be
000000d0: 0e14 523f e595 1d3e 83be c9be 14d9 a23e
000000e0: bdd4 ac3e 07a7 aabe 2565 5b3e 5d36 f9be
000000f0: ff8e 94be eb8f cdbd 9b7a 3bbd a628 5b3e
00000100: c3bb 94be f23e 553f c3e7 fe3e 2def 91be
00000110: 43f1 0c3e a291 933d 381a cc3e f2a1 3cbf
00000120: 2ef0 aebe 8a57 d83e 78a0 b3be f317 973f
00000130: 71dc 46be 5217 cabd 9da6 cfbe 9ddf d23f
00000140: 8d87 1b3f 128b adbd 6f3a bc3e 3200 1abe
00000150: f454 2cbf 0e3b fd3e c653 c0be a3d8 afbe
00000160: b80c 5d3f 99e2 9d3e 5e24 cebe c8b2 333f
00000170: 41f9 263f c7c8 0f3f 128e ba3e 4643 babe
00000180: 83b5 e2be 26e4 813d 9d59 183f aa99 043f
00000190: dc13 f43d d83b 213c eaaa 9ebd 07b4 113f
000001a0: 302e 3dbf dbca 35bf 7e8a ad3d 2960 e73e
000001b0: ed79 5bbf f837 4c3e 7871 e93c 0506 0dbf
000001c0: 16c5 4f3f 3b40 33bf f2d7 923c 5d7e 9f3d
000001d0: 5de3 183b 6a20 9abd e914 ed3b ad8c 983e
000001e0: 07c8 7dbe c096 9c3e d7eb 803e 19e1 5abe
000001f0: fd99 7abd e69e babe d536 013f 37a1 1b3f
00000200: 839a 163c 7f22 bbbd ee93 c8be 0876 6d3e
00000210: cd35 a7be 4228 4d3f 845a 42bf 35ee 0e3f
00000220: 12b3 7e3e abb3 04bf 4b22 79be a7b5 a8be
00000230: c329 bcbf a2e8 6b3e 344d 033f 53c3 b43e
00000240: 28a4 c3bc 5991 993d a27f 273d 2bb9 27bf
00000250: bdc3 c43e e99c 27bf 4f6e c43e d178 00be
00000260: b47b 073e 68bd ebbe a603 eebe 40c5 413f
00000270: b6d7 5bbe 4f2a 843f ae51 ba3d 78dc 013f
00000280: a03b 593f 27ac 98bf 7c7c 0d3f f4b1 703d
00000290: b6bb af3e 36e8 8dbe 50f1 d9bd cfa9 fc3e
000002a0: fbef c6bf 10bc d83d 5d22 3abf f4c6 8b3f
000002b0: 55c4 d3bd 016d f83e a561 19bd 50a3 7d3e
000002c0: 621a 3bbe c882 b13e b9c8 9bbe 4865 88be
000002d0: b83a 1b3e 5fe1 e63e 6c0f 703f 485f 75bf
000002e0: 73b9 79bf 994c 03bf f1bb 633d 718a 58be
000002f0: fd3c f6bc 62cc 323f d2cd 463e 1ff0 e33d
00000300: e170 b8be 87f6 013e 6b39 82be c3c4 ee3d
00000310: 940c 3d3e f88b 53bf dbbd 2bbf 2af0 733e
00000320: a549 20bf 9080 ca3e 5727 2b3e 8de6 0d3f
00000330: f4d2 9ebe d8e1 43be 7ceb 213f 04b2 25bf
00000340: b329 4e3f 34b8 b1be 6876 aa3e 9fa4 99be
00000350: b1b2 f7bb 6b7e ba3e 454b 95be 90a1 05bf
00000360: 35c2 56bf 9ae2 b73e 689f d9be b54d 00bf
00000370: 466d 953e fe57 f23e d99c d6be c125 a43d
00000380: 2c20 c7bc be85 0a3f 2638 303e 70be 863d
00000390: 0d8d 8c3c 9fae 1b3e d5ab ef3e 64b9 1f3f
000003a0: 882f eb3d b86f fa3e 4a44 59bf 1349 09be
000003b0: 441f 2b3f dc25 03be fd01 a6be 6191 b5bd
000003c0: 2d58 7f3f 73e1 cf3e 69c2 333e 52e5 bcbe
000003d0: 91a3 bb3f 6e89 3abf 4634 a23d 4056 fb3e
000003e0: 8c97 9cbe 0110 c53d 1b19 4ebf 7e36 a0be
000003f0: fb01 a33e e2e0 ae3e 6784 6d3d d56c 09bf

layer1.bias f4 [20]
-0.0034599882 0.0007066127 1.0314674e-05 0.008058024 0.00042710418 -0.0030344797 4.4566186e-06 4.67442e-05
0.00021166069 2.9825469e-05 -0.008637401 0.0033754373 -0.0009997804 0.00012250397 -6.9728354e-05 -0.009771529
-8.98228e-05 -0.0006085341 -0.0024133942 -0.010794848
00000000: f8c0 62bb fa3b 393a 300d 2d37 cd05 043c
00000010: f4ec df39 1fde 46bb 108a 9536 340f 4438
00000020: 3cf1 5d39 b531 fa37 e383 0dbc 7136 5d3b
00000030: 100b 83ba 6974 0039 203b 92b8 c318 20bc
00000040: 405f bcb8 0886 1fba 092a 1ebb e0dc 30bc

layer2.weight f4 [5, 20]
3.491823e-07 -0.0003475486 -0.00021661563 -0.0197096 0.00019868003 2.8135222e-05 -4.3882083e-05 -7.564746e-05
7.9233505e-05 0.024589613 -5.742054e-05 0.064643495 1.7998391e-06 -0.00046658807 5.413258e-05 -1.9496343e-05
5.9914542e-05 0.00021008213 2.8432927e-05 6.461116e-05 -0.33623984 -0.043895066 -0.0025213284 0.022951568
-0.00922299 -0.787073 0.03378545 -0.0031098195 -0.047012646 -0.00041314104 -1.2143494 0.31391925
-0.05824623 -0.0030514128 -0.01129682 0.34706497 -0.04559742 -0.016525205 -0.45268303 -0.8561449
-5.3775882e-05 -1.1772499e-08 -0.0005296328 6.647105e-05 0.0002105151 -0.00010468121 -0.0003663795 0.00013048905
-9.328715e-05 3.9434857e-05 -2.0539446e-06 7.4001937e-06 -0.00015558876 0.0007286201 -9.6047996e-05 -8.100722e-05
-0.00026477085 0.00023944065 -0.00023039513 -4.929831e-05 -3.462097e-05 0.00021651121 2.7215425e-05 -2.7779897e-06
-0.00048109237 -8.202275e-05 -1.4654164e-05 -5.7353984e-05 0.00017412486 1.043134e-05 6.5305736e-05 -2.4600879e-05
0.00030953472 -0.000175287 -0.0004440246 3.902002e-05 -0.0003447531 -0.00025565847 -2.8647015e-05 -1.8309629e-05
-7.02289e-05 0.0006453006 -7.492857e-05 -0.011677879 -0.0004963501 0.00037921453 -0.00015016654 -3.1473173e-06
0.00034555595 -5.085196e-06 1.5720114e-05 -0.0055602062 0.00019161592 -0.00012167484 -0.0011969357 -7.024718e-05
-0.0005996388 -0.00067502557 -0.00028117409 0.0003596921
00000000: 4077 bb34 2f37 b6b9 5123 63b9 0776 a1bc
00000010: c454 5039 ee03 ec37 070e 38b8 eca4 9eb8
00000020: 2a2a a638 2870 c93c d6d6 70b8 cf63 843d
00000030: 0092 f135 64a0 f4b9 6a0c 6338 148c a3b7
00000040: c04c 7b38 7e49 5c39 3f83 ee37 da7f 8738
00000050: a127 acbe 50cb 33bd df3c 25bb ed04 bc3c
00000060: 061c 17bc 9e7d 49bf 9d62 0a3d 1dce 4bbb
00000070: 5590 40bd da9a d8b9 cd6f 9bbf 06ba a03e
00000080: 9993 6ebd 36fa 47bb 4c16 39bc 80b2 b13e
00000090: 5cc4 3abd de5f 87bc 12c6 e7be 502c 5bbf
000000a0: 6a8d 61b8 0040 4ab2 0ed7 0aba 6066 8b38
000000b0: b8bd 5c39 4c88 dbb8 a016 c0b9 e3d3 0839
000000c0: 28a3 c3b8 db66 2538 80d6 09b6 2e4f f836
000000d0: 8a25 23b9 de00 3f3a 606d c9b8 6ce2 a9b8
000000e0: f1d0 8ab9 5c12 7b39 3996 71b9 a8c5 4eb8
000000f0: fc35 11b8 4907 6339 ae4c e437 806d 3ab6
00000100: 203b fcb9 a103 acb8 28db 75b7 5f8f 70b8
00000110: 4995 3639 4402 2f37 c0f4 8838 fc5d ceb7
00000120: 0c49 a239 3fcd 37b9 f9cb e8b9 6da9 2338
00000130: fabf b4b9 e609 86b9 ff4e f0b7 a197 99b7
00000140: db47 93b8 6429 293a f822 9db8 9354 3fbc
00000150: 7e1d 02ba 50d1 c639 0676 1db9 8036 53b6
00000160: bc2b b539 80a1 aab6 b0de 8337 6432 b6bb
00000170: 82ec 4839 af2b ffb8 7fe2 9cba ab51 93b8
00000180: 1431 1dba 33f4 30ba 8c6a 93b9 0e95 bc39

layer2.bias f4 [5]
-4.6654288e-05 0.33129513 7.055051e-05 -5.8511174e-05 -0.006062659
00000000: a9ae 43b8 849f a93e 84f4 9338 e569 75b8
00000010: 45a9 c6bb

layer3.weight f4 [1, 5]
-0.00029235246 0.905789 4.2835127e-06 -7.596648e-06 -0.0043031555
00000000: e246 99b9 cae1 673f 18bb 8f36 b6e6 feb6
00000010: 7c01 8dbb
