model/slide_nn_model_weights/trained_on_phasepred_pdps_notrunc/dense_650_20_5_1_weights_2.pth (torch, 55366 bytes, 5 tensors)

layer1.weight f4 [20, 650]
00000000: bdb0 d5be a807 3fbf f8f7 15bf ebac ae3e
00000010: 140b 93bf 020a 3bbe ff8b 0640 df1f 35bf
00000020: 66c5 dabf 3511 283f eb74 d13d 5f03 3e3f
00000030: 86a8 3a3e 5b36 023f 45f2 113f 9791 423d
00000040: c4c0 4b3e 4dbf 2e3e 7376 8bbe fede 993f
00000050: 1cdd 2fbf 887e 99bc d56a 74bf b306 173f
00000060: b953 d63f 2938 4d3e 71b3 073e 00af 4e3e
00000070: bb4e 37be a9b3 e5bf 1e75 b63f c6a1 87bf
00000080: 90b2 31bf fa24 07bd 9c26 c5bd 1d08 643d
00000090: 24d7 d13e 1d03 df3e 5adc 813f cfa4 57bf
000000a0: d94f b83e d67c 173f 0b79 293f 756a 8ebf
000000b0: 5267 87bd df27 fc3d cc01 533e 54fa 103f
000000c0: b309 3a3f 65d8 883f 7afa c5bf ab61 00bf
000000d0: e308 863e d763 0c3e 4fcb ad3f 401a 3ebf
000000e0: 5cc1 2abf 1d79 4dbf e938 e4be bf91 913d
000000f0: 4210 aabc 6804 b83e 81e0 d63d e1c4 a1bc
00000100: b8a5 853e 2b8b 463f ab85 ef3e 9a41 2bbe
00000110: ba4d 57bd 2d49 473e 01e2 613f 435e 9ebe
00000120: 208c 77bf 0440 e3bd e4a4 7a3e 2f96 6bbf
00000130: 54ae ebbf e6b6 ed3f d569 2f3e 88b5 43be
00000140: f9f4 0cbf 01b2 b23b dbcf 93bf a33b 0d3f
00000150: ce93 7a3e 949a 84bf c655 fa3e 833e 82bf
00000160: 6d0b 63bf def6 033f dbf7 6fbe 7c1a b43f
00000170: e67b 88be acc6 243f f121 bfbe 5bcd 52bf
00000180: 6e47 5dbf ab56 803f 1e9d cfbf ad34 963f
00000190: 381a 653e 5583 fdbd d26b 0b3f 6ab1 8b3e
000001a0: e330 3fbe 392d e83f d6a0 24bf 0163 32bf
000001b0: e12b 073f 56af 85bf 042d b83e 1647 b3be
000001c0: d9aa 8dbf e0af c53d e08f 7e3f 9a89 e53e
000001d0: 41d5 b7bf 1f8a 34bd 4c0b b23f 0ee6 e6be
000001e0: dc12 a73f 7edd e5be 611d 93bf 971b c43c
000001f0: d630 b13d ba00 eebe 72d3 8fbe cf23 1abf
00000200: e233 8a3f c7e5 a93b e6dd c4bf a07f acbe
00000210: 185d a7bd bc77 633e 9a82 543f 27b7 90be
00000220: 146c f73e 0827 d0be 8c3d 623f 257e 6b3f
00000230: d72a dabe 484c f83e d6ce c6bf c2d1 2a3f
00000240: bc1f 003f b7fe 183f acc1 b63e c569 54bf
00000250: 0a25 15bf 0a7c c53e 2e61 bcbc 1e09 c93e
00000260: 183e 8bbf 8cb5 2d3e e453 1dbc a7b6 20be
00000270: 4423 903f 1824 0c3f a03b 9e3e 804e 6d3f
00000280: b6fc c03e 54ef 813e 69b0 ab3d 9d82 273f
00000290: 9bd9 e7be c49e c9bc b39b 9ebf 5956 0fbe
000002a0: bb7a a73e 68ea df3e 8a20 c03f ebc9 633f
000002b0: 291b 263d f7dc 43bf 47e3 bcbe b380 49bf
000002c0: c1ff 47bf 9701 9bbf 5c74 1fbf 09b4 993f
000002d0: 3dda 393f 478e 053f 9e14 00bf ff55 86bf
000002e0: 144e c13c f438 333f a3d5 f6bd 8e0c 543e
000002f0: ffca 1e3f 69b9 05bf 76bd 873f 3310 1ebf
00000300: a503 293f ebd4 943f c841 3d3b 3331 0ebe
00000310: da18 4b3e 3568 0f3f 1d3d 0f3f 4ccb c3be
00000320: 01b1 eebe 0ad2 2ebf 9eca 9bbe 0eb5 9dbc
00000330: 57b4 933f a0bd c9be 6b0f d4bd 062d 023f
00000340: 4093 3f3f 4835 f03e 6b9f 43bf e45a 70be
00000350: 7f96 dfbe 25ea 25bf f69d 6d3f 0374 f3ba
00000360: 7bd8 06be 43ff 073f 7702 a53f 562b ec3e
00000370: d198 c2be a202 d3bf 4311 adbe 219e 293f
00000380: 1262 573f 6b18 f63c f8a4 a23e df8f b43d
00000390: b15e 87bf 23c1 563e d126 eabe 0693 bcbf
000003a0: d052 afbe 2e0c 493f fbfd 963d 29e7 603f
000003b0: c376 2ebf 9201 063f 2589 66be d3b9 eebe
000003c0: d902 28be 049f bfbe a484 343f 2fc7 0fbf
000003d0: 003b 3dbf 7c35 2c3f 113e 233f 15af 3c3f
000003e0: f236 ca3e d7cf bd3e 528f 333e 97aa b53e
000003f0: b3b1 7fbf c45a f63e 1579 9a3e 64a0 9c3e
-0.41736403 -0.7462106 -0.58581495 0.341163 -1.1487756 -0.18265536 2.1022947 -0.70751756
-1.7091491 0.65651256 0.102273785 0.74223894 0.18228349 0.5086419 0.570103 0.047502127
0.19897753 0.17065163 -0.27238807 1.2021177 -0.6869676 -0.018737093 -0.9547551 0.589946
1.67443 0.20040955 0.13252045 0.20183945 -0.17901127 -1.7945453 1.4254491 -1.0596244
-0.6941309 -0.032994248 -0.09626505 0.0556718 0.40984452 0.43557063 1.0145371 -0.8423585
0.3599842 0.5917486 0.6620032 -1.1126238 -0.06611504 0.12312292 0.20606154 0.5663197
0.7267105 1.0691038 -1.5467064 -0.5014903 0.26178655 0.13709961 1.357767 -0.74258804
-0.66701293 -0.8026293 -0.4457467 0.07107877 -0.020759705 0.35940862 0.104920395 -0.0197472
0.26102996 0.77556103 0.46781668 -0.16724244 -0.05256436 0.19461508 0.8823548 -0.3093129
-0.9669819 -0.110961944 0.24476963 -0.92026037 -1.8412576 1.8571441 0.17130215 -0.19112217
-0.550613 0.0054533486 -1.1547807 0.55169123 0.24470446 -1.0359674 0.48893565 -1.0175327
-0.8868931 0.51548564 -0.23434393 1.4070582 -0.26657027 0.6436565 -0.37330583 -0.823446
-0.8643712 1.0026449 -1.6219823 1.1734825 0.22373283 -0.12378565 0.54461396 0.27283794
-0.18670993 1.8138801 -0.64307916 -0.6968232 0.5280133 -1.0444133 0.35971844 -0.35015172
-1.1067764 0.09652686 0.99438286 0.44831544 -1.4361955 -0.044077035 1.3909698 -0.45097393
1.305263 -0.44895548 -1.1493341 0.023938937 0.08651893 -0.4648493 -0.28091007 -0.6021089
1.0797083 0.0051848623 -1.5380218 -0.3369112 -0.08172053 0.22213644 0.8301178 -0.28264734
0.48324645 -0.40654778 0.88375163 0.91989356 -0.4261081 0.48495698 -1.5531871 0.66726315
0.5004842 0.59763664 0.35694635 -0.8297389 -0.5825964 0.38571197 -0.022995558 0.39264768
-1.0878325 0.16963786 -0.009602521 -0.15694676 1.1260762 0.54742575 0.30904865 0.92697906
0.37692803 0.25377905 0.08383257 0.65433675 -0.45283207 -0.024611838 -1.2391266 -0.13997783
0.32710823 0.43733525 1.500993 0.8897998 0.040553246 -0.7650904 -0.3689215 -0.78712004
-0.78124624 -1.210986 -0.62286925 1.2008067 0.7259863 0.52170223 -0.5003146 -1.0494994
0.0235968 0.7000878 -0.12052467 0.20707914 0.620285 -0.5223604 1.0604694 -0.6174347
0.66021186 1.1627477 0.002887832 -0.13885956 0.19833699 0.5601838 0.55952626 -0.3824104
-0.46619418 -0.68289244 -0.30428022 -0.019251373 1.153941 -0.39402485 -0.10354503 0.5084995
0.7483406 0.4691565 -0.7641513 -0.23472172 -0.43669507 -0.648104 0.92819154 -0.0018574003
-0.13168518 0.53123873 1.2891377 0.46126813 -0.38007215 -1.6485178 -0.33802232 0.6625691
0.8413402 0.03004094 0.31766486 0.08816504 -1.0575773 0.20972113 -0.4573274 -1.4732368
-0.34242868 0.7853421 0.07372662 0.8785272 -0.68149966 0.52346146 -0.22513254 -0.46626148
-0.16407336 -0.37426007 0.70514894 -0.56163305 -0.7391815 0.6726911 0.6376658 0.73704654
0.39495045 0.37072632 0.17535141 0.35481712 -0.9988052 0.48116124 0.30170503 0.30591118

layer1.bias f4 [20]
00000000: cd21 cf3b 1a75 88ba c7cc 35ba 8496 7fb9
00000010: 82f4 313a 905e c2b7 366d a539 f5e3 083b
00000020: 363d 063a 2fb3 02bc e8e5 1438 24ad 7cb8
00000030: dfae 023d 012c 67ba 0e9b 07b9 8261 7bbc
00000040: a6bd 3bb9 dcb1 6d3a 246b e43b 7422 83bb
0.006321168 -0.0010410876 -0.0006935116 -0.00024374767 0.00067884487 -2.3170636e-05 0.0003155262 0.0020887826
0.00051208155 -0.007977291 3.5500067e-05 -6.024273e-05 0.03190505 -0.0008818508 -0.00012932366 -0.015343072
-0.00017904359 0.00090673356 0.00697078 -0.00400191

layer2.weight f4 [5, 20]
00000000: 4628 bdb7 bee1 ce38 881b c738 126e 3f37
00000010: f4a4 08ba aa0f 3138 fb95 20ba 1edd 1ab7
00000020: 8fde 4bb9 f5b2 bab9 d0fb ca38 01ad 0839
00000030: 883c 57b7 e334 9f39 dfd4 1ab9 6d5d 9ab8
00000040: 630a 4338 9fa5 cfb9 e906 4738 fd6b 4839
00000050: 1868 b1be d866 903d 132a c2ba 826c c43b
00000060: 8bf6 aa3b 2ff2 4d3d ccf0 b23a 5a53 aa3c
00000070: 3e72 30ba 3a51 b63f 811a 223c fd7c ae3c
00000080: 72f4 453f 4f1e 023e 1f4f 0fbb 0cdc bc3e
00000090: 39cb 113c 8a47 b0b9 2685 9cbe ab74 8dbd
000000a0: fe75 363e 6f54 4ebd b917 013b f975 ef3a
000000b0: 5868 44b9 7e76 07bd 85ec 543a daae 82bc
000000c0: fa23 ca3a 5e3a afbf e674 d4ba 35f4 e039
000000d0: 04a2 0abf e927 c0bd 00db 7c39 1456 c3bd
000000e0: 9c48 a9bb 9ba7 cb3a e672 d93e 5edc 493c
000000f0: 4ec9 dfb9 3f4f 0d3a baad 2439 883e 89b5
00000100: 5e23 25ba 60b8 18b8 fbe8 bf39 c82c 6939
00000110: a2c7 4e39 9cb7 b7b9 5d64 86b9 0fa0 cf39
00000120: e65a 4539 c1a7 25b9 c687 5db9 82e3 b1b8
00000130: 04ae 6339 7cf6 ce38 c91a 4bb9 4c4d 9d39
00000140: 7050 65b7 54c2 9539 9039 6839 d686 2b38
00000150: b261 8ab9 00af 71b6 221c 4b38 97a5 293d
00000160: 5018 9fb6 cd95 bf39 a4ae 03b9 003d 81b5
00000170: add2 56bb 80e3 a5b9 d649 2cb9 76e8 e337
00000180: d4ea b3b9 9c89 bb38 3c83 4eba e801 06b9
-2.254931e-05 9.864893e-05 9.4941875e-05 1.1410115e-05 -0.0005212568 4.2214677e-05 -0.00061258645 -9.230598e-06
-0.00019442498 -0.00035610018 9.679014e-05 0.0001303442 -1.2829092e-05 0.00030366247 -0.00014765885 -7.360694e-05
4.6501296e-05 -0.00039605514 4.7451733e-05 0.00019113715 -0.3464973 0.07050866 -0.0014813564 0.0059943805
0.0052173785 0.050279792 0.0013652085 0.020791698 -0.00067308906 1.4243538 0.009894014 0.021299833
0.7732612 0.12706874 -0.0021867228 0.36886632 0.00889855 -0.00033622637 -0.30570334 -0.06907018
0.17818448 -0.05037349 0.0019697978 0.0018269412 -0.00018730888 -0.033071987 0.00081224024 -0.015952516
0.0015422099 -1.3689687 -0.0016209155 0.00042906558 -0.54153466 -0.09382612 0.00024114177 -0.095379025
-0.0051661264 0.0015537621 0.42470473 0.012320606 -0.00042683858 0.0005390532 0.00015704977 -1.0225494e-06
-0.00062995206 -3.6411337e-05 0.00036603943 0.00022237294 0.0001972006 -0.0003504128 -0.00025633248 0.0003960137
0.00018821246 -0.0001579812 -0.00021126782 -8.482394e-05 0.00021713233 9.868757e-05 -0.00019369567 0.00030002964
-1.3668192e-05 0.0002856428 0.00022146688 4.0895153e-05 -0.000263942 -3.6013662e-06 4.8425172e-05 0.041417684
-4.7413996e-06 0.0003654197 -0.00012558192 -9.629002e-07 -0.003277938 -0.00031640753 -0.00016430704 2.7168757e-05
-0.000343165 8.9424866e-05 -0.0007877832 -0.00012779946

layer2.bias f4 [5]
00000000: 6192 4f38 c69b 93be f7c5 1a3d 20da 83b7
00000010: 528e adba
4.9488972e-05 -0.28829783 0.03778645 -1.571799e-05 -0.0013241267

layer3.weight f4 [1, 5]
00000000: 98c7 5cb7 477b 2bbf ae0e 923e d1ed 3637
00000010: 6360 1b3b
-1.3159493e-05 -0.6698498 0.28526825 1.0903416e-05 0.0023708574
