model/slide_nn_model_weights/trained_on_phasepred_pdps_notrunc/dense_650_20_5_1_weights_9.pth (torch, 55366 bytes, 5 tensors)

layer1.weight f4 [20, 650]
000000 8b 19 d1 bd de 2f 5a bd 15 89 42 be 13 f6 51 3d
       -0.1020995 -0.053268306 -0.18997605 0.051260065
000010 b1 50 c4 be df 1d cd 3d 44 2f d3 be 75 9e 7e be
       -0.38342813 0.10015463 -0.41246998 -0.24865134
000020 96 bf 09 bf f2 90 62 3d ee 1b 17 be e1 30 25 3e
       -0.5380796 0.055314012 -0.14756748 0.16131927
000030 67 81 65 bd c5 c2 ab 3e 88 5a 20 be be e1 65 bd
       -0.05603161 0.33547035 -0.15659535 -0.056123488
000040 8c 05 2a be 69 2f 4c 3e 97 cb 2e be 61 0c 95 be
       -0.16603678 0.1993996 -0.17069851 -0.29111007
000050 3d 49 da be fa 64 a5 3e a2 27 7b 3d 81 9e 80 be
       -0.42634 0.32303602 0.061317094 -0.2512093
000060 1f 00 eb 3d 77 6f 21 3e b3 96 f0 3d 8d de 57 3c
       0.114746325 0.15765177 0.117474936 0.013175619
000070 0c d1 2a be f5 8e 69 be 2c d9 ae 3e f1 a5 ff 3b
       -0.16681308 -0.2280844 0.34150064 0.007801764
000080 02 b8 e1 bd 9f 14 a9 3d 09 d5 00 be 61 33 87 be
       -0.11021425 0.08255886 -0.12581266 -0.26406386
000090 d5 c6 95 bd 84 29 88 3e de af d9 3e ad 05 08 3e
       -0.07313315 0.26594174 0.4251699 0.13283415
0000a0 0f a4 9b 3e 42 8d 9b 3e cc d4 05 be fa d5 ec be
       0.30398604 0.3038121 -0.13069457 -0.46257
0000b0 4d ae 8b be 69 95 c5 3e c4 d6 c1 3d 26 b6 5f 3e
       -0.27281418 0.38590553 0.094647914 0.21846828
0000c0 fd 28 c9 be 6e 91 33 3e ea 7b 03 be 62 35 e8 be
       -0.39289084 0.17535946 -0.12840238 -0.45353228
0000d0 f5 d7 ea be 2e 7c fc 3d db 25 a0 3e a2 c2 ba be
       -0.45867887 0.12328373 0.3127888 -0.36476618
0000e0 e2 f0 04 be 96 f6 b9 3d 6c 3a c0 3d 6b dd ec 3b
       -0.12982515 0.09080236 0.09386143 0.0072285435
0000f0 fa 6c 12 be e6 4d 53 3e d6 42 9b 3d 1a 6e 26 3e
       -0.14299384 0.20635185 0.07581107 0.16252938
000100 4b 25 46 3d e3 9a 47 be 59 28 44 bd cb 5e 04 3e
       0.04837541 -0.19492678 -0.04789004 0.12926786
000110 99 9d 2a bd 92 09 ac be c1 df 3d 3d 2b 6d 30 be
       -0.041654203 -0.33601052 0.046355966 -0.17229144
000120 e4 7c fa 3d 8c e5 21 3d 1e 98 4f 3e 1a b7 82 3e
       0.12230852 0.039525554 0.20272872 0.2553032
000130 a3 e6 13 bf 19 be 3a 3e 12 d6 fc bb 35 15 b0 3e
       -0.577738 0.18236579 -0.007715949 0.3439118
000140 5d 3d 8f 3e 46 7e 42 bb ff b8 ad 3e 38 61 38 3c
       0.27976504 -0.0029677316 0.33930203 0.0112536475
000150 cc d4 65 3e 59 fd 77 3d 28 56 92 3d a6 1c 29 be
       0.22444457 0.060544346 0.07145339 -0.16514835
000160 1b 66 98 3d de 5c 1d 3e 3b a8 ee 3a c9 d2 f6 bb
       0.0744135 0.15367457 0.0018208096 -0.007532452
000170 5e 05 ea 3e 22 b8 e4 be bc ab a3 bd 73 e2 8f bd
       0.4570722 -0.44671732 -0.0799174 -0.07025614
000180 77 93 fb be 4f 89 00 3f 42 3e e2 be 53 fa bc 3e
       -0.49135944 0.50209516 -0.44188124 0.36909732
000190 f7 7b 04 bd 7c b5 2f be 49 be 0e bd a6 9f 9f 3e
       -0.032344785 -0.17159075 -0.03484944 0.3117649
0001a0 aa 85 3f 3c 79 4d d9 3e de 40 86 3e 8d e7 7a 3d
       0.011689583 0.4244192 0.26221365 0.06125598
0001b0 74 63 0a bf 99 37 44 be 33 22 31 3e c9 cc df bd
       -0.54058003 -0.19161834 0.17298202 -0.109277315
0001c0 78 21 25 be c9 27 a4 3e c2 06 a3 3e 69 22 f5 bd
       -0.16126049 0.32061604 0.31841093 -0.11969454
0001d0 1f 89 99 3d 5b fe 1f be a2 f5 13 3e 20 95 77 be
       0.07496857 -0.15624373 0.1444917 -0.2417798
0001e0 17 f6 39 3e 35 93 24 be 87 0c 5b be f1 34 a6 be
       0.18160282 -0.1607178 -0.21391498 -0.32462266
0001f0 48 d0 f2 3c 73 1e 89 3e ce ba 49 3e 97 32 11 3d
       0.029640332 0.26781043 0.19700167 0.035448637
000200 3e 22 ff 3e 69 e9 68 3e 0f 45 e9 be cd 3e 84 3d
       0.49830812 0.22745289 -0.455605 0.06457291
000210 9b a4 87 bc 78 9d 56 3d c7 c4 4d be 67 4a f7 3e
       -0.016557982 0.052396268 -0.20094596 0.48298952
000220 cb ee 4f bc 2e 81 ab be 93 6e 55 3d 7c 16 00 be
       -0.01269121 -0.33496994 0.052107405 -0.12508577
000230 e4 08 3d be 87 86 d3 3d 99 ae fa bd a1 e0 ff 3d
       -0.18460423 0.103283934 -0.12240333 0.124940164
000240 c3 70 99 3e cb 5e 32 be d2 63 92 3e a7 11 86 bd
       0.29968843 -0.17418973 0.28591782 -0.06546336
000250 82 45 2c be 87 8d 05 3d ec 84 16 3e 14 3e e1 bc
       -0.1682339 0.032605674 0.14699143 -0.027495421
000260 95 75 01 3e 2b 4d cd 3d ad 9e e9 bd 3e 24 bf 3e
       0.1264251 0.10024484 -0.11407218 0.37332338
000270 56 14 3c 3e 92 d9 0e 3d 76 d9 a6 be 61 9c ad 3e
       0.18367133 0.03487546 -0.32587785 0.3390837
000280 f4 d7 13 be 75 a8 8f 3e 6f ec 3b 3e a4 2e 91 3e
       -0.14437848 0.2805821 0.18351911 0.28355896
000290 07 47 ae bc 89 19 53 bd 98 b7 99 be 10 0f 19 be
       -0.021274103 -0.051538024 -0.30022883 -0.14947152
0002a0 e4 ec c1 be 8c 58 ae be 55 c9 1c 3e ec 24 34 3f
       -0.37876046 -0.3405193 0.15311177 0.7036884
0002b0 2c cc 0f 3e 78 15 ba be ae cf 22 bf 29 d3 12 3e
       0.14042729 -0.36344504 -0.63598144 0.14338364
0002c0 87 c1 23 be 14 00 15 bf c7 12 cb be ad 89 66 3e
       -0.15991794 -0.58203244 -0.39662763 0.22513457
0002d0 c9 78 05 bd d9 77 8e 3d 83 47 8c 3e 73 73 af bc
       -0.032585893 0.06956453 0.2739831 -0.021417355
0002e0 05 3f 75 bd 7c 97 f9 bd 27 e8 ec 3d e1 8a ff 3c
       -0.059874553 -0.121870965 0.11567717 0.031194152
0002f0 03 a4 c9 3e ed 10 a8 be 5f 73 b9 3e 71 93 1f 3e
       0.39382944 -0.32825413 0.36220834 0.15583588
000300 fa b1 0a 3e 26 a4 40 3a d9 74 21 3e a6 cb 9a be
       0.13544455 0.0007348679 0.1576723 -0.30233496
000310 27 4f 13 be 75 73 92 3e df c8 7f bb ae c0 91 3d
       -0.14385663 0.28603712 -0.003902964 0.07116829
000320 ae 92 41 be 5c c4 74 3d a6 0f 23 be f4 30 8e be
       -0.1890361 0.059757575 -0.15923938 -0.27771723
000330 fd 63 8a 3e 14 6e d4 3e d8 53 cc 3e 3c 55 73 be
       0.2702941 0.41490233 0.39907718 -0.23762983
000340 21 08 50 be 51 65 1b bd 64 22 10 be 9d aa 01 3d
       -0.20315601 -0.03793842 -0.14075619 0.03165685
000350 d6 ca ad 3d 37 d2 50 3d ff 08 4d be a8 d4 b0 bc
       0.084859535 0.050981726 -0.20022963 -0.021585777
000360 b3 84 3b bf 42 fc 38 bd 62 a9 ca bd 9e 17 7b 3e
       -0.7324936 -0.045162447 -0.098955885 0.24520728
000370 ac 7d de bd 2b b1 8d be 3d a5 10 3c 44 e8 a2 3e
       -0.10863814 -0.2767423 0.008828458 0.3181783
000380 db 3e 20 3e d7 10 96 be eb 89 db 3e 7b 16 22 3f
       0.15648977 -0.29309723 0.4287866 0.6331555
000390 0d 00 88 3d 51 d1 03 3f e0 1c 80 3e c1 58 da be
       0.06640635 0.51491266 0.2502203 -0.4264584
0003a0 0a 5a 67 be 65 5a 8a 3c 81 3a 4f 3e af ee cd bd
       -0.22592941 0.016888807 0.20237161 -0.10055291
0003b0 11 3b 01 bf 18 c1 be be 9b d1 d8 3e 66 01 f7 bd
       -0.50480753 -0.37256694 0.42347416 -0.120608136
0003c0 d9 27 de 3e f3 34 a6 bb 9c d3 3e be d6 a9 9a bd
       0.43389776 -0.00507223 -0.1863541 -0.07551925
0003d0 fb 7c 4e bd 8f 73 b3 be f2 32 92 bd 72 65 bf 3c
       -0.05041216 -0.35049102 -0.07138623 0.023363803
0003e0 ae 87 b6 3e c3 19 e3 bd 9f 63 d1 3d 50 68 90 3e
       0.3565039 -0.11088898 0.10224079 0.28204584
0003f0 45 e6 50 be 0f c6 92 3e ab 00 5f 3e 8d 1f 81 bc
       -0.20400341 0.28666732 0.21777599 -0.015762115

layer1.bias f4 [20]
000000 0a c3 6d 38 8b 1c 3a bd cc 03 b5 3c 62 b3 9d bc
       5.6686848e-05 -0.045437377 0.022096537 -0.019250575
000010 48 a9 71 37 14 9e 93 bb 18 03 bf b7 90 fe 98 3a
       1.4404133e-05 -0.0045049284 -2.2770415e-05 0.0011672545
000020 c0 16 9c 3a 60 a7 1a 37 4b 37 2c 3d 1a 2f 9f bc
       0.0011908635 9.218085e-06 0.04204492 -0.01943164
000030 2e 01 db b7 ec 02 4e bd f5 1d 42 3b 62 74 8c bb
       -2.6107384e-05 -0.050295755 0.0029619907 -0.004286335
000040 86 b5 d0 b9 3e e7 66 b8 51 4e b1 3b bb 70 e7 39
       -0.00039808097 -5.5051634e-05 0.0054109474 0.00044143744

layer2.weight f4 [5, 20]
000000 a5 06 82 3c 69 bf c3 ba 3c 9e 1b bf 20 1c 67 3e
       0.015872309 -0.0014934364 -0.6078832 0.22569323
000010 3e c1 3e bc da 99 9c bd 3e e2 1e 3d 3c 18 de 3c
       -0.011642752 -0.07646532 0.03878998 0.027111165
000020 0a 14 d8 3c cc 37 6e 3b 4a 76 11 be 97 6c ec 3d
       0.026376743 0.0036349175 -0.1420528 0.11544149
000030 82 04 e3 bb 69 da 02 3d c2 4f 07 c0 f7 00 0e bf
       -0.0069280276 0.031946573 -2.114243 -0.5547022
000040 65 60 9d 3c 7b d3 e5 3c 37 f1 58 3e 0b 91 9d 3c
       0.019211004 0.028054943 0.21185766 0.019234201
000050 92 ea e6 b7 85 cc 89 b9 68 42 80 37 28 db b6 36
       -2.7527367e-05 -0.00026283055 1.5289712e-05 5.449536e-06
000060 44 58 1c 38 6f f4 27 39 3b c0 8e b9 d8 a4 b5 b7
       3.7275502e-05 0.0001601742 -0.00027227573 -2.1653643e-05
000070 80 bb 38 39 e4 43 76 b7 00 f1 6d 34 38 5e 7b 38
       0.00017617457 -1.467855e-05 2.216002e-07 5.993081e-05
000080 4e 86 88 b9 23 2f 1f 39 00 b6 f7 38 01 28 f9 38
       -0.00026040006 0.00015180981 0.00011811778 0.000118806965
000090 58 bd 06 39 6e c6 c7 b7 9b 01 30 b7 4f c5 76 b9
       0.00012849772 -2.381505e-05 -1.0490791e-05 -0.00023533891
0000a0 55 52 b7 39 3d 78 b0 ba 46 d5 d2 ba d0 72 6f 3b
       0.00034965822 -0.0013463568 -0.0016085289 0.003653694
0000b0 6e 6e d2 38 19 54 18 ba 42 a4 81 39 9a 67 17 38
       0.000100341495 -0.00058108714 0.0002472718 3.6097692e-05
0000c0 ad a2 8f 39 ba 3b a0 b8 d8 ce a5 3b 5c 2c 6e b7
       0.00027396288 -7.6405195e-05 0.005060058 -1.4196234e-05
0000d0 1a 1d a6 3a 9a 6a 20 3c fa 1d 6e ba 98 14 80 ba
       0.0012673468 0.009791041 -0.00090834463 -0.0009771762
0000e0 16 a6 fd 38 88 0d b8 b9 c1 0e de 3c 99 18 84 39
       0.00012094916 -0.00035105296 0.027106645 0.0002519533
0000f0 83 87 2b ba ef 25 17 bd b1 9a a6 3d 44 aa 90 be
       -0.0006543325 -0.03690141 0.08134974 -0.28254902
000100 0a 88 93 bc 7c ce 3b bb 60 22 70 bc 48 c4 92 bc
       -0.018009204 -0.002865701 -0.014656633 -0.01791586
000110 45 95 98 bc c1 41 f9 bb 36 0b 65 bd 9d a4 d7 bd
       -0.018625865 -0.0076067154 -0.055918895 -0.10529444
000120 dd bf 21 bd 65 f6 38 bc 86 b7 45 3d de 27 cf bc
       -0.039489616 -0.011289214 0.048270725 -0.025287565
000130 ea 39 3d bc 1f 67 08 bc 22 a2 30 3b 09 23 59 bc
       -0.011549452 -0.008325367 0.0026952107 -0.013252982
000140 89 58 e7 37 72 84 97 b9 58 d4 4e b9 80 77 05 3a
       2.7578573e-05 -0.00028899644 -0.00019724795 0.0005091354
000150 4f 3c 4f 3a d0 0a e7 38 72 ad 3f 3a da 73 54 39
       0.000790541 0.00011016952 0.0007311917 0.00020261054
000160 bc 16 0a b9 74 e6 93 37 13 ae 6c 3b 08 f5 54 3b
       -0.00013169175 1.7631079e-05 0.0036114499 0.0032494683
000170 1e 16 90 39 d4 63 a5 3a e8 bc 3c b8 e4 c1 f9 b9
       0.000274823 0.0012618252 -4.4998626e-05 -0.0004763744
000180 ed 99 92 b9 96 73 32 39 90 be 27 ba 9d 88 05 3a
       -0.00027961974 0.00017018462 -0.00063989405 0.00050939043

layer2.bias f4 [5]
000000 1c 58 43 3e 96 77 c8 36 99 69 2a bc 94 d5 a8 bc
       0.1907658 5.974386e-06 -0.010401153 -0.020609654
000010 e8 15 45 b9
       -0.00018795545

layer3.weight f4 [1, 5]
000000 3f 55 26 3f 36 98 ca 36 06 44 b5 bb cb c5 a7 3d
       0.64973825 6.037789e-06 -0.0055317907 0.08192023
000010 0f f6 e2 ba
       -0.0017315763
