model/slide_nn_model_weights/trained_on_phasepred_pdps_notrunc/dense_650_20_5_1_weights_0.pth (torch, 55366 bytes, 5 tensors)

layer1.weight f4 [20, 650]
00000000: d426 52be e551 9fbe f6cb 13be 0e00 aebd
00000010: 28c7 613e 32d3 13bd 6b3d 8d3e 9bcc d83e
00000020: 4e02 19bf a21b af3e 7d18 a13e 51f7 803e
00000030: 0a71 7ebe 6629 a5bd fbd8 10bf 9882 cfbd
00000040: 499f 833e ef57 a0bd 339c 57bd 5a81 0c3e
00000050: 00f8 f4bc a1d7 ab3e 8e1f 34be bbaa fcbd
00000060: aa1c 04bf d6fa d2bd c67c fcbe 56c0 dbbc
00000070: 7c99 c03e 35ee bf3d 0d46 e43e 46bb 933e
00000080: c83f 7abe 1076 43be 2b59 80be a5ab f6bd
00000090: b969 403e c1eb 82bd 317b cf3b bcdb 2cbf
000000a0: f584 e73e 3a31 a53d 059a 91bd 6e21 853e
000000b0: a4fc 063d 3b73 d8be 5e05 91bd 3917 653e
000000c0: 0d3e edbd dd1d 943d 0711 223e cb88 cabd
000000d0: 315b 5f3d a62a 6e3e 35f1 8bbe b96f 66be
000000e0: 5235 88be 483c adbe 1d6d b23c 07b3 8fbe
000000f0: e60d cd3e d819 f63d a7b2 113e 66ee b4be
00000100: e76f 6bbe c453 93bd d3b0 2e3e 6a1e 21bd
00000110: 72f9 fbbe b0e0 2f3e 7024 d4bd 9af7 363e
00000120: ff1c ba3e 5825 433e 205c cabd f9d4 9c3e
00000130: 6cf8 4dbe 9dd9 2bbe 044b 06be ab93 24be
00000140: 189a f83d e74f 90be 3740 82bb 650b 653e
00000150: 9b3f 90bd 4bf6 fdbe c792 b5bd 75a6 c7be
00000160: 05c7 8dbe 31c9 f43e a865 e2bc 12d6 1c3e
00000170: 9571 893e edf9 223d b4fa d43d 7164 873e
00000180: fd24 c5bd e95b e63d b6e8 e33e 9af4 82bd
00000190: 7b49 9abe 36b8 5e3c 7ebf 16bf 388b f63e
000001a0: 3a62 4abd 9de8 573f d207 0cbf 3d7b cebd
000001b0: b871 4d3c 8490 ffbe b994 c5be 7d46 58be
000001c0: d393 a3be 9307 2ebe 7c0d 9e3e 2b1c 873d
000001d0: c528 95be 6031 cd3b 2315 f9bd bb93 63be
000001e0: 45c7 073e 7800 c6bd 03ff c63d d749 84be
000001f0: fb2d 363e 8c8c 093c 93ce e13a 8072 373d
00000200: 061c f63d dc2b b7be 6f3e 02be 9e6e 693e
00000210: 507c 11be 47a9 253e 8a39 813e 1930 023e
00000220: 7fe7 89be f91b 84be 92f1 13be c4c6 9abe
00000230: 79ef db3e 0c17 3fbe f72e abbd 837c 733e
00000240: 8af2 f2be 010e 653e 390c 8abe 785a 873d
00000250: 052d 093c d92d 06bd 16c8 dfb9 3705 513d
00000260: e5f4 58bd 80b7 67be 1ecc 1abd 4277 c7be
00000270: ba4e 973e 4e0d 1a3d b86c 81bc a4ea f9bd
00000280: d6a3 5b3e 9b8d eebd 7d11 3bbe ac5c 8fbe
00000290: b774 603e f886 3bbe 34c6 7fbe 6b44 bb3d
000002a0: b3d6 18be 993d 473e 0970 b23e c32b 8d3e
000002b0: b6cf 9ebd 6053 153f 8bb9 c5be c350 df3e
000002c0: 9064 8abd 24b9 383e be4a f93d 87ee b4bc
000002d0: 9db3 49be 774a 61be 0c65 89bc b95e 733e
000002e0: 598c 04bd d792 223e 258c bc3b 8cce bf3b
000002f0: 783a babd b92b 953c 17be 8c3e 7cdf e9be
00000300: 658b c43e ce10 de3d f5e2 3b3e 243c fbbe
00000310: 0876 653e 7411 f23e 73d2 62bc fbf2 ed3d
00000320: e352 ce3e 20fd b4be 422a e9bd b4b6 933e
00000330: 6e15 8cbd ad92 893e b31e f43c eef6 29be
00000340: 838e 1b3e afb4 37bd ede9 063f 72af c03e
00000350: aa48 19bd 096c 5dbd 1f08 ecbd 0834 c4bd
00000360: 5fea fbbc 1cb8 c0bd 035c 4c3d 3917 a9be
00000370: 7abb 99bd 94d6 5abd 019d 8cbe db84 863e
00000380: a573 813e 6914 dcbd d80e ea3d 11f1 83be
00000390: be7d 04bf 1d06 3a3d 9a6e 173d 16fa 1f3e
000003a0: 2931 66bd 6f5a af3e e53d ba3e 1608 033f
000003b0: 1fd8 4ebd 78e2 8b3d 8a72 2f3e ff36 bc3c
000003c0: 1dea 44be 0ae8 163e e6c1 17bf 39ac 0dbc
000003d0: feb0 94be 8dc8 00bd de10 433d 51ea 6d3e
000003e0: f834 003e 9662 a1be b6dd e7be 0604 6ebd
000003f0: df96 02bd a35d 8dbe 11b2 933e 847d c3be
-0.20522624 -0.31117168 -0.14433274 -0.08496104 0.22048628 -0.036090083 0.2758592 0.42343602
-0.5976914 0.3420077 0.31463996 0.25188687 -0.24847808 -0.08064537 -0.56581086 -0.10132331
0.25707462 -0.07829272 -0.052639198 0.13721219 -0.029903412 0.3356295 -0.17590162 -0.12337252
-0.5160624 -0.103017494 -0.49313945 -0.026825111 0.376171 0.09371606 0.44584695 0.28853816
-0.24438393 -0.19088006 -0.2506803 -0.12044457 0.1879033 -0.06392623 0.006331824 -0.6752279
0.45218626 0.0806603 -0.07109455 0.26002067 0.03295578 -0.42275414 -0.07081102 0.2237214
-0.11584101 0.072322585 0.15826808 -0.098893724 0.054530326 0.23258457 -0.27332464 -0.22503556
-0.2660318 -0.33835053 0.021780545 -0.28066275 0.40049666 0.12016648 0.14228307 -0.35338134
-0.22991906 -0.071937114 0.1705964 -0.039335646 -0.4921375 0.17175555 -0.103585124 0.1786789
0.36350247 0.19057214 -0.09880853 0.30631235 -0.20114297 -0.16782232 -0.13114554 -0.16071956
0.12138766 -0.2818596 -0.00397494 0.22367628 -0.07043382 -0.4960197 -0.08865886 -0.38994184
-0.27690902 0.47809747 -0.027636364 0.15316036 0.2684447 0.03978913 0.1039938 0.26443818
-0.096261956 0.11247999 0.44513482 -0.0639431 -0.30134186 0.013593724 -0.58885944 0.4815309
-0.049410082 0.84339315 -0.5469943 -0.100820996 0.01253932 -0.49914944 -0.3859003 -0.21120639
-0.31948718 -0.16995077 0.30869663 0.065971695 -0.29132667 0.0062619895 -0.12162235 -0.22224323
0.13259609 -0.09668058 0.097166084 -0.25837585 0.17790978 0.008395325 0.0017227702 0.04478693
0.12017064 -0.3577565 -0.12719129 0.22796103 -0.14207578 0.16177855 0.2523921 0.1271366
-0.2693443 -0.2580259 -0.1444762 -0.3022977 0.4295614 -0.18661135 -0.08358567 0.23777966
-0.47450668 0.22368623 -0.2696245 0.066090524 0.00837255 -0.032758567 -0.0004268295 0.051030364
-0.052967925 -0.22628593 -0.037792318 -0.38958174 0.2955225 0.037610345 -0.015798911 -0.12202957
0.21449217 -0.11648103 -0.1826839 -0.2800039 0.21919523 -0.18313205 -0.24977952 0.09143909
-0.14925651 0.19457091 0.348511 0.2757245 -0.077544615 0.58330345 -0.3861812 0.43616304
-0.06757462 0.18039376 0.12172459 -0.022086395 -0.19697423 -0.22001062 -0.016771816 0.23766603
-0.03236041 0.15876327 0.005754011 0.0058534797 -0.09093183 0.018209325 0.27488777 -0.45678318
0.383876 0.10843049 0.18348296 -0.4906932 0.22408307 0.4727894 -0.01384412 0.116186105
0.40297613 -0.3534937 -0.11385013 0.2885033 -0.06840025 0.26869717 0.029799795 -0.16598102
0.15191083 -0.044850048 0.5270069 0.37633854 -0.037422813 -0.05405811 -0.115249865 -0.09580237
-0.030751405 -0.09410116 0.049892437 -0.3302553 -0.075064614 -0.053427294 -0.27463534 0.26273236
0.25283542 -0.107460804 0.114286125 -0.25769857 -0.5175437 0.045415986 0.036970712 0.15622744
-0.056199227 0.34248683 0.36375347 0.51184213 -0.050499078 0.06830305 0.17133537 0.022975443
-0.19229932 0.14736953 -0.5928024 -0.008647018 -0.29041284 -0.03144126 0.047623508 0.23233916
0.12520206 -0.31520528 -0.4528634 -0.058109306 -0.031882163 -0.27610502 0.2884679 -0.38181698

layer1.bias f4 [20]
00000000: 30c2 28b9 2950 913a 4434 133c b20d 1cb9
00000010: ca69 a1bb aa10 833d ac44 8fb9 fa19 503a
00000020: 1e71 ee3b 25e6 d33b 9bc3 ddb8 2672 9138
00000030: 97e4 d5bb ec70 03b8 2a50 9638 c18d a43a
00000040: 4cbf 5b38 685f a739 b48e 413d bd73 903a
-0.00016094069 0.0011086512 0.008984629 -0.00014882421 -0.004925941 0.06399663 -0.0002732625 0.0007938441
0.007276668 0.0064666444 -0.000105745356 6.9354006e-05 -0.006527494 -3.1338e-05 7.167489e-05 0.0012554453
5.2391828e-05 0.00031923805 0.047255233 0.0011020821

layer2.weight f4 [5, 20]
00000000: 6ac9 9239 f2f1 cdb7 10dc 7a37 9c31 5ab9
00000010: 0903 4ab9 6ca5 90bc f9e6 1b38 af2a 6b38
00000020: d14c 283c 6e16 bfb7 64d8 2abb 052f 2b37
00000030: 7683 9637 8f4f 8437 3913 c3b9 3064 4d36
00000040: a8f0 78b8 7062 3ab8 5e81 febb a30c beb8
00000050: 4fa6 bbba 33ec 7a3d 9d36 34be 088b e63a
00000060: 1d5b 93bd 7e03 143e 6421 b3ba 6936 8fbb
00000070: 7588 293e e05d 8dbc 82f4 c33c 92e9 1cbb
00000080: 6c38 de3a 38ae 2e3e 02a5 34ba 4cb3 6fbd
00000090: d26d 023b 11e3 773a 55c0 45bd 8a72 b13a
000000a0: 9517 2b39 a694 2fb9 586f de3e f812 4cb9
000000b0: 3cf0 04bd 2284 81bc 25d4 f139 004a 7db4
000000c0: 64b3 4dbd 6267 8a3e a7c9 e13c 1832 d2b7
000000d0: 677f 273e 9648 dc3b 89e0 823a 5209 a33d
000000e0: b510 9bb9 a3e2 95b9 00f6 6a3d 8629 15ba
000000f0: 782c 033c 7dd5 92be a558 583f cd5c e93c
00000100: b125 733f 9ab1 a4bd 9852 983b 88d2 dd3e
00000110: 9bb1 cebe add2 a53f 80e9 1c3d a4b4 81bd
00000120: da23 963f 4000 29bc e52f 6c3b f6fd a1be
00000130: 99de 263a 3ebc 573a 94b6 f63e 7454 463b
00000140: a0b0 b3b6 1d37 6039 100e 1538 325f b539
00000150: deff 43b9 f1f9 ba39 1c8e 14ba 5aaf 7ab9
00000160: 2ed8 ac37 ea5d 3ab9 56f9 df37 18cf 6ab8
00000170: 7bb0 f7b8 6c3c 7239 1d4a 9aba 4104 8f39
00000180: b43d ecb8 e097 85b9 e64d 59b8 ace1 ebb8
0.00027997355 -2.4550569e-05 1.49523985e-05 -0.00020808581 -0.00019265352 -0.017657004 3.716999e-05 5.606812e-05
0.010272221 -2.2779419e-05 -0.002606892 1.0203342e-05 1.794261e-05 1.5772674e-05 -0.0003720762 3.0605697e-06
-5.9351936e-05 -4.4437533e-05 -0.0077668866 -9.06226e-05 -0.0014316532 0.061260413 -0.17598958 0.0017589042
-0.07195113 0.14454457 -0.0013666567 -0.0043705 0.1655596 -0.017256677 0.023920301 -0.002394293
0.0016954071 0.17058647 -0.0006891043 -0.0585206 0.0019901884 0.0009456138 -0.048279125 0.0013538164
0.00016316616 -0.00016744676 0.43444324 -0.00019462022 -0.032455668 -0.015810076 0.00046125162 -2.3589382e-07
-0.05021991 0.27032 0.027561976 -2.5057278e-05 0.16357194 0.00672252 0.000998513 0.07960762
-0.00029576352 -0.00028588352 0.05736351 -0.00056900864 0.008006208 -0.28678504 0.8451026 0.028486634
0.9497939 -0.08041687 0.004648518 0.43324685 -0.40369877 1.2954918 0.03830862 -0.063332826
1.1729691 -0.010315001 0.003603929 -0.3163907 0.0006365567 0.00082296494 0.4818617 0.003026274
-5.3551776e-06 0.00021382836 3.5537465e-05 0.00034593936 -0.00018691967 0.00035662905 -0.0005666928 -0.00023907181
2.0604664e-05 -0.00017773328 2.6699778e-05 -5.598282e-05 -0.0001181075 0.00023101427 -0.0011771355 0.00027278255
-0.0001126485 -0.00025480893 -5.180938e-05 -0.00011247708

layer2.bias f4 [5]
00000000: 5c74 6839 ba9a 5cb9 ac07 abbb cc90 febd
00000010: 40d1 c335
0.00022168591 -0.00021038475 -0.0052194204 -0.124299616 1.4589532e-06

layer3.weight f4 [1, 5]
00000000: c897 ad3a 7ce4 9a3d d4d9 93bd 1f23 19bf
00000010: fa1a c238
0.0013244087 0.07563111 -0.07219282 -0.59819216 9.255666e-05
