model/slide_nn_model_weights/trained_on_phasepred_pdps_notrunc/dense_650_20_5_1_weights_6.pth (torch, 55366 bytes, 5 tensors)

layer1.weight f4 [20, 650]
000000 9e 2c 51 bf f9 d4 73 bf 6f 72 3a 3e 5f 54 40 bf
       -0.81708705 -0.95246845 0.18207715 -0.7512874
000010 cb 94 f2 be d6 5b 62 3f 20 82 9f be 23 bc 13 3f
       -0.47379145 0.8842138 -0.31153965 0.5770895
000020 70 1a 77 3f 74 cc 5b bf 37 47 9f bd 27 c7 26 bf
       0.96524715 -0.85858846 -0.07777255 -0.6514763
000030 a1 6c b2 be 7d 18 de 3e c3 65 1c bf 03 ea 61 3f
       -0.34848502 0.43378058 -0.61092776 0.882477
000040 bf 4e 3e be bd 0a 50 3f a8 4e 35 3f f5 84 ea 3e
       -0.18584727 0.81266385 0.70823145 0.45804563
000050 2b 84 b3 be 25 54 68 3d 39 aa 41 bf 10 c7 bf bd
       -0.35061774 0.05672087 -0.75650364 -0.0936414
000060 fe 41 ff 3e aa 59 1e 3f 5e 80 f1 bf fe 49 43 3e
       0.49855036 0.61855567 -1.88673 0.19071195
000070 03 68 90 bd 61 74 ce be 7d a0 25 3f 06 9c ce bf
       -0.07051089 -0.40323165 0.6469801 -1.6141365
000080 50 58 98 3e fd 94 07 3f 97 89 4c be f4 6d 3d 3f
       0.29754877 0.52961713 -0.19974361 0.739959
000090 25 39 e5 be 62 93 d1 bf 2c 9d a9 bf 85 bb 1a bf
       -0.4477016 -1.6373103 -1.325109 -0.6044238
0000a0 55 8d 4c bf c7 95 b8 3f 9d 27 60 bf e3 10 ce 3d
       -0.79903156 1.4420708 -0.87560445 0.10061815
0000b0 3f 7c c8 3f 06 29 12 3f 9d d9 d0 3d d5 99 44 3d
       1.5662917 0.57093847 0.101977564 0.04799827
0000c0 8a cd 56 3f 7a 37 63 3f c3 97 02 40 06 6c f6 be
       0.8390738 0.88756526 2.0405128 -0.4812929
0000d0 d8 44 d0 3e 3a 59 3e be 7e f4 ab bf 48 d8 ad be
       0.40677524 -0.18588725 -1.3433988 -0.33954072
0000e0 a1 00 64 be f1 13 a2 bf 0d d5 0d 3e a9 2a 81 bd
       -0.22265865 -1.2662336 0.13850804 -0.06306965
0000f0 7b a7 15 3f ec 05 04 3f 57 eb 27 3d 8e ff fa be
       0.5845868 0.51571536 0.040995922 -0.49023098
000100 d6 ef 9c 3f 94 d9 01 bf cb e4 e9 3f 25 02 b8 be
       1.2260692 -0.5072262 1.8272947 -0.35939136
000110 06 58 53 3f e4 59 a1 be e0 bb 64 3f a5 18 b2 bf
       0.8255619 -0.31513894 0.89349174 -1.3913771
000120 c9 c4 74 3e c0 76 f1 3e c0 d5 80 bf b8 07 33 3f
       0.23903193 0.47160912 -1.0065231 0.6993365
000130 6a 5b fa 3e 42 df 91 be 2a 75 81 3f 65 d7 03 3e
       0.48897868 -0.28490645 1.0113881 0.12875135
000140 87 04 0d bf 17 b4 8c 3e 61 84 b4 bf 6d bd 69 bf
       -0.55085033 0.27481148 -1.4102899 -0.91304666
000150 68 fb b5 bf 0f 50 20 3f d4 da 1e 3f 1b b9 a3 be
       -1.4217348 0.6262216 0.62052655 -0.31977162
000160 96 1d 3c be de b6 73 bf 96 23 c1 3e 24 7e 72 3f
       -0.18370661 -0.9520091 0.37722462 0.94723725
000170 ca 97 7d 3f 58 bb 00 40 77 79 d6 3f e5 33 8a 3d
       0.99059737 2.0114346 1.6755818 0.06748179
000180 4d 2d 48 bd 9a 4c 96 3e 83 b0 d2 3e 34 0a f3 bf
       -0.048871327 0.29355317 0.41150293 -1.8987489
000190 62 ad 68 bf 07 1a 4c 3f c7 61 f1 bf 58 a7 53 bf
       -0.9088956 0.79727215 -1.8857964 -0.8267722
0001a0 90 d1 db be 22 d9 3b 3f 5e fe 8a 3d 8a 30 94 bf
       -0.4293332 0.73378193 0.06786798 -1.1577313
0001b0 0d 73 fa be 1c a5 f4 bf e9 81 13 3f 6b 34 d9 bf
       -0.48915902 -1.9112887 0.576201 -1.6969122
0001c0 8f 44 ab bd 2d c0 a3 bf 54 0c 5d 3f 86 50 f1 be
       -0.08362686 -1.2793022 0.86346936 -0.47131747
0001d0 35 84 25 3f 7f 9f c1 be 39 22 50 3f 39 2d bc 3e
       0.64654857 -0.37816998 0.8130222 0.36753252
0001e0 7b 51 07 bd 9e cd 39 bf ab 77 41 be d3 bd 01 3f
       -0.03303669 -0.7257937 -0.18893306 0.50680274
0001f0 15 dd 80 be 25 a1 82 3f 51 bb 95 3e 67 22 92 3f
       -0.25168672 1.0205427 0.29244474 1.1416749
000200 50 33 1c 3f 10 f0 52 bf e0 3a a5 be 20 84 a6 be
       0.61015797 -0.82397556 -0.3227148 -0.32522678
000210 99 a2 f4 be ee d9 58 be 6d 6c 63 be d5 a7 d3 be
       -0.47780302 -0.21176884 -0.2220933 -0.41338983
000220 be 87 71 3f dd 14 45 3e 64 19 62 3f 8e c3 22 3f
       0.9434775 0.1924624 0.88319993 0.6357964
000230 e4 90 7a bf 91 a1 b1 3d 6d 89 47 bf 9a b8 fc be
       -0.97877336 0.086733945 -0.7794407 -0.4935959
000240 c8 0c 55 3c b7 5d ae bf dc e8 58 3f ff 5a a3 bf
       0.013003536 -1.362235 0.84730315 -1.2762145
000250 ef 94 d0 be e4 01 24 3f 12 e1 14 3f 2b 0a 89 3f
       -0.40738627 0.64065385 0.5815593 1.0706228
000260 d5 7f b6 3e 13 39 f7 bd 66 7a a5 3e 56 a9 40 3e
       0.35644403 -0.12071433 0.32319945 0.18814597
000270 1d 8d 6a be 54 4a 3c 3e 1c fa c5 be 91 7d a1 be
       -0.22905393 0.18387729 -0.3866738 -0.31541112
000280 97 1d 56 be c4 d0 2f bf 71 54 e9 bf cd 4b cf be
       -0.20909725 -0.68677926 -1.8228894 -0.4048752
000290 f7 68 85 3f d1 02 be bf 8f e3 92 3f 23 e9 a7 3f
       1.0422658 -1.484461 1.1475695 1.3118023
0002a0 db 88 74 3f b5 40 48 bf 1a 8c d0 bd b5 db 35 3f
       0.95521325 -0.78223735 -0.10182972 0.7103837
0002b0 85 47 85 bf f5 3c c6 bd 24 94 6f be ca bf 76 3f
       -1.0412451 -0.096795954 -0.23396355 0.96386397
0002c0 a3 21 aa 3f 99 d6 bc 3f 98 43 92 be ca 0f 80 bd
       1.3291515 1.475299 -0.28567195 -0.062530115
0002d0 91 7b 8e be 8d 97 b8 3e 88 03 3c bf d2 51 59 3f
       -0.2782865 0.36053124 -0.7344289 0.8489047
0002e0 a3 e0 ec bf 71 4b f4 be d5 ab 5c be 34 2b dd bf
       -1.8506054 -0.47713807 -0.21549924 -1.727881
0002f0 f9 71 ab 3f 32 fe c5 bc dd 49 7b bf 0e 81 5c bf
       1.3394157 -0.024169061 -0.9815958 -0.8613442
000300 8c dd 40 bf c5 c9 54 3e f5 bd 91 bf 39 93 a1 3f
       -0.75338054 0.20780094 -1.1386095 1.2623054
000310 e2 d1 05 bf c1 35 db 3e 6e 77 a8 bd a6 ef 49 3e
       -0.5227338 0.42814448 -0.082259044 0.19720325
000320 5e 90 03 be 14 ba 44 be 50 18 cc 3f c2 a9 95 3f
       -0.1284804 -0.19211608 1.594492 1.1692431
000330 6e 25 da bf 46 88 60 3f 64 52 49 3d 63 1c 30 be
       -1.7042673 0.87707937 0.04915084 -0.17198329
000340 a2 df 1b 40 db bb 98 3f 4d 0d cf 3f 0f e5 8f bf
       2.4355245 1.1932329 1.6175934 -1.1241778
000350 29 cb de be 1b bc d8 3f ff 67 3e 3f 33 d4 e0 be
       -0.43514374 1.6932405 0.74377435 -0.43911895
000360 a6 99 6d 3f f2 b0 89 be 67 b7 9a 3f ef 31 f6 bf
       0.92812574 -0.2689281 1.208722 -1.9233989
000370 b9 f8 b9 3d 74 3c bd 3f 0a 91 6e bf 40 b5 95 bf
       0.09080643 1.4784074 -0.9319006 -1.1695938
000380 bd 5a 6d bd ae 9e 82 40 65 ea c5 3e b4 9a bc 3f
       -0.057947863 4.08187 0.3865539 1.4734712
000390 b3 36 71 3e af 84 b2 3f b5 5d c2 3f c8 06 1e 3f
       0.23556022 1.3946742 1.5184847 0.617291
0003a0 de ad f5 be a4 b6 82 3a c4 9c 62 bf 0d d7 0e bf
       -0.47984213 0.0009972644 -0.88520455 -0.5579689
0003b0 17 ab 9e 3f f0 9c be bf ba 8c ca 3f 03 c4 01 40
       1.2395962 -1.4891644 1.5824196 2.0275886
0003c0 79 44 c8 3e a3 85 63 bc a6 12 05 bf 06 8d 93 bf
       0.3911474 -0.013886842 -0.5198158 -1.1527412
0003d0 d8 10 23 3e ca e8 96 3f f3 5b 07 3e 1a 06 bc 3f
       0.15924394 1.1789792 0.1321867 1.4689362
0003e0 28 ee be 3f d7 cb cd bf 8d ff 0f 3f 16 29 13 3e
       1.491643 -1.6077832 0.56249315 0.14371142
0003f0 47 e8 fd 3f ca 8b 63 3f 0e e2 b2 be 6a 95 d2 bd
       1.983651 0.88885176 -0.3493809 -0.10282405

layer1.bias f4 [20]
000000 f3 34 31 3a d7 b5 92 bb 6a 83 14 39 fd cc 12 3a
       0.0006759904 -0.0044772434 0.00014163335 0.00056000036
000010 74 40 9b b9 50 c5 64 ba 14 2b 9d 39 a3 9d c4 3a
       -0.00029611925 -0.00087269116 0.0002997747 0.0015000593
000020 b0 22 bf b8 40 9c 65 ba 83 2d 32 ba a6 5f 5f ba
       -9.114051e-05 -0.000875894 -0.0006796943 -0.00085210276
000030 54 2a f3 b9 16 2c c5 3a b2 c1 94 b8 30 9a 78 3a
       -0.0004638011 0.0015043046 -7.0932685e-05 0.0009483425
000040 2a 0e 1f b8 f6 e2 24 3b d1 80 62 bc 26 57 70 ba
       -3.7921745e-05 0.0025159693 -0.013824658 -0.00091682596

layer2.weight f4 [5, 20]
000000 91 c5 af 39 80 af 18 39 76 5c ae b8 0a 65 55 39
       0.000335258 0.00014561228 -8.314189e-05 0.00020350903
000010 c6 ca 13 b9 59 3d 82 38 88 b3 b7 b7 d4 d6 03 b9
       -0.00014094551 6.21031e-05 -2.18989e-05 -0.00012573163
000020 28 24 ff 39 fc 13 72 b9 49 ac 5f b9 e9 8b fb 39
       0.0004866433 -0.00023086363 -0.00021331118 0.00047978692
000030 82 f2 cd 38 f2 a7 1b 3a ee c9 6f b9 8a 68 34 39
       9.820332e-05 0.00059378066 -0.00022868041 0.00017205082
000040 62 df ec b9 3e 3a 7e b8 f8 8c 2e 39 c1 35 b2 b9
       -0.0004517986 -6.061256e-05 0.00016646448 -0.00033990855
000050 2e 39 d1 39 a8 a7 6b b7 fa 98 48 38 a0 52 04 b7
       0.0003990619 -1.4046127e-05 4.7826186e-05 -7.887051e-06
000060 63 ad 73 39 60 3a cf b8 45 5b bb 38 d1 e9 86 39
       0.00023238877 -9.8814024e-05 8.933855e-05 0.00025732678
000070 de c5 69 b9 f6 28 1c 39 76 a6 ee 39 b6 6f ce 39
       -0.00022294323 0.00014892578 0.0004551892 0.00039374613
000080 27 24 cc b9 36 27 2d ba 3c 27 5d 3a 4c 43 b6 b9
       -0.00038936848 -0.0006605269 0.00084363273 -0.00034763885
000090 32 c3 56 39 36 ee 58 38 a6 ff af 38 34 c7 65 b8
       0.00020481346 5.1720264e-05 8.3922685e-05 -5.4783377e-05
0000a0 95 e1 9d 38 01 ff 8d b8 68 7b 98 38 ac 17 d7 39
       7.528361e-05 -6.770902e-05 7.270911e-05 0.00041025633
0000b0 b6 cb b7 b9 90 ba 09 ba 32 42 34 b7 f0 4f 26 37
       -0.00035056256 -0.0005253935 -1.0744248e-05 9.912983e-06
0000c0 0f da b0 b9 a5 c1 39 3a aa 13 10 b9 c4 55 3a 39
       -0.00033731802 0.0007086045 -0.00013740236 0.00017770292
0000d0 45 cf 2a b9 1c 3a ac b9 72 03 cd b9 d0 64 04 b7
       -0.00016289677 -0.0003284969 -0.00039103214 -7.891285e-06
0000e0 4e 59 03 b8 e4 ed 8a 38 86 63 d6 38 e6 f6 88 39
       -3.1316005e-05 6.6246634e-05 0.00010222853 0.00026123895
0000f0 50 3d 84 bf a2 09 54 bd 8f 52 c6 bc f1 e1 a3 be
       -1.0331211 -0.051767 -0.024209289 -0.32008317
000100 9d ca 92 3b f9 b7 11 3c 6a 7b 8c bc f5 b8 8a bf
       0.00447972 0.00889396 -0.017148692 -1.0837694
000110 e4 01 b1 3b 89 ae 82 3d a7 50 8d bb 10 d2 02 3d
       0.0054018367 0.06380946 -0.004312593 0.031938612
000120 e6 48 98 bf be 2f 51 be 6c 94 01 3c 56 a1 79 be
       -1.1897247 -0.20428368 0.007908922 -0.24377951
000130 82 a6 cd 3a c3 ce dd 3d 4c 6a d3 3e 7c 16 37 bf
       0.0015689882 0.10830452 0.41292036 -0.71518683
000140 f8 56 32 b7 3f c2 c6 b8 c6 c8 19 38 fb db b3 38
       -1.0629876e-05 -9.477557e-05 3.6665027e-05 8.57636e-05
000150 8b a5 64 b9 58 f7 65 b9 02 45 8a 38 92 6d 81 b8
       -0.00021805444 -0.00021931285 6.5932065e-05 -6.1716084e-05
000160 a9 ec 19 38 67 d4 76 3a 01 cd de 39 2c 0f 2c 3a
       3.669845e-05 0.00094158057 0.0004249588 0.000656354
000170 d0 17 4c b7 07 d6 61 39 1f ad 49 39 dd 72 2b 39
       -1.2164892e-05 0.00021537404 0.00019233346 0.0001635062
000180 44 6e 9a b7 c0 0f a7 b5 cb 9a 1b 38 b1 55 03 39
       -1.8409577e-05 -1.2447053e-06 3.7099042e-05 0.00012525056

layer2.bias f4 [5]
000000 a0 f0 4f 37 44 12 c3 b7 c0 b5 f1 36 b5 6a 0a 3d
       1.2394186e-05 -2.3254317e-05 7.203518e-06 0.03379317
000010 56 12 a3 b7
       -1.9439653e-05

layer3.weight f4 [1, 5]
000000 c5 80 92 b8 12 61 9b b7 c2 7d 58 b7 1f 50 7a 3f
       -6.985808e-05 -1.8522642e-05 -1.29038835e-05 0.97778505
000010 c8 25 4b b6
       -3.0271349e-06
