model/slide_nn_model_weights/trained_on_phasepred_pdps_notrunc/dense_650_20_5_1_weights_8.pth (torch, 55366 bytes, 5 tensors)

layer1.weight f4 [20, 650]
0	0xbce098aa	-0.027416546
1	0x3c899270	0.01679346
2	0xbe7fd675	-0.24984153
3	0x3f2c4af2	0.6730186
4	0xbd8039ad	-0.06261001
5	0xbe27838d	-0.16358776
6	0x3d3f9493	0.04677255
7	0xbc4f8ce8	-0.012667872
8	0xbe52c4c0	-0.20582867
9	0x3d8a163c	0.06742522
10	0xbdd35436	-0.10318796
11	0xbe9665a4	-0.2937442
12	0x3e136517	0.14394031
13	0xbe0ebedd	-0.13939996
14	0x3e2e0ff2	0.1699827
15	0xbdf95649	-0.12174661
16	0xbead3040	-0.33825874
17	0xbe005fd2	-0.12536553
18	0xbd90b697	-0.07066076
19	0x3e9d91c9	0.30775288
20	0xbe728369	-0.23682941
21	0xbe3c4f93	-0.1838973
22	0x3e4e77e2	0.20162919
23	0xbcd58c7c	-0.026067965
24	0xbeb306d7	-0.34966156
25	0xbe2be69b	-0.16787188
26	0x3c742681	0.014901758
27	0x3e62b06d	0.22137614
28	0xbeccf0e2	-0.4002753
29	0x3e969d26	0.2941677
30	0xbe4e1836	-0.20126423
31	0xbe855fe6	-0.26049727
32	0xbd964613	-0.07337584
33	0x3e071aaf	0.13193773
34	0x3ec41614	0.38298094
35	0x3d2c7069	0.04209939
36	0xbec95504	-0.39322674
37	0xbd9cc213	-0.07654204
38	0x3e874d00	0.26425934
39	0x3d1fe55d	0.039037097
40	0x3dbb8ad5	0.091573395
41	0xbcd974fa	-0.026545037
42	0x3ef71246	0.4825613
43	0xbcbbee21	-0.022940697
44	0x3ea1aadf	0.31575677
45	0xbe7b7d12	-0.2455943
46	0x3ec8d099	0.39221647
47	0xbe58ad5f	-0.21159886
48	0x3bc00910	0.0058604553
49	0x3efa50b0	0.48889685
50	0x3d2062bf	0.03915667
51	0xbec4af79	-0.38415125
52	0xbecbc3c5	-0.39797798
53	0x3deb76eb	0.11497291
54	0x3e6185c2	0.22023681
55	0x3dc66a33	0.09688225
56	0x3aa0b013	0.0012259505
57	0xbe4286ee	-0.18996784
58	0x3e44507c	0.19171327
59	0x3e78d5fd	0.2430038
60	0x3bf9e5a1	0.007626251
61	0xbdeb31e4	-0.11484125
62	0x3e736949	0.23770632
63	0xbe0a8de7	-0.13530694
64	0x3d0342f9	0.032046292
65	0x3d6db558	0.05803427
66	0xbf1c0754	-0.6094868
67	0xbec7f8b0	-0.3905692
68	0xbe8ccbc4	-0.2749921
69	0xbe6e4a6c	-0.23270577
70	0x3dee89f4	0.11647406
71	0xbd0884f8	-0.033329934
72	0x3e17e698	0.14834058
73	0xbdb269dc	-0.08711597
74	0x3e49756d	0.196737
75	0xbf338d13	-0.7013714
76	0x3c1fa8d4	0.009744842
77	0xbf1d348d	-0.6140831
78	0x3d9be267	0.07611542
79	0xbe8bee2c	-0.27330148
80	0xbe405a8e	-0.18784544
81	0xbde7e712	-0.1132337
82	0x3e893d43	0.2680455
83	0x3e0751cf	0.13214801
84	0x3f1de16c	0.6167209
85	0x3f0f2e21	0.5592976
86	0xbeed5b7b	-0.46358857
87	0x3e923a1b	0.28559956
88	0xbefbbf7e	-0.49169534
89	0xbe10a8fc	-0.14126962
90	0xbe5bab0b	-0.21451966
91	0x3d86f61d	0.06589911
92	0xbdb1c184	-0.08679488
93	0xbe810a0f	-0.25202987
94	0x3ec03a2d	0.37544385
95	0x3ee2fa0b	0.44331393
96	0x3e6c9b73	0.23106174
97	0x3e976201	0.2956696
98	0xbf4c95e6	-0.79916227
99	0x3eb33307	0.34999868
100	0xbe6be2b0	-0.23035693
101	0xbeb53dd2	-0.35398728
102	0x3dc96175	0.098330416
103	0x3e11fa6e	0.14255688
104	0x3e084914	0.13309127
105	0x3ee99bc2	0.45626646
106	0x3e0cb534	0.13740999
107	0xbe868448	-0.26272798
108	0x3eb4cdd0	0.35313272
109	0x3e0de00f	0.13855003
110	0xbbee45f6	-0.0072715236
111	0xbea5d058	-0.32385516
112	0xbe27d408	-0.16389477
113	0xbe1a6ef2	-0.15081385
114	0x3e979f63	0.2961379
115	0xbe45cef1	-0.19317223
116	0x3cf1b6f0	0.029506177
117	0xbd59b6af	-0.053152736
118	0xbe1615c9	-0.14656748
119	0xbdcf2aa6	-0.101155564
120	0x3e46f879	0.19430722
121	0xbe1177b6	-0.14205822
122	0xbf01a849	-0.5064741
123	0xbe35a38b	-0.17738168
124	0x3ed74d46	0.42051142
125	0x3edd7364	0.432521
126	0xbd185275	-0.037188012
127	0x3b6f7ca5	0.00365428
128	0x3e96ed5f	0.29477975
129	0x3df879ad	0.12132583
130	0xbf05a50a	-0.52204955
131	0x3f0a2d13	0.5397503
132	0x3e87f72a	0.2655576
133	0xbf10009a	-0.5625092
134	0xbce73ca4	-0.028227158
135	0x3e9dc1ed	0.30812016
136	0x3d00753d	0.031361807
137	0xbe96ae13	-0.29429683
138	0x3e9028ca	0.2815612
139	0x3ee25fbe	0.4421367
140	0x3edb1711	0.42791036
141	0x3ee88708	0.4541552
142	0xbf0644b8	-0.52448606
143	0xbefe7c53	-0.49704227
144	0xbc2c69e0	-0.010523289
145	0x3ea37a65	0.31929317
146	0xbd5dbfec	-0.05413811
147	0xbd83a442	-0.06427814
148	0xbd59e487	-0.053196456
149	0x3d8e43d3	0.0694653
150	0xbe53b5cd	-0.2067482
151	0xbe1665a9	-0.14687218
152	0x3c80a21c	0.0157023
153	0x3dff8c3f	0.12477922
154	0x3e3c0cc8	0.1836425
155	0xbeb09b00	-0.34493256
156	0x3ee11911	0.43964437
157	0x3b72bd00	0.0037038922
158	0x3e34542a	0.17610231
159	0xbe70edf4	-0.23528272
160	0x3eab881f	0.3350229
161	0x3f1d4bc3	0.6144373
162	0x3d89d3d9	0.0672986
163	0x3e69139b	0.22761385
164	0xbee032b5	-0.43788686
165	0x3e6e995a	0.23300686
166	0x3e129b3f	0.14317034
167	0xbd6b5813	-0.05745704
168	0xbd8133d9	-0.06308717
169	0x3eb396e3	0.35076055
170	0x3e908112	0.28223473
171	0xbed28225	-0.41114917
172	0x3caf28c1	0.021381738
173	0xbe33b20f	-0.17548393
174	0xbe59f90e	-0.21286413
175	0xbe2afcf0	-0.1669805
176	0xbd584e51	-0.052809063
177	0xbee03c7e	-0.43796152
178	0x3d6ab127	0.057297852
179	0x3f20299e	0.625635
180	0xbcb27a27	-0.021786762
181	0xbcb8dd3e	-0.022566434
182	0xbdd6f57a	-0.1049604
183	0xbcdf4a6e	-0.02725717
184	0x3e71c8bd	0.23611732
185	0xbc9aed32	-0.018911932
186	0x3e80e525	0.25174823
187	0x3e4c10a1	0.19928218
188	0x3d985e04	0.07439807
189	0xbe25ebb2	-0.16203192
190	0x3ea7d744	0.32781422
191	0xbf076d69	-0.5290132
192	0x3e61dea8	0.22057593
193	0xbf1a0952	-0.6017047
194	0xbdb063ef	-0.08612811
195	0xbee2fd80	-0.4433403
196	0x3e7e7d4b	0.24852483
197	0x3d964e10	0.07339108
198	0xbf0962fc	-0.53666663
199	0xbe1b6a22	-0.15177205
200	0x3dfecc38	0.124412954
201	0xbefb4800	-0.4907837
202	0xbdb1dd04	-0.086847335
203	0xbeb84545	-0.35990348
204	0x3dd878cf	0.105699174
205	0xbe578827	-0.21048032
206	0xbf001f53	-0.50047797
207	0xbc9dc33e	-0.019258138
208	0xbecffdbe	-0.40623277
209	0xbed99484	-0.4249612
210	0x3bc80c58	0.006104987
211	0x3e2e4904	0.17020041
212	0x3e32bbc0	0.17454433
213	0x3cc7ed0e	0.024405029
214	0xbe0f8e9b	-0.14019243
215	0x3e5b03ea	0.21388212
216	0xbf1096e1	-0.5648022
217	0xbb58de5e	-0.0033091526
218	0xbe4e3f5f	-0.20141362
219	0x3e85cbb5	0.2613198
220	0x3e5c542d	0.21516486
221	0xbe980211	-0.29689077
222	0xbde50b7b	-0.1118383
223	0x3d720748	0.059088975
224	0x3e62e4f0	0.22157645
225	0xbed852bc	-0.4225062
226	0x3ec361b6	0.38160485
227	0xbdac7988	-0.08421618
228	0xbe72a57b	-0.23695938
229	0xbe684938	-0.2268418
230	0x3da1eed8	0.07906884
231	0xbe9a4b5c	-0.3013562
232	0xbe610b46	-0.21976957
233	0x3ecbcfd8	0.3980701
234	0x3cdfa282	0.02729917
235	0x3dfc2f52	0.12313713
236	0xbe95c7f3	-0.29254112
237	0xbd0d08b2	-0.03443212
238	0xbeef98bb	-0.46796212
239	0xbdbeb120	-0.09311128
240	0x3cbb2f3e	0.022849675
241	0xbebcec13	-0.3689886
242	0x3e1c44f4	0.15260679
243	0x3db20365	0.08692054
244	0xbedb14fe	-0.42789453
245	0xbe5d873c	-0.21633619
246	0xbdc7ef62	-0.097624555
247	0xbeca1dde	-0.39475912
248	0xbe7f8d23	-0.24956183
249	0xbe5bb458	-0.21455514
250	0xbe97d74f	-0.29656455
251	0x3e9f4535	0.31107488
252	0x3e8b5478	0.27212882
253	0xbec62318	-0.3869865
254	0x3e9cfbd5	0.30660883
255	0x3c6b06bd	0.014344868

layer1.bias f4 [20]
0	0x3983d768	0.00025146757
1	0x3a604ee3	0.0008556677
2	0xb821e679	-3.8600036e-05
3	0xbbb4e89b	-0.005520893
4	0xb8c97466	-9.606108e-05
5	0x3966b8cc	0.00022003351
6	0x3bcde97e	0.006283938
7	0x38426188	4.6344037e-05
8	0x3a0a1d33	0.0005268633
9	0xbb9a7e81	-0.0047147875
10	0xba10ed9b	-0.000552857
11	0xbd7bc649	-0.061468396
12	0xb9e79078	-0.0004416739
13	0x3aec57c2	0.0018031525
14	0xbc947638	-0.018122777
15	0xb927b52a	-0.0001599385
16	0x387ab050	5.976885e-05
17	0xb699e334	-4.5862053e-06
18	0xb92f2d14	-0.00016706093
19	0x3a3bb9b8	0.0007161158

layer2.weight f4 [5, 20]
0	0xb9b9c34a	-0.0003543145
1	0xb8d8ed6c	-0.00010343906
2	0x361f02ad	2.3694404e-06
3	0x3a162562	0.00057276164
4	0xb77abbec	-1.4944915e-05
5	0x36df7360	6.6593493e-06
6	0xb8e8ae70	-0.000110951136
7	0x38083000	3.246963e-05
8	0xb9d66411	-0.00040891816
9	0xb6c1e856	-5.7788957e-06
10	0x3940013d	0.00018311008
11	0x37ba7530	2.2227498e-05
12	0xb93b1bbf	-0.00017844046
13	0x38887621	6.5069886e-05
14	0x36e5c320	6.8474474e-06
15	0x392c9800	0.00016459823
16	0x38942543	7.0641305e-05
17	0xb944cc94	-0.00018768228
18	0xb8e021fa	-0.00010687481
19	0xb98602c0	-0.0002556052
20	0x39819412	0.00024715118
21	0x388a7514	6.60216e-05
22	0x37c3f11d	2.3358089e-05
23	0xba0b9f31	-0.00053261506
24	0x37565b42	1.2776642e-05
25	0x3905f916	0.0001277666
26	0x378323b2	1.5633039e-05
27	0xb936432e	-0.00017381899
28	0x397a55ee	0.00023873869
29	0xb8b365a0	-8.554314e-05
30	0xb8dc5fac	-0.00010508238
31	0xb7fa806d	-2.9862125e-05
32	0x3909e272	0.00013149696
33	0xb8821008	-6.201869e-05
34	0xb9c8fc24	-0.00038334832
35	0x396bfdee	0.00022505943
36	0x39123e76	0.00013946914
37	0x392adbaa	0.00016294295
38	0x37b851da	2.1972624e-05
39	0x38d51b6c	0.00010161739
40	0xba26e4d5	-0.0006366496
41	0xbc658f01	-0.014011146
42	0x3bbf681b	0.0058412678
43	0x3d747097	0.059677687
44	0x3b6607e4	0.0035099918
45	0x3d494fbb	0.049148303
46	0x3fcd4331	1.603613
47	0xbc09b586	-0.008405095
48	0xbba39b14	-0.004992852
49	0xbc854ccd	-0.016271973
50	0xba183605	-0.00058063894
51	0xbe464aa3	-0.19364409
52	0xbc6a2c0e	-0.01429273
53	0x3f82b88d	1.021257
54	0xbe63a6e8	-0.22231638
55	0xbc7b3aed	-0.015333873
56	0x3a5fae0c	0.000853271
57	0xbc116bfc	-0.008875843
58	0x3c605151	0.013691262
59	0x3d9525bb	0.07282587
60	0xbc07c632	-0.008287
61	0xbc3f2a87	-0.011667854
62	0x3b131c17	0.0022447163
63	0x3d57c296	0.052675806
64	0x3aa6afc5	0.0012717178
65	0x3d36288d	0.044472266
66	0x3fa5f4b2	1.29653
67	0xbc092abc	-0.008372005
68	0xbb4c78b3	-0.0031199872
69	0xbc45df2b	-0.012077133
70	0xbb68eb3b	-0.00355406
71	0xbee570c8	-0.44812608
72	0xbc5b1096	-0.013370654
73	0x3f76b89c	0.9637544
74	0xbe4ad7a5	-0.19808824
75	0xbb8a8a10	-0.004227884
76	0x3a429d08	0.0007423912
77	0xbbfd84b2	-0.007736766
78	0x3c37deaa	0.011222521
79	0x3d6b7bbc	0.05749105
80	0xb9b65bfd	-0.00034782282
81	0xb876cadc	-5.8839898e-05
82	0xb6ccf9cb	-6.1087535e-06
83	0x3b8904ed	0.0041814954
84	0xb80e619e	-3.394635e-05
85	0x39352d75	0.00017278439
86	0x3a2332df	0.0006225537
87	0xb8ffa926	-0.00012190854
88	0x36c011a8	5.7241014e-06
89	0xbc8ec7f7	-0.017429335
90	0xba1412b3	-0.00056485384
91	0x3d70f9ca	0.058831967
92	0xb8bd9774	-9.0404326e-05
93	0x39fe5f52	0.00048517674
94	0xba434f43	-0.00074504706
95	0xb9a9c742	-0.0003238265
96	0x391ee2b9	0.00015152515
97	0xb8bded67	-9.056442e-05
98	0x36c1274e	5.756424e-06
99	0xb9ff36ff	-0.00048678365

layer2.bias f4 [5]
0	0xb85a347c	-5.202413e-05
1	0xb82581b8	-3.9459876e-05
2	0xbe18d4a8	-0.14924872
3	0x3abed6d6	0.0014559876
4	0x3a773c54	0.0009431292

layer3.weight f4 [1, 5]
0	0x35dc2d9b	1.640455e-06
1	0xb7a43fee	-1.9580093e-05
2	0xbec6e1df	-0.388442
3	0xbe8892f5	-0.2667462
4	0xbc184267	-0.009293175
