model/slide_nn_model_weights/trained_on_psp_hunter_notruncated/dense_650_20_5_1_weights_0.pth (torch, 55366 bytes, 5 tensors)

layer1.weight f4 [20, 650]
0	0x38a2777e	7.747019e-05
1	0x39a24993	0.00030953865
2	0xb99cfaac	-0.00029941404
3	0xb9996cf3	-0.00029263608
4	0x3a52b6da	0.0008038111
5	0x3975bde0	0.00023435755
6	0x39269f0c	0.00015890243
7	0xb9548b35	-0.00020269754
8	0xb9a74447	-0.00031903593
9	0x39953208	0.0002845677
10	0x39d30fd1	0.0004025684
11	0xb9aa830a	-0.00032522558
12	0xba771aec	-0.0009426314
13	0xb90be02c	-0.00013339584
14	0x37b754a0	2.1854707e-05
15	0x390a849e	0.0001321011
16	0xb9a9649c	-0.00032309152
17	0x3938b8aa	0.000176164
18	0x37dc0580	2.6228605e-05
19	0x394eddca	0.00019728314
20	0x38957c30	7.1280054e-05
21	0xb99a3730	-0.00029414287
22	0xb91c72a8	-0.00014920032
23	0xb893e3ec	-7.05196e-05
24	0x396a723e	0.00022358538
25	0xb909d2b6	-0.00013143834
26	0xb9a9b62a	-0.00032369915
27	0xb9409078	-0.00018364366
28	0xb9afa0ba	-0.00033498352
29	0xba104e89	-0.0005504867
30	0x3925a13c	0.0001579569
31	0xba5a62ac	-0.00083307433
32	0xb96c70e0	-0.00022548763
33	0xb97d76a9	-0.00024172165
34	0xb931401c	-0.00016903918
35	0x39dd6eeb	0.00042235045
36	0x3937018c	0.00017452816
37	0x3842eb38	4.647227e-05
38	0x397f9b61	0.00024376578
39	0x3a04e034	0.0005068809
40	0xb93e9548	-0.00018175424
41	0x39d51d7f	0.00040648502
42	0xb92e3eb2	-0.00016617289
43	0x38a40300	7.820688e-05
44	0x389e236c	7.540625e-05
45	0x39866749	0.00025635425
46	0x380de950	3.383431e-05
47	0x3787c640	1.6185571e-05
48	0xb9821bb1	-0.00024816164
49	0xb9537ac8	-0.00020168268
50	0x39b7f4f5	0.00035086987
51	0x38f7a286	0.0001180815
52	0x393c02ac	0.00017930072
53	0x398bd11c	0.00026667945
54	0xba18519a	-0.00058104994
55	0xb9560525	-0.00020410547
56	0xba15b67f	-0.0005711093
57	0x3880ed1c	6.147681e-05
58	0x3864e916	5.4576514e-05
59	0xba1fde1a	-0.00060984644
60	0xb991d3f1	-0.00027814464
61	0xb9e81675	-0.0004426722
62	0x38c469c6	9.36571e-05
63	0x3988ee9e	0.00026117725
64	0x392f15ae	0.00016697377
65	0xb9221bdd	-0.00015459904
66	0xb90632b4	-0.00012798124
67	0xb9139b64	-0.000140769
68	0xb98d4894	-0.0002694769
69	0x38b186c0	8.465117e-05
70	0x38885bf8	6.502116e-05
71	0xb8fd7014	-0.00012084856
72	0x3a381827	0.0007022642
73	0xba15f8ea	-0.000572099
74	0xb9731f25	-0.00023185888
75	0x3979f9ec	0.00023839594
76	0x39f0dd77	0.0004594137
77	0x381ad7f8	3.6917598e-05
78	0x3a64b346	0.00087242236
79	0x38eac970	0.0001119551
80	0x36f5c864	7.3248975e-06
81	0xb7614430	-1.3426921e-05
82	0x3a326fb6	0.00068068074
83	0xb9c22b68	-0.00037034904
84	0x393172a5	0.00016922744
85	0xb983118a	-0.00024999335
86	0x370ada70	8.2763e-06
87	0xb8bab139	-8.9021814e-05
88	0xb7ff88a0	-3.046199e-05
89	0xb925cf18	-0.00015812775
90	0x39577990	0.00020549283
91	0x3912a6cc	0.00013985782
92	0xb7abc188	-2.0474909e-05
93	0xb955a504	-0.00020374736
94	0x39754eea	0.00023394419
95	0x37dcad50	2.6306749e-05
96	0x38c66c05	9.461496e-05
97	0xb91fe590	-0.0001524894
98	0xb988c4fc	-0.00026086706
99	0xba31f580	-0.00067885965
100	0xb84c07b7	-4.8644575e-05
101	0x37e0bd20	2.6790949e-05
102	0xb97876b7	-0.00023695348
103	0xba3cc3fe	-0.0007200836
104	0xb9425348	-0.00018532306
105	0x397b25f6	0.00023951367
106	0xb8f33d84	-0.00011598601
107	0x3a078ed3	0.0005171124
108	0xba033f80	-0.00050067157
109	0x3979091a	0.00023749881
110	0x39cb1ca7	0.00038740525
111	0xb9a38ec7	-0.0003119616
112	0x3981a39e	0.00024726702
113	0xb90ce699	-0.00013437345
114	0xb848180e	-4.770612e-05
115	0x39535310	0.00020153471
116	0x38c77bd4	9.512124e-05
117	0x39c0e302	0.00036790228
118	0x395b23f1	0.00020898857
119	0xb953167e	-0.00020130907
120	0x38ecb023	0.00011286165
121	0xba34704a	-0.00068831875
122	0x39135f98	0.00014054624
123	0x38e8b3f9	0.000110961446
124	0xb9dfd8be	-0.0004269536
125	0xb9530a13	-0.00020126281
126	0xba06f7a5	-0.0005148596
127	0x392df4d5	0.00016589773
128	0x39a7aad8	0.0003198001
129	0x39907c45	0.00027558408
130	0xb8adc115	-8.285247e-05
131	0x395bc733	0.00020959675
132	0x3a40e134	0.00073577766
133	0xba15d6a6	-0.0005715884
134	0xb7b92e20	-2.2075197e-05
135	0x39c4a9be	0.000375105
136	0xb80a3312	-3.2949327e-05
137	0x3988b656	0.00026075792
138	0x38d82a78	0.00010307593
139	0x39ac226d	0.00032832046
140	0x38b6e830	8.7216846e-05
141	0xb9ba8028	-0.00035572168
142	0xb9fafb12	-0.00047870778
143	0xba5a7441	-0.0008333363
144	0xb9f0eb60	-0.00045951735
145	0x3945a7e1	0.00018849924
146	0x3990d7a6	0.0002762649
147	0x3a4d220b	0.0007825202
148	0xb99a076c	-0.000293787
149	0xb803968c	-3.137304e-05
150	0xb95a6c88	-0.00020830531
151	0x39bd6621	0.0003612498
152	0x39183cdc	0.00014518521
153	0xb8e35e88	-0.00010841811
154	0xb98f2cff	-0.0002730861
155	0xb8812ed0	-6.159919e-05
156	0xb6578180	-3.2112875e-06
157	0xba921b8e	-0.0011147128
158	0xb765d140	-1.36981835e-05
159	0x396b3d9a	0.00022434295
160	0x380b3668	3.3190852e-05
161	0x3a132d07	0.00056143146
162	0x39ac6586	0.00032882037
163	0xba52fe37	-0.0008048745
164	0xb8ceaeec	-9.855427e-05
165	0xb96614b2	-0.00021942219
166	0xb94cb086	-0.00019520716
167	0x394992b8	0.00019223511
168	0x39ccdc60	0.00039074104
169	0x37e7b7c8	2.7622926e-05
170	0xb98d648d	-0.00026968532
171	0x3963fe66	0.00021743178
172	0x38d40c10	0.000101111946
173	0x39b81894	0.00035113527
174	0xb9af54bd	-0.00033441736
175	0xb9c30ba1	-0.00037201963
176	0x37ef8808	2.8554365e-05
177	0x395e657d	0.00021209377
178	0xb9322f2e	-0.00016992979
179	0x3a6b34ea	0.00089724234
180	0x38ffd1d4	0.00012198431
181	0x39c6a308	0.0003788697
182	0x393a5a1b	0.00017771909
183	0xba3584a0	-0.0006924365
184	0x3874f0e8	5.8398495e-05
185	0xb7537c38	-1.2605502e-05
186	0x395ed5bf	0.00021251196
187	0x3999ea62	0.00029357063
188	0xb94a80c4	-0.0001931219
189	0xb9907fc0	-0.00027561001
190	0xba8c993d	-0.0010726821
191	0xb993a577	-0.00028161306
192	0xb92824bd	-0.00016035415
193	0x3a03c2df	0.00050262915
194	0xba089f69	-0.0005211742
195	0x39b74e45	0.00034962795
196	0xb9e13d12	-0.00042960845
197	0x3895af8c	7.137572e-05
198	0x3983f1f2	0.0002516653
199	0xba0b8193	-0.0005321737
200	0x3896df30	7.194129e-05
201	0x39873c9d	0.00025794367
202	0x399a592a	0.000294396
203	0x3955e7c6	0.00020399605
204	0x38c90964	9.586176e-05
205	0xb916efbd	-0.00014394424
206	0x38894dbf	6.5471504e-05
207	0xb9a9f7c9	-0.00032418806
208	0xb9894f3b	-0.00026189708
209	0xb998c3b4	-0.0002913751
210	0xb8a3983e	-7.800803e-05
211	0xb9615f4a	-0.0002149317
212	0x399207c4	0.00027853076
213	0xb97bd615	-0.00024016977
214	0xb80379a0	-3.1346106e-05
215	0xba322e92	-0.00067971007
216	0x39889ac2	0.00026055245
217	0x38803a43	6.114368e-05
218	0xba10c798	-0.0005522906
219	0x392632c8	0.00015849911
220	0x3a72bd75	0.00092597987
221	0xb99f585f	-0.00030392685
222	0x3a33de00	0.00068613887
223	0x39cdcb34	0.00039252045
224	0x3a802adc	0.0009778398
225	0x3720b700	9.579351e-06
226	0xb96e8ad0	-0.0002274916
227	0x39d86cd3	0.0004127981
228	0x38a04ad8	7.643335e-05
229	0xb9a94e02	-0.00032292312
230	0x392a6493	0.0001624993
231	0xba288c5b	-0.0006429606
232	0x3970676a	0.00022926708
233	0x39a39cd1	0.0003120662
234	0x3978988b	0.0002370795
235	0x39c7d19a	0.00038112403
236	0xb83efd5e	-4.5535497e-05
237	0x39019908	0.00012359407
238	0x3a5370ca	0.0008065818
239	0x3a14990e	0.0005668559
240	0xb8ce3481	-9.832625e-05
241	0xb96fc31e	-0.00022865503
242	0xba2ccc54	-0.00065917266
243	0x39bfd9e8	0.00036592712
244	0x395bc0f8	0.00020957354
245	0xba1d8460	-0.00060088
246	0xb9b196f2	-0.00033872534
247	0x38a70f78	7.966062e-05
248	0xb95da88f	-0.00021138995
249	0xb891e8cb	-6.9575e-05
250	0xb87b9878	-5.998506e-05
251	0x3a770953	0.00094236917
252	0x39bb9a74	0.00035782496
253	0x39e48867	0.00043589176
254	0x392c96c9	0.0001645937
255	0xba13c13b	-0.00056363986

layer1.bias f4 [20]
0	0xba15aab4	-0.00057093357
1	0x399c2ae2	0.0002978659
2	0x39307242	0.00016827232
3	0xb90b5946	-0.0001328933
4	0x399e56af	0.00030200693
5	0x39bdd3bd	0.00036206646
6	0x3bde22a4	0.006779032
7	0xbb235a20	-0.0024925545
8	0x3953a5fb	0.0002018436
9	0xbccccece	-0.025000956
10	0xb8760962	-5.865971e-05
11	0xb928dbf5	-0.00016103669
12	0xb8153bc0	-3.5580015e-05
13	0x3902d5e6	0.0001247745
14	0xb96dd684	-0.00022681995
15	0xb8c742f6	-9.501532e-05
16	0xb87d882b	-6.0446717e-05
17	0x3932db67	0.00017057137
18	0x375ae3a4	1.3046814e-05
19	0xbc291a0d	-0.010321152

layer2.weight f4 [5, 20]
0	0x39949317	0.0002833835
1	0xba1f8a06	-0.0006085936
2	0xba4aa9d0	-0.00077309925
3	0x3a35ae12	0.00069305405
4	0x3a07fac0	0.0005187206
5	0x3a354bac	0.0006915878
6	0x3772f684	1.448172e-05
7	0xb884f1fa	-6.339322e-05
8	0xba62a58c	-0.0008645884
9	0xb9a59cf1	-0.00031588183
10	0x3a54dd07	0.0008120094
11	0x3910efe0	0.0001382227
12	0xb8c0dbe8	-9.196234e-05
13	0xb8d29058	-0.000100404664
14	0x39c70bf4	0.00037965144
15	0x3a597624	0.00082954974
16	0x395fa5a1	0.00021328639
17	0x39d05eef	0.00039743583
18	0x391c5212	0.00014907893
19	0xb7e1e14a	-2.6926999e-05
20	0xb839cda8	-4.429897e-05
21	0x39d786e0	0.00041108485
22	0x3a09e1d8	0.00052597886
23	0xb9464fe3	-0.00018912512
24	0xba02f5c9	-0.0004995731
25	0xbaba7b8a	-0.0014227491
26	0xb7cf8e38	-2.4742549e-05
27	0xb934e32a	-0.00017250763
28	0xb91198fe	-0.00013885272
29	0x39e46609	0.0004356357
30	0xb9adea65	-0.0003317177
31	0xb9033d42	-0.00012515954
32	0x36ec17c0	7.036113e-06
33	0xb9616d96	-0.00021498496
34	0xb9da6fec	-0.00041663588
35	0xb974ea93	-0.00023357039
36	0xb9aa8975	-0.0003252734
37	0xba024fe0	-0.0004971009
38	0x3a122d32	0.00055761926
39	0x3909a6d0	0.0001312748
40	0xb7185ec9	-9.081975e-06
41	0x380110c7	3.0771622e-05
42	0x3898a710	7.2790426e-05
43	0xbb3c2480	-0.002870828
44	0xb90feed0	-0.00013726507
45	0xbdb3f11e	-0.08786224
46	0xbf8e15e1	-1.1100427
47	0xbd11a27b	-0.035555344
48	0x387fd141	6.099162e-05
49	0xbd859a5a	-0.06523581
50	0x3a0aef4e	0.00052999414
51	0xb652ad10	-3.1393174e-06
52	0xbcf9e824	-0.030506201
53	0x3b2b7061	0.0026159512
54	0xb8f06f25	-0.00011464794
55	0xbd851748	-0.06498581
56	0xb6eab99c	-6.995351e-06
57	0xb8a46efb	-7.840801e-05
58	0x3882dba7	6.2397965e-05
59	0x3eaefc6e	0.34176964
60	0x39c8fcec	0.00038335414
61	0x393b3388	0.00017852907
62	0xb987416f	-0.00025797958
63	0xb9c8e3f2	-0.00038316805
64	0x39c57dc4	0.0003766847
65	0x3d7a0657	0.061041202
66	0x3d5d8d1e	0.054089658
67	0x3c981498	0.018564507
68	0xb9bbacac	-0.0003579607
69	0x3d1bd945	0.038049
70	0xba4f74f2	-0.00079138495
71	0x3a308b42	0.0006734618
72	0x3a7e275d	0.00096951966
73	0x3b365e8d	0.0027827353
74	0xb9347394	-0.00017209194
75	0x3b971242	0.004610331
76	0x39e8259e	0.00044278515
77	0x3a7e76c5	0.0009707029
78	0x38c1db78	9.2438364e-05
79	0xbf04baa8	-0.51847315
80	0x378b2ccc	1.6590951e-05
81	0x39e66547	0.00043944476
82	0x3a4abbf8	0.0007733698
83	0x398bb67c	0.00026648107
84	0x39e5b6af	0.00043814394
85	0xb9f36807	-0.00046426078
86	0xb834e59c	-4.3129185e-05
87	0xb9ac22e9	-0.00032832407
88	0x3930b4f8	0.00016852084
89	0xba0f4836	-0.00054657774
90	0xb8003ca4	-3.0574054e-05
91	0x3a34854a	0.00068863167
92	0x391d17ac	0.00014981505
93	0xb9eead6c	-0.00045524107
94	0xb81ebc1a	-3.784532e-05
95	0x39e5390e	0.00043720793
96	0x38e46d94	0.00010892298
97	0x39eb8e92	0.00044928916
98	0xb959ce89	-0.00020771673
99	0x379a620a	1.8403884e-05

layer2.bias f4 [5]
0	0x37c255e8	2.3166605e-05
1	0xb9636d26	-0.00021689068
2	0x3f37339a	0.7156311
3	0x3c3d2b3e	0.011545954
4	0x38898f7c	6.559395e-05

layer3.weight f4 [1, 5]
0	0x353ecd4c	7.107926e-07
1	0xb8e49b32	-0.000109007946
2	0x3f4362e3	0.76322764
3	0xbe115ec2	-0.14196303
4	0x37e31c8d	2.7073804e-05
