model/slide_nn_model_weights/trained_on_psphunter_nophasepro/dense_650_20_5_1_weights_4.pth (torch, 55366 bytes, 5 tensors)

layer1.weight f4 [20, 650]
0	0x3973b77c	0.00023242639
1	0x38e2f77a	0.00010822616
2	0xb8b65e7a	-8.696034e-05
3	0xb9caedb9	-0.0003870556
4	0x39e98ed4	0.00044547638
5	0x39bc80b8	0.00035954057
6	0x39421c05	0.0001851172
7	0xb96de1ae	-0.00022686154
8	0x38ac51a9	8.2168095e-05
9	0xba31f9d4	-0.00067892415
10	0xba4f881b	-0.00079167046
11	0x3a9b707e	0.0011859087
12	0x3a07e38d	0.0005183749
13	0x3969f428	0.00022311567
14	0xb9c659d2	-0.00037832424
15	0x39b5cb87	0.0003467465
16	0x39b82808	0.0003512504
17	0xb9f3abf8	-0.00046476698
18	0x3a2bf599	0.0006559729
19	0x39e12222	0.00042940775
20	0xb9e98350	-0.0004453906
21	0xba7220dc	-0.0009236464
22	0xb8dd8618	-0.00010563078
23	0x391056f5	0.00013765304
24	0xb99936e2	-0.00029223325
25	0x3a0a0cc0	0.0005266182
26	0xb8d6a028	-0.000102341466
27	0x37de4be4	2.6499802e-05
28	0xb8a20bac	-7.726936e-05
29	0x3958d88b	0.00020680034
30	0xb697288c	-4.504871e-06
31	0xba3addf3	-0.000712841
32	0x395567ee	0.0002035198
33	0xb7963598	-1.790635e-05
34	0xba048c22	-0.0005056282
35	0x35e83f80	1.7303828e-06
36	0xb8be4228	-9.0722286e-05
37	0xb9d13d18	-0.00039909105
38	0xba04d307	-0.0005066846
39	0xb8c46a8c	-9.365854e-05
40	0x3a0d2caa	0.00053853786
41	0x398bdf6e	0.00026678614
42	0xb80c3176	-3.3424665e-05
43	0x393ea6cc	0.00018181949
44	0xb998ec2c	-0.0002916766
45	0xb850ac64	-4.9751616e-05
46	0xb9b39a86	-0.0003425667
47	0xba4da180	-0.0007844195
48	0xba3becbe	-0.0007168761
49	0x39c8c36e	0.0003829258
50	0x39702d9c	0.00022905174
51	0x397fd994	0.00024399749
52	0x399a4962	0.00029427843
53	0x3a0925de	0.0005231778
54	0x39b7ae9d	0.00035034577
55	0x393b5962	0.00017867007
56	0xb9e35c56	-0.0004336561
57	0x38f49994	0.00011663433
58	0x38d7e206	0.00010294099
59	0xb9a88392	-0.00032141485
60	0xb945808e	-0.00018835274
61	0xb58ba9c0	-1.0405711e-06
62	0xb784d70b	-1.5835763e-05
63	0xb9bcb8e8	-0.0003599592
64	0xb8990b0c	-7.297666e-05
65	0xb97e415d	-0.00024247677
66	0x3a6747ee	0.0008822669
67	0xb9b02cd2	-0.0003360273
68	0x39ad479a	0.0003305048
69	0x396aab59	0.00022379811
70	0xb90ff0c0	-0.00013727229
71	0xb93a01f7	-0.00017739074
72	0x38f43954	0.00011645505
73	0xb890db1f	-6.9072696e-05
74	0x3884e850	6.337522e-05
75	0x38ec454c	0.000112662645
76	0x394fad70	0.00019805669
77	0x39320398	0.00016976742
78	0x38931f64	7.015353e-05
79	0xb8ce1bb9	-9.828009e-05
80	0xb931c5fc	-0.0001695379
81	0x399a33bd	0.00029411717
82	0xb98507d9	-0.00025373584
83	0x38c60342	9.4419825e-05
84	0x3a0443c6	0.00050454994
85	0x3a66e921	0.00088085426
86	0x3985dd12	0.00025532447
87	0x39ad1394	0.00033011718
88	0xba3c19ac	-0.0007175456
89	0xb9c6ae76	-0.00037895486
90	0xb8ef1398	-0.00011400058
91	0x39719f5e	0.0002304292
92	0x391c91be	0.00014931613
93	0xba21a791	-0.0006166632
94	0x3912309d	0.00013941755
95	0xba56e43e	-0.0008197463
96	0xb9c69602	-0.00037877267
97	0x3907f0e0	0.00012964336
98	0xb9a5d909	-0.00031632956
99	0x39f9cd00	0.00047645718
100	0xb989fe44	-0.0002632012
101	0x38798300	5.948823e-05
102	0x39820a4d	0.00024803207
103	0x39be7d40	0.00036332943
104	0xb894c318	-7.093529e-05
105	0x39abefa8	0.0003279422
106	0xb95963e7	-0.00020731949
107	0xb994928a	-0.0002833794
108	0x39d1069e	0.00039868517
109	0x375b35ac	1.3065914e-05
110	0xb9d30e53	-0.00040255729
111	0xb88e9790	-6.799318e-05
112	0x3915f3b6	0.00014300537
113	0x39ca5b99	0.00038596688
114	0xb9ecaf0c	-0.00045143848
115	0x3987ecd6	0.00025925663
116	0x381836d0	3.6290672e-05
117	0xb8da7124	-0.00010416124
118	0x388e845c	6.7957415e-05
119	0xb879aad4	-5.9525322e-05
120	0xb8ccdf67	-9.76909e-05
121	0xb9fd7514	-0.0004834315
122	0x397addd5	0.00023924497
123	0xb784bc10	-1.58232e-05
124	0xb992efcb	-0.0002802595
125	0x39022f04	0.00012415281
126	0x388f1d30	6.824208e-05
127	0xba03e74f	-0.0005031721
128	0x399f4bf5	0.00030383436
129	0xb9c35b2e	-0.00037261233
130	0xb966fd0a	-0.00022028774
131	0xba1554f5	-0.00056965585
132	0x38974b8c	7.214313e-05
133	0x39b682d6	0.00034811225
134	0x397f2df5	0.00024335815
135	0xb96ee43c	-0.00022782473
136	0x38e1d88c	0.00010769171
137	0x37aba930	2.0463573e-05
138	0xb937750c	-0.00017495843
139	0xb9f78a49	-0.00047214542
140	0xba29a83e	-0.00064719084
141	0xb9cb6c44	-0.0003879984
142	0xba124ffb	-0.0005581376
143	0xb8f80f16	-0.000118283715
144	0xb9fa3538	-0.00047723367
145	0xb7c0e450	-2.29945e-05
146	0xb9fbb1d3	-0.0004800694
147	0x39b6fb44	0.00034900953
148	0xb9c8be45	-0.00038288735
149	0x38fd692c	0.0001208357
150	0x3a594abc	0.00082890294
151	0xb88c42d6	-6.6881694e-05
152	0x39fb7eab	0.00047968826
153	0x3909e6d2	0.00013151325
154	0xba073429	-0.0005157614
155	0x39b7c0f7	0.0003504825
156	0x397c2012	0.0002404454
157	0xb779c130	-1.48865365e-05
158	0xb9aba4a9	-0.00032738343
159	0x39e24ced	0.00043163393
160	0xb9ac9fff	-0.00032925603
161	0xba0c255c	-0.0005346143
162	0x39bd2524	0.0003607656
163	0x38497344	4.8029484e-05
164	0x3911ca8e	0.00013903735
165	0xb8d67fb8	-0.00010228105
166	0xb5b75e40	-1.3661993e-06
167	0x38cff423	9.916003e-05
168	0xb92d483b	-0.00016525474
169	0x39605d87	0.00021397146
170	0x3a5c325b	0.00083998375
171	0xb878cb02	-5.9316873e-05
172	0xb705b160	-7.968716e-06
173	0x39c2ca12	0.00037153118
174	0x396a0805	0.00022318967
175	0x39295fda	0.00016152803
176	0xb9b6ad82	-0.00034843019
177	0x390dc1a0	0.00013518939
178	0x3a77f708	0.0009459113
179	0xb8b4b706	-8.6171596e-05
180	0xb9c0279e	-0.0003665061
181	0x3a4ed8b4	0.00078905676
182	0x39313f10	0.00016903528
183	0xb94fd410	-0.00019820058
184	0xb9fbcf1a	-0.00048028753
185	0xb9bcd0a8	-0.00036013615
186	0x382233cb	3.8672046e-05
187	0xb91aeded	-0.00014775219
188	0xb8f38cb4	-0.00011613351
189	0x395df2ba	0.00021166625
190	0x39c63912	0.00037808024
191	0x393e1ebe	0.00018131264
192	0x39e179d4	0.00043006113
193	0x394beb88	0.00019447331
194	0xb7820680	-1.5500234e-05
195	0xb9dc845f	-0.00042060294
196	0x3906099a	0.00012782813
197	0x37b3d1f4	2.143623e-05
198	0xb90415c0	-0.00012596603
199	0x39c667fd	0.0003784298
200	0xb9d0eb3e	-0.0003984812
201	0xb937c566	-0.00017525777
202	0xba2b28cd	-0.0006529212
203	0xba2de9d2	-0.0006634268
204	0xb91c14d2	-0.00014885076
205	0xb995d996	-0.0002858161
206	0xb8ad69ec	-8.269012e-05
207	0xba0e28e5	-0.0005422964
208	0xb8aa63d4	-8.124826e-05
209	0x3762df00	1.3522571e-05
210	0xb91cf3ae	-0.00014968097
211	0xb9234b46	-0.00015572933
212	0x3a243892	0.0006264533
213	0xba059f34	-0.00050972705
214	0x39886eaa	0.00026022393
215	0x3905bb66	0.0001275368
216	0x38e2004a	0.000107765736
217	0xb90d3acc	-0.00013468711
218	0xb9cab93e	-0.0003866646
219	0xba468af3	-0.00075738056
220	0xba2dfdae	-0.00066372275
221	0x39de9c90	0.00042459788
222	0x3878dc08	5.9332728e-05
223	0xb971d4dc	-0.00023062847
224	0x39bd3c03	0.000360936
225	0x390480b5	0.00012636448
226	0xb93ef8da	-0.00018212516
227	0x3941dec9	0.00018488908
228	0x398ca3b5	0.00026824852
229	0xb9df824d	-0.00042630956
230	0xb889c73c	-6.569779e-05
231	0xb9c5e109	-0.00037742432
232	0xb93bca3c	-0.00017909048
233	0xb9ca91d4	-0.00038637093
234	0xb7916a68	-1.7334896e-05
235	0x392cc048	0.00016474829
236	0xba57ba82	-0.0008229391
237	0x39f08ffd	0.00045883647
238	0x396a7b89	0.00022362
239	0x388b50c6	6.643082e-05
240	0xb92e61eb	-0.0001663041
241	0xb903cd6c	-0.00012569659
242	0x39d72093	0.00041032265
243	0xb69e4eb8	-4.717931e-06
244	0x37fadc6c	2.9904964e-05
245	0xb8a2371c	-7.735027e-05
246	0xb9ac1851	-0.00032824514
247	0xba8b7026	-0.0010638281
248	0xb9743b90	-0.00023291842
249	0x39ce4594	0.00039343222
250	0x3a31dffe	0.00067853916
251	0xb944e4f7	-0.00018777313
252	0x3942b4af	0.00018568592
253	0x393b46be	0.00017860063
254	0x3a464fe3	0.00075650046
255	0x3a8686d2	0.0010263568

layer1.bias f4 [20]
0	0xb9a99bd8	-0.00032350305
1	0x3c9da44a	0.019243378
2	0xb88055ab	-6.1194725e-05
3	0x37d9ea60	2.5977555e-05
4	0xb95b7116	-0.00020927595
5	0xb9a23155	-0.00030935803
6	0xb87437f6	-5.822625e-05
7	0xbb4a121b	-0.0030833546
8	0xb9bcb72e	-0.00035994634
9	0xba563ebe	-0.00081728015
10	0x37500800	1.2399629e-05
11	0x3d3fe1ea	0.046846308
12	0x38af819c	8.368792e-05
13	0x3889a4a6	6.563337e-05
14	0xb90c83da	-0.00013400559
15	0x398bba1b	0.00026650805
16	0x3926a83a	0.00015893663
17	0xb8599fdb	-5.188571e-05
18	0x3949afe8	0.00019234384
19	0xb91252aa	-0.0001395444

layer2.weight f4 [5, 20]
0	0xb940dafa	-0.00018392122
1	0x3868f341	5.553966e-05
2	0x39a81bac	0.00032064074
3	0xba10b42e	-0.0005520013
4	0x3a160ac9	0.0005723653
5	0xb9d6e219	-0.00040985717
6	0x3890e254	6.908612e-05
7	0x39507fc9	0.0001988403
8	0xb93d3f26	-0.00018047969
9	0xb9ae57bd	-0.00033253236
10	0x3a7b4cc8	0.00095863314
11	0x38a14622	7.6901415e-05
12	0x39048938	0.00012639619
13	0x387c0a01	6.00908e-05
14	0x343b7600	1.745866e-07
15	0xb90b77f8	-0.00013300765
16	0x3961f162	0.00021547594
17	0xb8d58078	-0.00010180561
18	0xb963bed0	-0.0002171949
19	0xb67e01c0	-3.7849968e-06
20	0xb8bc0496	-8.965393e-05
21	0xbc9dcac6	-0.019261729
22	0xb6ba60f6	-5.5545197e-06
23	0xb7ff51a0	-3.0436378e-05
24	0xb6e912e8	-6.946142e-06
25	0x38a0c9ce	7.6669836e-05
26	0xb60ad97e	-2.06902e-06
27	0x3cb15fe7	0.021652175
28	0xbd0d921b	-0.034563165
29	0x36552c28	3.1765176e-06
30	0xb6fd90f8	-7.556864e-06
31	0x3f73abf2	0.9518424
32	0x363215b1	2.6536693e-06
33	0x3a1a645e	0.00058895897
34	0xb8335d4c	-4.2763815e-05
35	0xb892a93e	-6.993346e-05
36	0xb7427eea	-1.1592851e-05
37	0xb62a86a3	-2.5410343e-06
38	0xb347b200	-4.6495188e-08
39	0xb6a20e11	-4.8296138e-06
40	0xba16b601	-0.00057491666
41	0x37870a5e	1.6098082e-05
42	0x396621b2	0.00021947062
43	0xb949871d	-0.00019219187
44	0xb90f8fe1	-0.00013691142
45	0xb9974a23	-0.000288562
46	0xb9dc4a6e	-0.00042017124
47	0x396a3db9	0.00022338972
48	0x391991c6	0.00014645522
49	0xb9a78b16	-0.0003195635
50	0x39601934	0.00021371694
51	0xb7191efd	-9.126726e-06
52	0x38864adc	6.4035616e-05
53	0xb93717ca	-0.00017461102
54	0xb9a516f1	-0.00031488345
55	0x39a7e904	0.00032026332
56	0xb9f4e594	-0.00046710356
57	0xb6639d10	-3.3917058e-06
58	0xba662cf6	-0.00087805034
59	0x3665d378	3.424675e-06
60	0xb8710f77	-5.747328e-05
61	0xbed63e01	-0.4184418
62	0xbaaeffa1	-0.001335133
63	0xb8ce7f05	-9.846505e-05
64	0x36aa5eed	5.0774456e-06
65	0xb8b21314	-8.491255e-05
66	0x358491aa	9.87716e-07
67	0x3cb6a143	0.022293692
68	0xbd13763e	-0.036001436
69	0x38ca1b45	9.63719e-05
70	0xb806a5bc	-3.210244e-05
71	0x3f6f44d6	0.9346441
72	0x357adb10	9.3451035e-07
73	0x3a2f8122	0.00066949625
74	0xb82f2aae	-4.1763e-05
75	0xb8eb3efc	-0.00011217405
76	0x36c96b4c	6.002758e-06
77	0xb5a0afd0	-1.1972097e-06
78	0xb7034b3c	-7.825725e-06
79	0x363b1654	2.7878168e-06
80	0x3a3707ee	0.00069820776
81	0x381ddcd4	3.763738e-05
82	0xb91e56fa	-0.00015100455
83	0x385f5ec4	5.32556e-05
84	0xba30433b	-0.00067238853
85	0x39e89476	0.000443611
86	0xb6f33d00	-7.2490657e-06
87	0x3932f070	0.00017064973
88	0x390a0a28	0.00013164489
89	0xb9f66143	-0.00046993242
90	0xb9e33832	-0.00043338683
91	0x385c1cc9	5.2478896e-05
92	0xb9d7b35d	-0.00041141632
93	0x38cc6239	9.7457734e-05
94	0xb904462e	-0.00012614645
95	0xb98d4c90	-0.0002695066
96	0x39eae8e6	0.0004480548
97	0xba3d1275	-0.0007212528
98	0xb92e0392	-0.00016595263
99	0x378ecb89	1.7022498e-05

layer2.bias f4 [5]
0	0x36fa238b	7.4547183e-06
1	0xbf3e71d1	-0.7439242
2	0xb8768e3d	-5.878344e-05
3	0xbf1e685c	-0.6187799
4	0xb8035088	-3.1307834e-05

layer3.weight f4 [1, 5]
0	0xb798013e	-1.812039e-05
1	0xbef83a68	-0.4848206
2	0x35a63369	1.2382926e-06
3	0xbf078b3a	-0.5294682
4	0x3765040d	1.3650407e-05
