model/slide_nn_model_weights/trained_on_psphunter_nophasepro/dense_650_20_5_1_weights_5.pth (torch, 55366 bytes, 5 tensors)

layer1.weight f4 [20, 650]
0	0x39e362c0	0.00043370388
1	0x3a1542f5	0.00056938763
2	0xba32f4ee	-0.00068266585
3	0xb91d7b7a	-0.00015018685
4	0x38211604	3.8405895e-05
5	0x3948ee68	0.000191623
6	0x39bf1188	0.0003644342
7	0x390c139d	0.00013358747
8	0x390fc105	0.00013709448
9	0xb8110d48	-3.4583063e-05
10	0xb7c6904c	-2.3670633e-05
11	0xba348c3c	-0.00068873516
12	0x3930146d	0.00016792277
13	0xb9e9a43f	-0.00044563596
14	0x3999e9f3	0.0002935674
15	0x39b43b48	0.00034376443
16	0x392f97b4	0.00016745814
17	0xb9b2f710	-0.00034134882
18	0x3a37f68b	0.0007017634
19	0xb910db83	-0.00013814685
20	0xb9d6a68e	-0.00040941354
21	0xb901a53a	-0.0001236395
22	0xba345a88	-0.0006879945
23	0x35ba17e0	1.3865028e-06
24	0x392a2194	0.00016224972
25	0xb9f77a82	-0.00047202787
26	0x39ebb032	0.0004495397
27	0x39ba3635	0.00035517072
28	0x396bd1de	0.00022489528
29	0xb936c7bd	-0.00017431281
30	0xb9b2b702	-0.00034087157
31	0xb8e40422	-0.00010872657
32	0xb9429a78	-0.00018558826
33	0xb8bb4432	-8.929557e-05
34	0xb92c9aee	-0.00016460914
35	0x37e36b4c	2.7110473e-05
36	0xb8a61408	-7.919228e-05
37	0xba99227a	-0.0011683248
38	0xb94ee81c	-0.00019732158
39	0x3a5ad6a6	0.0008348025
40	0xb8e9a9d6	-0.0001114194
41	0x394363fc	0.00018633896
42	0xb859cf30	-5.192979e-05
43	0x3a5e1b8d	0.00084727333
44	0xb9492c94	-0.0001918546
45	0xba5ed11c	-0.00084997877
46	0x38a7aa43	7.994894e-05
47	0x38cf7dd9	9.89397e-05
48	0x3959527a	0.00020725458
49	0x3784d2fc	1.5833873e-05
50	0xb939f662	-0.0001773476
51	0xb79303e8	-1.7525585e-05
52	0x3938ed5e	0.00017636034
53	0xb9d836b8	-0.000412395
54	0x3a587bb4	0.00082581793
55	0xb97d27e3	-0.00024142819
56	0xb9c9b194	-0.00038470014
57	0x38de16f3	0.000105900595
58	0x391b0d78	0.0001478697
59	0xb872fbd6	-5.7931837e-05
60	0xb8f1ff8c	-0.00011539375
61	0xb9348b21	-0.00017217967
62	0x36862808	3.9981715e-06
63	0x398c7ba0	0.0002679499
64	0x39671b20	0.00022039982
65	0x3a0d5905	0.0005391988
66	0x3973e39a	0.00023259074
67	0x39657578	0.00021882902
68	0xb99184c5	-0.00027755476
69	0x3a75ae5d	0.00093719905
70	0xb9d09609	-0.00039784636
71	0xb9e4ec6e	-0.00043663703
72	0x39a0251d	0.0003054523
73	0xb8c2f400	-9.2960894e-05
74	0x38f5e324	0.000117248186
75	0x3a0c305c	0.0005347782
76	0xba19929d	-0.0005858334
77	0xb5a02780	-1.1932425e-06
78	0xb92ef3e2	-0.00016684787
79	0x39c2e568	0.00037173484
80	0xb87dd69c	-6.051977e-05
81	0xb9471415	-0.000189856
82	0xba1c90d1	-0.0005972507
83	0x398bdcd9	0.0002667669
84	0xb8f03ba0	-0.00011455198
85	0xb9b45b71	-0.00034400405
86	0xb92e6a41	-0.00016633516
87	0x39c5dbe6	0.00037738605
88	0xb993041f	-0.00028041095
89	0xb7866710	-1.6022037e-05
90	0xb8a16978	-7.696723e-05
91	0xb93852a8	-0.000175784
92	0xb983b9a6	-0.00025124586
93	0xba29f908	-0.0006483947
94	0xb9156165	-0.0001424603
95	0xb91bc34d	-0.00014854707
96	0x37c91520	2.3970904e-05
97	0x3a0b6907	0.00053180795
98	0x39a84e98	0.00032102014
99	0xba0135f7	-0.0004929001
100	0xb906e5af	-0.000128648
101	0x38dedccb	0.00010626911
102	0xb89163aa	-6.932703e-05
103	0xb8ffdfd2	-0.00012201037
104	0xb9e41930	-0.00043506315
105	0xb9865600	-0.00025622547
106	0x399ad9f6	0.00029535562
107	0xba26e45e	-0.0006366427
108	0x389eb2d2	7.567335e-05
109	0xba441224	-0.000747951
110	0x39add84e	0.0003315829
111	0xb991d1fb	-0.00027813003
112	0xb9481242	-0.00019080288
113	0xba1dd623	-0.00060209836
114	0x39fe1d70	0.00048468588
115	0xb986aff4	-0.00025689567
116	0xba35b308	-0.000693128
117	0xb8f7db59	-0.000118187345
118	0x396bce68	0.00022488239
119	0x3a857f65	0.0010185061
120	0xb95e81fa	-0.0002121999
121	0xb961a8ad	-0.00021520509
122	0xb911cf5e	-0.00013905528
123	0x395a66b7	0.00020828364
124	0xb9cdbd39	-0.0003924163
125	0xba21fb6a	-0.0006179126
126	0x3a42d997	0.0007432936
127	0xb960a07c	-0.0002142209
128	0xb7424ac0	-1.1580705e-05
129	0xb9df10c6	-0.00042546372
130	0xb6d35b10	-6.298891e-06
131	0x388abe08	6.615749e-05
132	0xb9584e60	-0.00020628562
133	0xb98040bb	-0.0002446229
134	0xb9ae3e86	-0.0003323445
135	0x382851ec	4.0130617e-05
136	0x39d2efe2	0.00040233048
137	0x3a3d0df0	0.00072118547
138	0x38c72b25	9.497096e-05
139	0xb8e05a22	-0.00010697941
140	0x3944af52	0.00018757329
141	0x3a1d6094	0.0006003466
142	0xb877a490	-5.904265e-05
143	0xb9368ac2	-0.00017408564
144	0x39afa946	0.0003350472
145	0x3973d542	0.0002325373
146	0x3a388927	0.000703948
147	0xb992ee24	-0.0002802472
148	0x39bd21f7	0.00036074195
149	0xb8f2e606	-0.000115823044
150	0xb981cb45	-0.00024756245
151	0x37a2d2e0	1.9410101e-05
152	0xb93b5207	-0.00017864267
153	0x3984bb10	0.00025316374
154	0xb91d0c98	-0.00014977378
155	0x3a2f15a6	0.0006678946
156	0x3981702c	0.00024688372
157	0xba38af6a	-0.00070451817
158	0x39862d3d	0.00025592177
159	0xb944e295	-0.00018776425
160	0x39626fe0	0.00021594716
161	0x3923f90c	0.00015637669
162	0x398b2f2c	0.00026547292
163	0xb93fbd9d	-0.00018285816
164	0x3a0ae7d6	0.00052988285
165	0x39c91e0f	0.00038360103
166	0xb88ad7a8	-6.620522e-05
167	0x38daa014	0.00010424867
168	0xb89c0c9c	-7.441008e-05
169	0x3a633ac6	0.0008668121
170	0xb8e86c70	-0.0001108282
171	0x397f72e8	0.00024361501
172	0x390dfdd6	0.00013541369
173	0xb83cba5a	-4.4996246e-05
174	0xba4110b1	-0.0007364853
175	0x39d2a436	0.00040176668
176	0xb957359a	-0.00020523966
177	0xb9d90504	-0.00041393202
178	0x39bb20bb	0.00035691806
179	0x396715d5	0.0002203801
180	0xb8bcec2c	-9.008529e-05
181	0xb834da14	-4.3118445e-05
182	0xba02c8e8	-0.0004989044
183	0x390b7007	0.00013297806
184	0x39be888e	0.00036341365
185	0x3908f514	0.0001306127
186	0x397bbe02	0.00024008009
187	0x39aeb9cf	0.00033326304
188	0xba42be00	-0.0007428825
189	0x39394d6e	0.0001767182
190	0x39dc3715	0.0004200271
191	0x39f52616	0.00046758418
192	0xb84c6008	-4.8726826e-05
193	0xb86a8068	-5.5909535e-05
194	0xb9d3dec0	-0.00040411018
195	0xb9ab442c	-0.00032666454
196	0x39919da0	0.00027773995
197	0x39008786	0.00012257518
198	0x370c5257	8.3638215e-06
199	0xb985208c	-0.00025391986
200	0xb92cc722	-0.00016477381
201	0x39a24f36	0.00030958065
202	0xb95d6f2d	-0.00021117619
203	0xba44f488	-0.00075132446
204	0x395986a6	0.00020744893
205	0xb98b10f6	-0.00026524783
206	0xb92e565e	-0.00016626107
207	0x39051ccc	0.00012694596
208	0xba48b138	-0.0007655802
209	0xb82eaed8	-4.164767e-05
210	0xb9eb8122	-0.00044918904
211	0xb92ca142	-0.00016463271
212	0xb70a2700	-8.234521e-06
213	0xba18dc70	-0.00058311876
214	0x388cc86c	6.713052e-05
215	0xba1c425e	-0.0005960817
216	0xb9578771	-0.00020554454
217	0xb954ef1c	-0.0002030697
218	0x3965ac8c	0.0002190342
219	0x39d0c382	0.00039818516
220	0xb9ade7d8	-0.00033169868
221	0x39999d29	0.00029299528
222	0x38076ca0	3.2287673e-05
223	0xb9961c4c	-0.00028631312
224	0x3a2f8a6d	0.0006696347
225	0x3900d95f	0.00012288008
226	0x374747f8	1.1878081e-05
227	0xb95bd072	-0.0002096312
228	0xb922c268	-0.00015521946
229	0xb7c74ab0	-2.3757428e-05
230	0xb98694da	-0.00025669375
231	0xb8a1459c	-7.690044e-05
232	0x38725218	5.7773752e-05
233	0x39818ce6	0.00024709775
234	0x3a008c13	0.0004903685
235	0xb941c9ee	-0.00018481139
236	0x38938604	7.0344686e-05
237	0xb9bc3cb2	-0.00035903376
238	0xb987110e	-0.00025761913
239	0x3787a758	1.617118e-05
240	0xb8c275ff	-9.272619e-05
241	0x398e2717	0.00027113475
242	0x3844ca38	4.6918372e-05
243	0xb9bf93b2	-0.000365404
244	0x39169b20	0.00014362903
245	0xba306a76	-0.0006729731
246	0x399779dc	0.00028891757
247	0x38cdbe7c	9.810642e-05
248	0xb86ee820	-5.6959805e-05
249	0x3a50b45c	0.0007961446
250	0xb96314e9	-0.00021656197
251	0xb9b7e375	-0.0003507395
252	0xb8e587a1	-0.00010944834
253	0x39798f06	0.00023799771
254	0x39c5247e	0.00037601957
255	0x38f644b4	0.00011742991

layer1.bias f4 [20]
0	0x38c20eb5	9.25338e-05
1	0xba6ee25e	-0.0009112711
2	0xb950c1b2	-0.00019908583
3	0x353244e0	6.6410394e-07
4	0xb8ee2438	-0.000113554706
5	0x39c244d4	0.00037053844
6	0x3c9c2615	0.019061128
7	0x3987f1b3	0.00025929286
8	0xb8237444	-3.897051e-05
9	0xb905442a	-0.00012709262
10	0xb8229aa0	-3.8767816e-05
11	0x394244b0	0.0001852687
12	0xb9b4767d	-0.00034420556
13	0xb96dc4aa	-0.00022675344
14	0x3902425c	0.00012422487
15	0x3924f6ae	0.00015732154
16	0xb7cdb330	-2.4521345e-05
17	0x3c21e5d2	0.009881454
18	0xb8677a44	-5.518856e-05
19	0x391d987b	0.0001502949

layer2.weight f4 [5, 20]
0	0x39e3b3aa	0.00043430674
1	0x386c0d32	5.6279074e-05
2	0x38a919d4	8.063359e-05
3	0x39110fdd	0.00013834187
4	0xb95e3d88	-0.00021194492
5	0xb80d0068	-3.3617398e-05
6	0x37ac69b5	2.0553221e-05
7	0x38321178	4.2454776e-05
8	0x3a07dc26	0.0005182646
9	0x390e0216	0.00013542952
10	0x38f8ee7f	0.00011869985
11	0xba112bbf	-0.000553783
12	0xb981c514	-0.00024751632
13	0x398ee6f9	0.0002725644
14	0x38420cbb	4.626506e-05
15	0xb8b287a8	-8.512969e-05
16	0x37a753fc	1.994706e-05
17	0x36e64eb4	6.8636964e-06
18	0xba0b27d6	-0.0005308365
19	0xb930aa8c	-0.00016848202
20	0x3938d3da	0.00017626528
21	0xb8bb20c0	-8.922955e-05
22	0x37432690	1.1631884e-05
23	0x394b4ece	0.00019388946
24	0xb8f65569	-0.00011746103
25	0xba942323	-0.0011301975
26	0x3709ae50	8.206422e-06
27	0xb8f59182	-0.00011709613
28	0x39855903	0.00025434056
29	0x36bfedd0	5.7199286e-06
30	0xb824c130	-3.9280567e-05
31	0xb9c6d46c	-0.0003792377
32	0x3939cc6a	0.00017719125
33	0x395323c4	0.00020135852
34	0xb905c2de	-0.00012756462
35	0xb9ef3c82	-0.00045630714
36	0xb9a1b2ed	-0.00030841623
37	0x37a16735	1.9240755e-05
38	0xb9905150	-0.00027526403
39	0xb78d5a00	-1.685042e-05
40	0x391c4bc5	0.00014905546
41	0x38156190	3.561523e-05
42	0xb8a77174	-7.984313e-05
43	0xb85a1fc8	-5.200485e-05
44	0xb662efc0	-3.3816177e-06
45	0x39bbde73	0.00035833157
46	0x37e30008	2.7060523e-05
47	0x39b20bef	0.00033959697
48	0xb702fb08	-7.807052e-06
49	0xb9f48062	-0.0004663496
50	0x393ffa26	0.00018308367
51	0xba094a59	-0.0005237214
52	0x38a609e8	7.917342e-05
53	0xb682e1a0	-3.900568e-06
54	0x390699fd	0.00012836601
55	0x37963c64	1.7909515e-05
56	0xb8b4132e	-8.586641e-05
57	0x37298422	1.01039495e-05
58	0x3813c428	3.5230216e-05
59	0xb8f5cabc	-0.000117202726
60	0xb63eda26	-2.8439185e-06
61	0xb9218f5e	-0.00015407565
62	0xb91f36e1	-0.00015183866
63	0x3c9c5f7f	0.019088505
64	0xb78db17b	-1.6891156e-05
65	0xb72aa141	-1.01703345e-05
66	0xbfc1bac4	-1.5135121
67	0x367501d7	3.6508916e-06
68	0xb71c0344	-9.299085e-06
69	0xb80ce786	-3.3594224e-05
70	0xb6cfe16b	-6.195323e-06
71	0xb7d15486	-2.49541e-05
72	0xb883bfe7	-6.2823114e-05
73	0x35bad424	1.3919821e-06
74	0xb6bb9948	-5.5908786e-06
75	0xb8de0f25	-0.00010588606
76	0xb62397e8	-2.4377314e-06
77	0x3eeaf0a0	0.45886707
78	0xb7e7c3dd	-2.7628552e-05
79	0xb85d0be4	-5.270158e-05
80	0xb8ce6768	-9.8421064e-05
81	0x399b17a0	0.00029581506
82	0xb93944f7	-0.00017668666
83	0x3a0017f0	0.00048863795
84	0xb998de85	-0.0002915749
85	0xb9653118	-0.0002185743
86	0xb7fd92c0	-3.0228286e-05
87	0xb9769bd1	-0.00023518434
88	0xb9c7b340	-0.0003808979
89	0x39f515e2	0.00046746345
90	0x3992bb27	0.0002798673
91	0xba34e84b	-0.00069010694
92	0x393f6582	0.00018252994
93	0x38da4284	0.000104074395
94	0x389f38ad	7.5922675e-05
95	0x389be1b4	7.4330164e-05
96	0xb997e548	-0.00028971792
97	0x38f61f0a	0.000117359756
98	0x39acb174	0.0003293861
99	0x393e36c9	0.00018140221

layer2.bias f4 [5]
0	0x37544794	1.265285e-05
1	0xb842969c	-4.639347e-05
2	0xb8174674	-3.606682e-05
3	0x3eecdd34	0.46262515
4	0xb8fb7842	-0.000119910124

layer3.weight f4 [1, 5]
0	0xb7219c33	-9.632716e-06
1	0xb675e85c	-3.6643096e-06
2	0xb5f75b88	-1.8429573e-06
3	0x3f26ea81	0.65201575
4	0xb86747ac	-5.514144e-05
