model/slide_nn_model_weights/trained_on_psphunter_nophasepro/dense_650_20_5_1_weights_8.pth (torch, 55366 bytes, 5 tensors)

layer1.weight f4 [20, 650]
00000000: 7794 22ba f078 09b9 1d2f c6b8 e8a9 a2b9
00000010: 8846 1bb9 4226 88ba b8fa d038 2cc1 9d39
00000020: d4bb 6339 babf 8db9 d2e4 533a dff9 43ba
00000030: 870a 0939 a0d5 2bb6 8e53 9239 4a6d 9cb9
00000040: 8ca0 bb38 ba19 fbb9 4498 003a a99a 4339
00000050: 365a c6b9 fefc 7e3a 3e31 bfb8 c514 ba39
00000060: 07d1 24b9 93f3 89b9 3c52 d839 78cc ac39
00000070: a79c 0b3a b99a feb9 a813 b1b9 ab3c 123a
00000080: 2117 0cba cac3 23b9 272d 5339 1a2c e439
00000090: 435f b2b9 1cc3 0438 2009 adb9 8807 4d39
000000a0: 7ebf 8fb8 0870 7537 b264 7d39 b90c 0aba
000000b0: 2c27 27b8 2c00 8539 84bc cbb8 71f1 8938
000000c0: a3f6 97b9 6e91 4339 2ba8 3cb9 1885 e738
000000d0: db71 3939 717a 37ba c4a9 eab9 3ccd 3e39
000000e0: e695 2dba a6b0 003a 23ab 51b9 00f5 7f38
000000f0: 7990 8139 ea3f d5b9 2202 86b8 13b2 14b9
00000100: c887 5fb7 52a2 a4b8 c4b6 74b7 7726 a2b9
00000110: 8267 9f39 ee3b b1b9 2d11 deb9 58ca bdb8
00000120: e4b2 d539 1270 473a 18c6 063a 20a4 5db9
00000130: f419 9939 b933 15b9 c874 07b8 40ca ff36
00000140: 4000 c836 0036 423a 4ade 06b9 7a00 c1b9
00000150: 002e a337 0914 7639 a2fb 3c3a 7f00 84b9
00000160: d2b5 a839 f014 f5b8 fb11 b7b9 c051 3c39
00000170: 680d a4b8 d492 56ba 694b a8b9 d952 f6b9
00000180: 9e9f 1aba 9a5c 3e39 a6fa bb39 08ef bab8
00000190: 59be 653a 651d 4dba d4c1 a0b9 5866 7f39
000001a0: cd5f 84b9 6af8 0239 d03e 41b9 4029 19b9
000001b0: 36b1 5039 ee56 183a 8c13 85b8 ddb0 bf39
000001c0: f7af d939 404f 95b7 90ef bc39 0880 1eb9
000001d0: 201c 57b8 22a3 8438 5fed f737 a03f 8cb9
000001e0: 0e44 ad39 4687 5339 d3ff 9fb9 946a 40b9
000001f0: 79b8 89b9 b4cf 4739 4ce1 193a fea2 a4b8
00000200: 61dc ef39 1806 00ba f611 8938 1c8f a938
00000210: 7899 2d39 dcf8 bb38 9162 033a d6c6 74ba
00000220: 1a52 5d39 fa72 bdb8 1093 97b8 46f9 ebb9
00000230: ec57 493a feac e739 760a 62b9 c0e4 2939
00000240: 349d 6fb9 34f4 b339 fa41 b1b9 08bd 25b7
00000250: b580 37ba cb06 023a 7b45 a9b9 0c5f 18ba
00000260: 9586 e9b9 2ccc 3b39 e48a 3dba 8a4d 16b9
00000270: b05b acb7 504a 88ba db41 fab9 3450 0939
00000280: 84b3 55b9 d8f0 b2b8 ee87 e5b9 60d6 1238
00000290: 30f4 acb9 8e68 86b9 bf05 ca39 882c 22b8
000002a0: 5362 53ba 2036 d737 00e6 9937 3318 cd39
000002b0: e0d1 7339 0862 c739 ad7f 0a3a 588b a839
000002c0: 6e09 8039 5816 c1b9 5a5d a239 588e e639
000002d0: 009f c8b7 6560 a239 4f70 74b9 7a16 37b9
000002e0: 5862 13ba 126a 11ba 34b8 4ab8 c03a 3637
000002f0: cf88 8139 f911 0b3a bc7d 43ba 42e6 4d39
00000300: eed2 aeb8 840e 1639 5a38 35b9 e5e3 12ba
00000310: 7d5c 99b9 f286 9438 e476 9138 9896 a238
00000320: b815 1aba c022 b0b6 20d2 8fb7 0eb7 ae39
00000330: fa66 9a3a f13d ed39 8c1d b338 eedf 8eb9
00000340: d1ef cc39 f61f 37b9 6174 6139 80fb c3b9
00000350: 4bd8 3ab9 d312 98b9 a302 7fba 509a 9f37
00000360: e87a 99b9 74c7 01ba e2e6 01b9 605b aa38
00000370: 50d5 ca39 8cbf a0b9 95e0 d1b9 3ace 303a
00000380: 9d91 a1b9 ee35 7c3a 94a5 a0b9 b411 44ba
00000390: 6c0b c839 492f 023a 0093 3436 2647 2c39
000003a0: df67 a539 c14a bfb9 0431 aeb9 f0b7 8e37
000003b0: f0f7 8d38 8d3c 2bba b251 0639 aa62 b3b9
000003c0: 8711 3b39 08db 3bb8 100d 67b9 ceee d1b9
000003d0: aef4 e438 bf28 4c39 bc62 8239 0d0f 353a
000003e0: d66f af38 3266 11b9 46dc dbb9 187c 42b8
000003f0: 2c20 8439 8a86 d4b8 7817 c2b9 6ca0 1339
-0.00062019326 -0.00013110391 -9.450151e-05 -0.00031025638 -0.00014808227 -0.0010387378 9.964913e-05 0.00030089298
0.00021718378 -0.00027036463 0.0008083108 -0.00074758934 0.0001306926 -2.5605332e-06 0.00027909543 -0.00029836065
8.946759e-05 -0.00047893618 0.0004905502 0.00018654265 -0.00037832715 0.000972703 -9.116762e-05 0.0003549216
-0.00015718128 -0.00026312153 0.0004126 0.00032958738 0.0005325772 -0.00048561933 -0.00033774716 0.0005578498
-0.00053440226 -0.00015617828 0.00020139349 0.00043520407 -0.0003402178 3.1652962e-05 -0.0003300393 0.00019553129
-6.8544396e-05 1.4629222e-05 0.00024165472 -0.0005266178 -3.9852384e-05 0.00025367865 -9.714908e-05 6.577641e-05
-0.00028984723 0.00018650826 -0.00017991725 0.00011039729 0.0001768539 -0.0006999141 -0.00044758443 0.00018196268
-0.0006621763 0.0004909135 -0.00019995547 6.102491e-05 0.00024712438 -0.00040674146 -6.390015e-05 -0.00014180718
-1.332345e-05 -7.850364e-05 -1.4586087e-05 -0.00030927706 0.00030403963 -0.00033804722 -0.00042355937 -9.049912e-05
0.0004075981 0.00076079473 0.00051412126 -0.00021137344 0.0002920177 -0.00014229016 -3.229527e-05 7.623137e-06
5.9604936e-06 0.00074085593 -0.00012862045 -0.00036812184 1.9452535e-05 0.00023467852 0.0007209127 -0.00025177372
0.00032178924 -0.0001168641 -0.00034917876 0.00017959531 -7.8226265e-05 -0.0008185331 -0.00032099642 -0.00046982503
-0.00058984186 0.00018154309 0.00035854167 -8.913694e-05 0.0008764021 -0.00078245095 -0.0003066199 0.00024356821
-0.0002524838 0.00012490308 -0.00018429314 -0.00014606584 0.00019902442 0.00058112934 -6.345575e-05 0.00036562132
0.0004152057 -1.7799088e-05 0.00036036642 -0.0001511575 -5.1286188e-05 6.324636e-05 2.9555229e-05 -0.00026750285
0.00033047836 0.00020172921 -0.00030517447 -0.0001835025 -0.0002626812 0.00019055494 0.00058700587 -7.850489e-05
0.00045749827 -0.00048837205 6.5360146e-05 8.085204e-05 0.00016555737 8.9632085e-05 0.0005011941 -0.000933749
0.00021106788 -9.033638e-05 -7.2276336e-05 -0.00045008416 0.0007680643 0.00044188643 -0.00021556937 0.00016202312
-0.00022851379 0.00034323486 -0.00033809227 -9.878779e-06 -0.0007000075 0.00049601187 -0.0003228596 -0.0005812503
-0.00044541495 0.0001790977 -0.0007230474 -0.00014334 -2.0546693e-05 -0.0010398123 -0.00047732782 0.00013095216
-0.00020380138 -8.532562e-05 -0.0004377956 3.5008765e-05 -0.0003298833 -0.0002563637 0.00038532724 -3.8665283e-05
-0.00080636627 2.5655201e-05 1.8346123e-05 0.00039118677 0.0002325247 0.00038029277 0.00052833074 0.00032147276
0.00024421088 -0.00036828476 0.000309686 0.00043975073 -2.3915898e-05 0.00030970867 -0.00023311492 -0.00017460613
-0.00056222593 -0.0005547117 -4.8332106e-05 1.0861724e-05 0.00024706728 0.00053051073 -0.00074573955 0.00019636101
-8.336255e-05 0.00014310522 -0.00017282498 -0.0005603417 -0.00029251343 7.0823255e-05 6.936284e-05 7.752812e-05
-0.000587787 -5.249254e-06 -1.7144775e-05 0.00033324253 0.0011779957 0.00045250313 8.540889e-05 -0.0002725119
0.0003908859 -0.00017464146 0.00021501027 -0.0003738068 -0.00017818918 -0.00029005724 -0.0009727871 1.9026134e-05
-0.00029274006 -0.00049506803 -0.00012388409 8.1232516e-05 0.00038687373 -0.00030660292 -0.00040030913 0.00067445973
-0.00030816803 0.0009621073 -0.00030640943 -0.00074794446 0.00038155483 0.00049661525 2.6907655e-06 0.00016429703
0.00031548642 -0.00036486055 -0.00033224386 1.7013372e-05 6.769586e-05 -0.0006532155 0.0001280967 -0.0003421505
0.00017840239 -4.4788263e-05 -0.00022034743 -0.0004004151 0.00010917462 0.00019470135 0.00024869095 0.0006906845
8.365481e-05 -0.00013866348 -0.00041935052 -4.6368776e-05 0.00025200972 -0.000101340076 -0.0003702005 0.00014078774

layer1.bias f4 [20]
00000000: 4aed 0239 5392 9839 b78a 34b9 0ef1 6a38
00000010: 84ea 5b3e ee10 6db9 3863 8c38 0ab9 5eb9
00000020: c654 a2b8 3842 bc38 ca6b c5b8 3b85 81bc
00000030: 5666 f838 fef8 3139 3e78 c239 0a7d eab8
00000040: 7e5c 2938 93ef 173a a038 a5b7 e0b6 84b8
0.00012486163 0.0002910072 -0.00017217813 5.6014447e-05 0.2147618 -0.00022608388 6.694201e-05 -0.00021240502
-7.740552e-05 8.976873e-05 -9.413769e-05 -0.0158106 0.00011844623 0.00016972792 0.0003709215 -0.0001118128
4.037888e-05 0.0005795892 -1.96959e-05 -6.3283136e-05

layer2.weight f4 [5, 20]
00000000: 1538 083a ce25 2b38 f68b dc39 c009 7db8
00000010: b81d a137 e81e 8bb9 ef8e 8438 0ab7 38b9
00000020: c08c 5fb9 4f70 60b9 0512 96b9 9ab9 2eb9
00000030: d88e 163a 5c11 d2b7 dcf4 a2b8 639e 5139
00000040: 5e86 ccb9 ee2f af39 ccdc b6b9 b1ed 11ba
00000050: 0006 8d34 dd77 a3b8 2df4 48b7 3aef 1db7
00000060: a000 c8bf b427 4cb7 c650 1b3b 4832 ffb7
00000070: 3679 d6b7 437f 75b6 68f4 3638 c09b c13e
00000080: 1805 e4b7 68a9 4636 1df1 d0b8 478b 5737
00000090: 411c 003d d82a ec37 e866 1038 fa82 553c
000000a0: 7c7e 3bb9 0378 4239 6285 4db9 c1d3 2f39
000000b0: 8679 73b9 ba0f 01ba dacb 3d3a f679 c138
000000c0: f83d 7e39 5bbc a539 27c3 063a 5c29 64b7
000000d0: 42cd ce39 d607 99b9 c052 74b7 24e6 8339
000000e0: 4098 e436 303e deb9 bc33 d7b8 fe31 2539
000000f0: 7813 0bb9 a834 2739 40f6 4b39 1a60 cd39
00000100: cc5d 51ba 8ecc be3a 37a0 a4b9 3446 ba39
00000110: ce24 4d39 52d6 8a39 5e9f f938 95d8 e5b9
00000120: 93ef 95ba 60ae 6cb8 b44c 073a 663d cf39
00000130: ba01 09b9 c83d 5cb8 b0d0 99b9 5a0e 83b9
00000140: 8674 cdb8 bdd7 0eb9 0090 0d36 c81d 73b8
00000150: 7619 eb3e 62f5 17b8 19d5 dd38 24c2 14b9
00000160: f439 31b7 3662 7d38 c147 dc39 dd8a 3b39
00000170: 8e76 26b7 2097 3b36 a802 3db8 72c3 0d39
00000180: 96fd d038 e013 59b7 34d1 7b37 7892 e136
0.0005196345 4.0804785e-05 0.0004206595 -6.032898e-05 1.9206534e-05 -0.00026535173 6.320874e-05 -0.00017615795
-0.0002131937 -0.00021404143 -0.00028623655 -0.00016663075 0.0005743331 -2.5042034e-05 -7.7703706e-05 0.00019990797
-0.00039010023 0.00033414311 -0.00034878252 -0.000556673 2.6267662e-07 -7.794772e-05 -1.1977781e-05 -9.4136285e-06
-1.5625191 -1.2168592e-05 0.0023699268 -3.0421783e-05 -2.5567231e-05 -3.658192e-06 4.3619802e-05 0.3781414
-2.718209e-05 2.9602907e-06 -9.963124e-05 1.2847427e-05 0.031276945 2.8153343e-05 3.4428114e-05 0.0130317155
-0.00017880829 0.0001854599 -0.00019600012 0.00016768185 -0.00023219557 -0.0004923303 0.0007240154 9.225674e-05
0.00024246413 0.00031611588 0.00051407743 -1.3599489e-05 0.0003944431 -0.00029188272 -1.45628e-05 0.00025157735
6.8126537e-06 -0.00042389473 -0.00010261635 0.0001575425 -0.00013263326 0.00015945977 0.00019451324 0.00039172248
-0.0007986694 0.0014556812 -0.00031399887 0.0003552899 0.00019564034 0.00026481092 0.0001190293 -0.0004383965
-0.0011439197 -5.6429184e-05 0.0005161271 0.00039527862 -0.00013065981 -5.2509626e-05 -0.00029337918 -0.0002499696
-9.796866e-05 -0.00013622544 2.1094456e-06 -5.796345e-05 0.45917863 -3.6229736e-05 0.00010577794 -0.00014186703
-1.0563515e-05 6.0411367e-05 0.0004201513 0.0001788544 -9.921974e-06 2.7953138e-06 -4.5063585e-05 0.00013519617
9.965447e-05 -1.2938835e-05 1.5009475e-05 6.7225737e-06

layer2.bias f4 [5]
00000000: f813 a3b9 dc82 e03e ec06 6238 e5ab 54b9
00000010: 36b9 34be
-0.0003110466 0.43849838 5.3889045e-05 -0.00020281931 -0.17648777

layer3.weight f4 [1, 5]
00000000: b239 5037 b9f2 623f 1a9c 2a38 bc4b 0db8
00000010: a891 e1bc
1.2411199e-05 0.88651615 4.067654e-05 -3.3687553e-05 -0.027535275
