model/slide_nn_model_weights/trained_on_psp_hunter_nonhuman/dense_650_20_5_1_weights_8.pth (torch, 55366 bytes, 5 tensors)

layer1.weight f4 [20, 650]
0	0xbea2c563	-0.3179122
1	0xbdd935d8	-0.10605973
2	0x3ee58181	0.44825366
3	0x3ef54802	0.479065
4	0xbf1cadc7	-0.61202663
5	0x3f0a2529	0.5396295
6	0xbe94f1bc	-0.2909068
7	0x3e7fa0f5	0.24963744
8	0x3f367c88	0.7128377
9	0xbfb1ffd7	-1.3906201
10	0xbf1d2d0b	-0.61396855
11	0xbdc9ce9e	-0.09853862
12	0x3ee5e946	0.44904536
13	0xbd83440d	-0.06409464
14	0xbefecfc0	-0.49767876
15	0x3ec3fd01	0.38278964
16	0xbe84f64c	-0.2596916
17	0x3f13039f	0.574274
18	0x3e4aae98	0.19793165
19	0x3d98aa04	0.07454303
20	0x3f0b9546	0.5452465
21	0x3f0ae214	0.5425122
22	0xbf1a4b28	-0.6027093
23	0x3dcd1109	0.10013015
24	0x3e95a18d	0.29224816
25	0x3ee189c2	0.44050413
26	0x3e346703	0.17617421
27	0x3f076a65	0.5289672
28	0x3f7d6d2e	0.9899472
29	0xbef86179	-0.48511866
30	0x3f5cac6b	0.8620059
31	0x3d19648a	0.037449397
32	0x3d8f78c0	0.07005453
33	0xbd51cb0f	-0.051219042
34	0xbe82e36f	-0.25564143
35	0xbcfea022	-0.031082217
36	0x3e5ddd0a	0.21666351
37	0x3eb2fbed	0.3495783
38	0x3eee6c0e	0.46566814
39	0x3e456105	0.19275291
40	0xbf32f585	-0.69905883
41	0x3edc495f	0.43024728
42	0xbf2f9ff9	-0.68603474
43	0xbeb43bd1	-0.35201886
44	0xbf1e5db5	-0.61861736
45	0xbe1c06dd	-0.15236993
46	0xbb2195b9	-0.0024655892
47	0xbbd5161a	-0.006502879
48	0xbebb7e16	-0.36619633
49	0x3efc8da8	0.49326825
50	0x3f58add7	0.8464026
51	0x3df33068	0.11874467
52	0x3e6a93f6	0.22908005
53	0xbe3edb3b	-0.18638317
54	0xbe630a7f	-0.22171973
55	0xbf1123fc	-0.5669553
56	0x3d290fef	0.04127496
57	0x3d7c5020	0.06159985
58	0x3e395ce0	0.18101835
59	0xbebc7e4c	-0.36815107
60	0x3e3ebd23	0.18626837
61	0x3cd42702	0.025897507
62	0x3dce40b5	0.10070936
63	0xbf458df8	-0.7716975
64	0x3e9b2b00	0.30306244
65	0x3f6bb74a	0.9207655
66	0x3f01e99b	0.5074708
67	0xbed310c5	-0.41223732
68	0x3f003baf	0.5009107
69	0x3f01c941	0.50697714
70	0x3f1c964c	0.61166835
71	0xbf237658	-0.63852453
72	0x3ef91153	0.4864603
73	0x3cd1270a	0.02553131
74	0xbf24f2d1	-0.6443301
75	0x3f2147db	0.6300027
76	0x3cea1e44	0.028578885
77	0x3f544d2c	0.82930255
78	0xbeb9d1ee	-0.36292976
79	0x3f87a535	1.0597292
80	0x3f943613	1.1579002
81	0xbd5c7ca1	-0.053829793
82	0xbcad5cf2	-0.021162484
83	0x3e6bad2c	0.23015279
84	0xbde3afe8	-0.11117536
85	0x3eed2cae	0.4632315
86	0x3bb6735d	0.0055679516
87	0xbe813785	-0.2523767
88	0x3f35cfaa	0.71019995
89	0x3cac1608	0.021006599
90	0xbe6e9e2f	-0.2330253
91	0x3f2b3942	0.66884243
92	0x3f1b6496	0.60700357
93	0x3e70a6bf	0.23501109
94	0x3ee34439	0.44387987
95	0x3e037119	0.12836112
96	0xbf8fa3a8	-1.1221819
97	0x3f47a3bf	0.7798423
98	0x3d89a124	0.06720188
99	0xbe8ab046	-0.2708761
100	0xbc3694b7	-0.011143855
101	0x3db839fd	0.089954354
102	0xbf7fe365	-0.9995635
103	0xbe51c5c9	-0.20485605
104	0xbc9d6435	-0.019212821
105	0x3d25d811	0.04048926
106	0x3e89667f	0.2683601
107	0x3e6df155	0.23236592
108	0xbfafcec7	-1.3734978
109	0xbcf60a3d	-0.030034179
110	0x3e8892cd	0.266745
111	0xbf2cd335	-0.67509776
112	0x3e46ed49	0.19426455
113	0x3f064462	0.52448094
114	0x3db5db98	0.08879775
115	0xbeaab284	-0.33339322
116	0x3dca4ed3	0.09878316
117	0xbe927b6e	-0.28609794
118	0xbf1de23e	-0.61673343
119	0x3eb556d2	0.354178
120	0x3e1f87c4	0.15579134
121	0xbd7a622e	-0.061128788
122	0xbdaf10bf	-0.08548116
123	0x3e161a9d	0.1465859
124	0x3ea827d4	0.32842886
125	0xbdf1d464	-0.118080884
126	0xbea4d3ca	-0.32192832
127	0xbd9b81eb	-0.07593139
128	0x3e6eccb2	0.23320273
129	0x3e9a3d03	0.30124673
130	0x3e5aab56	0.21354422
131	0xbe890b9e	-0.26766676
132	0x3e811a2b	0.25215277
133	0x3e34e041	0.17663671
134	0xbf0800d1	-0.53126246
135	0xbf04f9be	-0.51943576
136	0x3e9039b9	0.2816904
137	0x3ecf89aa	0.40534717
138	0xbe67b7cd	-0.22628708
139	0xbed2c92b	-0.41169104
140	0xbf2b381f	-0.6688251
141	0xbf701791	-0.9378596
142	0x3f1f4b31	0.6222411
143	0x3e1dc950	0.15408826
144	0x3e28b535	0.16475375
145	0xbe002881	-0.12515451
146	0xbe15237c	-0.14564317
147	0xbf03e7bb	-0.5152547
148	0xbecf3d86	-0.40476626
149	0x3eaa0cb6	0.33212823
150	0x3f0af159	0.5427452
151	0x3eb6174c	0.3556465
152	0x3e82035e	0.25393194
153	0xbef409e1	-0.47663787
154	0xbe235abb	-0.1595258
155	0x3f85bb35	1.0447756
156	0xbf0ef342	-0.5583993
157	0x3f4b67d5	0.7945531
158	0x3e87d2c9	0.26528004
159	0x3e677684	0.22603804
160	0x3ef4f2ba	0.47841436
161	0xbf375ce9	-0.71626145
162	0x3ea03a50	0.3129449
163	0xbcc3db00	-0.023908138
164	0x3ec0b7d5	0.37640253
165	0xbe189c95	-0.14903481
166	0x3bdf62be	0.006817191
167	0xbd4206cc	-0.047369763
168	0xbe908790	-0.28228426
169	0x3f007b7f	0.5018844
170	0xbf2564b5	-0.6460679
171	0x3ed2af05	0.41149154
172	0x3d0e94f9	0.03481004
173	0x3e190df3	0.14946727
174	0xbe9bf59f	-0.30460832
175	0x3e01b30a	0.12665954
176	0xbef4f253	-0.4784113
177	0x3e6593dc	0.22419685
178	0x3bd7c411	0.0065846522
179	0xbe95ad97	-0.29234
180	0x3f06e2db	0.52689904
181	0xbdefa189	-0.11700732
182	0x3e45e234	0.19324571
183	0xbada4864	-0.0016653654
184	0xbf968aa9	-1.1761066
185	0x3ea9f988	0.3319819
186	0xbe8c6dcb	-0.27427515
187	0xbe4ed5a8	-0.20198691
188	0x3eee1529	0.4650052
189	0xbdab690b	-0.08369645
190	0xbeddb696	-0.43303365
191	0x3d7a2071	0.061066095
192	0xbc8f1498	-0.017465875
193	0x3f8d1539	1.1022102
194	0xbe86c9ee	-0.26325935
195	0x3f939175	1.1528765
196	0x3e989e18	0.29808116
197	0xbf08451a	-0.5323044
198	0x3e755367	0.23957597
199	0x3e28e126	0.16492137
200	0xbf0cdedd	-0.5502756
201	0xbcff1c6a	-0.031141479
202	0x3f9c5793	1.2214226
203	0xbe37d95b	-0.17954008
204	0xbf08b0e4	-0.53394914
205	0xbde3aee4	-0.11117342
206	0x3f972dfd	1.181091
207	0xbf076a6e	-0.52896774
208	0x3f6a95a4	0.91634583
209	0xbe202654	-0.15639621
210	0x3de42808	0.11140448
211	0x3cba87ba	0.022769798
212	0xbf5811a4	-0.8440192
213	0x3f6fdaf3	0.93693465
214	0xbe918fc9	-0.28430012
215	0x3e8af3ee	0.2713923
216	0xbe9f0f98	-0.31066585
217	0x3ec66696	0.38750142
218	0x3e60814e	0.21924326
219	0xbf210bfc	-0.6290891
220	0x3e5000e9	0.20312847
221	0xbed1ddb7	-0.40989468
222	0x3d8bea5c	0.0683181
223	0xbf146bdd	-0.57977086
224	0xbf1eae5b	-0.61984795
225	0x3e6bdcd7	0.23033462
226	0xbe1fcce7	-0.15605508
227	0x3c85f0ba	0.016350139
228	0x3e89d7ca	0.26922446
229	0x3f318a59	0.69351727
230	0x3f0351a3	0.5129644
231	0x3dccc0db	0.09997722
232	0xbefa2171	-0.4885364
233	0xbd6d1110	-0.0578776
234	0x3e211eb2	0.15734366
235	0x3efa4bd6	0.48885983
236	0xbe81c31c	-0.2534417
237	0x3e8acf65	0.27111354
238	0x3e10f475	0.14155753
239	0x3d5a4276	0.05328604
240	0xbeb84d72	-0.35996586
241	0x3eda178e	0.42596096
242	0x3eb3486c	0.3501619
243	0xbe86cd9c	-0.26328743
244	0x3eabc453	0.3354822
245	0xbec910af	-0.3927054
246	0x3f482d66	0.7819427
247	0x3f84c7f4	1.0373521
248	0x3e1d8411	0.1538241
249	0xbe5ce139	-0.2157029
250	0x3e273be8	0.16331446
251	0xbdf1cfd4	-0.11807218
252	0x3edfc9cf	0.43708655
253	0x3ee1652a	0.44022495
254	0xbd3d0dd1	-0.046155754
255	0xbf612f64	-0.8796294

layer1.bias f4 [20]
0	0xbb0ed50b	-0.0021794464
1	0xbb42bc96	-0.0029714457
2	0xb9d9d865	-0.00041550692
3	0x3cae2b92	0.02126101
4	0x3bc3eda0	0.005979255
5	0x3c954428	0.018220976
6	0xbba0d5ec	-0.004908314
7	0xbca9b882	-0.020717863
8	0xba7dbe2e	-0.0009679523
9	0xbd0692dd	-0.032854903
10	0xbcc07d27	-0.023497177
11	0x3b4bb973	0.0031085878
12	0xbbbb3c89	-0.0057140035
13	0xbcca9bdf	-0.024732528
14	0xbc2d9f70	-0.010597095
15	0x3c48241e	0.012215642
16	0x3c70a0aa	0.014686743
17	0xbb1573e1	-0.0022804665
18	0x3df5f1b4	0.12008992
19	0x3ba2426d	0.004951766

layer2.weight f4 [5, 20]
0	0x3d46bb2f	0.048518356
1	0x3ec15598	0.37760615
2	0x3d165793	0.03670461
3	0x3eb50e62	0.35362536
4	0xbe43b910	-0.19113564
5	0xbeb38aa9	-0.35066727
6	0xbe2cdf0e	-0.16881964
7	0x3f4044ce	0.7510499
8	0x3d196789	0.037452254
9	0x3c403d31	0.011733339
10	0x3e470ea6	0.19439182
11	0x3c87d74c	0.016582154
12	0xbc800474	-0.015627123
13	0x3db63f12	0.088987485
14	0x3c2231d4	0.009899575
15	0xbdcc6aea	-0.0998133
16	0xbe20c7da	-0.15701237
17	0xbc192ca7	-0.009349025
18	0xbe83dc8c	-0.257542
19	0xbff82ee5	-1.9389311
20	0x3c02be94	0.007980008
21	0xbe537def	-0.20653509
22	0x3b5bd24c	0.0033542095
23	0x3d8d2851	0.06892455
24	0x3c2e4e35	0.010638763
25	0xbe6fe0ce	-0.234256
26	0x3d02a5d1	0.031896416
27	0x3e18e146	0.14929685
28	0x3bc6f549	0.0060717207
29	0xbe2b1086	-0.16705522
30	0x3dce8d58	0.10085553
31	0x3d515619	0.0511075
32	0xbe45dcdc	-0.19322532
33	0xbd8ca01f	-0.06866478
34	0xbeaff921	-0.34369758
35	0xbef0e205	-0.4704744
36	0xbcafebe9	-0.021474795
37	0x3e710ec2	0.23540786
38	0xbd1b90fa	-0.037980057
39	0xbf92bf6f	-1.1464671
40	0x3cc6d1c0	0.024269938
41	0xbce561ca	-0.028000731
42	0x3c3b7ac9	0.0114428485
43	0x3d0d3788	0.034476787
44	0x3cca9665	0.024729917
45	0x3c83ace9	0.01607366
46	0xbc571322	-0.01312712
47	0xbccf8d80	-0.025336027
48	0x3c45b36d	0.012066704
49	0xbe50e1f7	-0.20398699
50	0x3d1e945a	0.038715698
51	0xbc0c06b8	-0.008546524
52	0xbb5597d8	-0.0032591727
53	0xbd192865	-0.03739204
54	0x3ba1b710	0.004935153
55	0x3cbe1884	0.02320505
56	0xbd20e7b2	-0.039283462
57	0xbbd4b754	-0.006491581
58	0xbd5322e2	-0.05154694
59	0xbd417ce3	-0.047238242
60	0xbc40774e	-0.011747194
61	0x3c8ba56d	0.017046655
62	0xbb3e0a2e	-0.0028997767
63	0xbc847a2d	-0.01617154
64	0xbc7c0d4a	-0.015384028
65	0xbc597778	-0.0132731125
66	0x3ae181c1	0.0017204807
67	0x3cc81f21	0.024428906
68	0xba8dfed4	-0.0010833391
69	0x3d0587bf	0.03260016
70	0xbd0a20eb	-0.0337228
71	0x3d009b93	0.031398367
72	0xbc6391f2	-0.013889777
73	0x3c8e6e32	0.01738653
74	0xbb96c996	-0.0046016676
75	0xbd2325fd	-0.03983115
76	0x3d19b6c0	0.0375278
77	0x3b95be9e	0.0045698425
78	0x3cc8b90c	0.0245023
79	0x3cd177de	0.025569852
80	0xbc783856	-0.01515015
81	0x3d460d3e	0.048352472
82	0xbbc48113	-0.005996832
83	0xbd43a59a	-0.04776535
84	0xbca4119b	-0.020027926
85	0x3d1ae9bb	0.03782056
86	0x3b3f9f9c	0.0029239422
87	0x3d1c50ce	0.038163
88	0xbbd61b70	-0.0065340325
89	0x3d9aca2d	0.07558093
90	0xbd03d3fe	-0.032184593
91	0x3d1d3bc7	0.038387086
92	0x3d53c2ab	0.05169932
93	0x3ca5291e	0.020161208
94	0xbb5d5cd1	-0.0033777247
95	0xbc513aac	-0.012770336
96	0x3d1f2cb2	0.038860984
97	0xbca5923c	-0.020211332
98	0x3d377265	0.04478683
99	0x3cf7bb66	0.030240726

layer2.bias f4 [5]
0	0x3e0fc3ef	0.14039586
1	0x3edf6c40	0.43637276
2	0xbd1c8b9a	-0.038219072
3	0x3cc60938	0.024174318
4	0xbcb6b09d	-0.022301013

layer3.weight f4 [1, 5]
0	0x3f20b572	0.62776864
1	0x3d154005	0.036438007
2	0x3cab927e	0.020943876
3	0xbb5fbf6e	-0.00341412
4	0xbc39493a	-0.0113089625
