model/slide_nn_model_weights/trained_on_psp_hunter_nonhuman/dense_650_20_5_1_weights_9.pth (torch, 55366 bytes, 5 tensors)

layer1.weight f4 [20, 650]
000000 84 58 d2 be 51 41 8b bd 99 43 18 bf bc 59 e6 3c
       -0.41083157 -0.067995675 -0.59478146 0.02811896
000010 0e c5 5f 3f b2 ed c0 3d a8 c7 26 be ae 09 b8 bd
       0.87410057 0.09420337 -0.162871 -0.08986221
000020 af 27 9c bf 10 0f f8 3d 3e 31 90 3f 67 82 ba 3e
       -1.219961 0.12112248 1.1265028 0.36427614
000030 24 d4 ef 3e 81 88 36 3e c8 fa 00 3f 23 85 b4 be
       0.46841538 0.1782551 0.5038266 -0.35257825
000040 22 5a 6d 3f 5c bb 4b bd 11 db 02 bb 2d 94 bd be
       0.92715657 -0.049739227 -0.0019967 -0.37027112
000050 7c e7 a4 3e e0 53 84 bf 89 92 55 3f 7c 2b 6f be
       0.3220786 -1.0338097 0.8342672 -0.23356432
000060 9d cc 8f bf 3d c9 9b 3c 24 b4 02 bf db 43 37 bf
       -1.1234318 0.019016856 -0.5105612 -0.71587914
000070 79 6e b5 3e 79 a0 31 3f 83 62 3f bf 8e e8 92 3f
       0.35435846 0.69385487 -0.7475969 1.147722
000080 71 eb 55 be 8d f1 92 3d ac de 01 bf 72 05 e0 be
       -0.20890595 0.071749784 -0.50730395 -0.43754154
000090 52 89 33 3f e6 98 2c be bd 2b 3e 3e db 4d b8 be
       0.7013141 -0.16855201 0.18571372 -0.359969
0000a0 d7 c5 54 3f 7b 8c 13 3e 85 0b 40 bf c2 7a ef 3e
       0.8311438 0.14409058 -0.7501758 0.46773344
0000b0 ab f6 60 be fb 7e b1 3e 85 ce 3c bd de 4b 8d 3f
       -0.21969096 0.3466719 -0.04609539 1.1038778
0000c0 b3 c8 04 bf 26 43 fb 3d b0 56 06 bf 7e 15 a1 be
       -0.5186874 0.12268667 -0.52476025 -0.3146171
0000d0 37 87 07 3f d1 3f 0b bf 53 4a 1b be 44 8a 72 be
       0.52940696 -0.5439425 -0.15165071 -0.23685557
0000e0 f8 20 95 be b4 08 3f bf 17 a6 4e 3e f0 da 91 3e
       -0.29126716 -0.74622655 0.20180546 0.2848735
0000f0 d1 88 95 3f 5f 9c 4e bf af 47 10 3e d2 4b a0 3e
       1.1682378 -0.80707353 0.14089845 0.31307846
000100 c2 46 26 3f 84 1a f1 3c c8 8f 2d be 43 73 36 bf
       0.6495172 0.029431589 -0.1694938 -0.71269625
000110 1b f7 87 bf 33 50 1b bf c9 74 38 bf a0 1f 38 3f
       -1.0622286 -0.6066925 -0.720532 0.71923256
000120 f4 dd 0d 3e 0f 63 31 3e 12 8d a1 3e b9 fb 9b 3d
       0.138542 0.17322944 0.3155294 0.07616372
000130 60 b5 24 3e 72 68 a7 be b7 57 80 3f fd c4 6e bf
       0.16084814 -0.32696873 1.0026768 -0.9326933
000140 96 58 de 3d 41 2d 70 3e bf 64 a0 3f e3 02 81 3e
       0.1085674 0.23454763 1.2530745 0.25197515
000150 b9 91 c1 3f ac 4f 25 be ef 07 83 be eb 0e a5 be
       1.5122596 -0.16143674 -0.2559199 -0.32237944
000160 09 7b 61 bf 62 e3 1e 3f cc ce 40 bf ec fc a3 bf
       -0.8807836 0.6206571 -0.75315547 -1.2811561
000170 db 84 de 3e 78 6a 3a bf 5d b5 64 be 9f d9 71 3e
       0.43460736 -0.7281871 -0.2233481 0.23618172
000180 47 df 90 be e6 de 05 bf 07 0e 2f bf ac 98 55 3e
       -0.28295347 -0.5229324 -0.6838078 0.20859021
000190 ca a3 a4 3c 99 de 48 3e c4 df 4a 3e 86 cf ff be
       0.020097632 0.19616164 0.19811922 -0.49963015
0001a0 6c 89 95 3e 37 9c 93 3f 64 6a 2c 3d 61 44 79 3e
       0.29206407 1.1532048 0.04209365 0.2434249
0001b0 86 43 8a 3e ef 13 1c 3f 54 a5 94 3d 76 fd 84 3d
       0.2700464 0.60967916 0.07258096 0.06493656
0001c0 0b 58 c5 be 31 47 91 3d 44 d3 16 3f 44 fa 6c bf
       -0.38543734 0.07093657 0.58916116 -0.92569375
0001d0 79 94 34 3e 34 6a 10 3e 07 a2 58 3e 0e 98 4f bf
       0.17634763 0.14103013 0.21155559 -0.8109139
0001e0 c2 4c 93 be 94 1d 8d 3e 16 d8 48 be bb 8a 83 bf
       -0.287695 0.2756163 -0.1961368 -1.0276712
0001f0 bb 65 99 3e ab e4 99 3e 23 52 30 3d 50 f5 0f 3e
       0.29960427 0.30057272 0.04304708 0.14058423
000200 73 6c 73 be 04 bc 80 bd 12 47 79 bf 97 22 14 3f
       -0.23771839 -0.06285861 -0.9737407 0.5786528
000210 07 b7 55 3e 45 54 bc bd 47 0e f4 3e 3c 95 dd 3e
       0.208706 -0.09195761 0.47667143 0.4327792
000220 b1 27 38 bf 31 c0 35 bf b7 77 27 be 29 41 42 bf
       -0.71935564 -0.70996386 -0.16354261 -0.75880677
000230 f7 aa 1b 3f b9 16 4b 3e 70 ac c9 be ab d1 13 bf
       0.60807747 0.19832887 -0.39389372 -0.577418
000240 4f 3d 59 bd 7c e8 05 3f f5 0d 36 3f f2 e0 e2 3e
       -0.053036984 0.5230787 0.71115047 0.44312245
000250 b9 46 16 bf e5 ec 5c 3e 7f 17 2c 3f 56 63 0b bd
       -0.58701664 0.21574743 0.6722335 -0.03403028
000260 20 1e 84 be 2b 47 0c be 7f f4 e8 3e d1 34 f9 be
       -0.25804234 -0.13699023 0.45499036 -0.48673108
000270 18 1e a7 be 3a 05 41 3f dd 7e ca be bd a5 b1 be
       -0.32640147 0.753986 -0.39549914 -0.3469676
000280 60 f6 42 bd 4a fe 8b 3f 11 34 22 bf 02 cf c7 3e
       -0.047598243 1.0936978 -0.633607 0.39025122
000290 17 0f a6 be de d3 4a 3d d3 08 5a 3e ec 07 9d be
       -0.32433388 0.04951846 0.21292429 -0.30670106
0002a0 96 14 86 be 00 7c 68 3f 8c 01 3f be 5c 7e 8a 3e
       -0.2618758 0.9081421 -0.18652934 0.2704953
0002b0 b3 57 39 3e 2a 61 a9 be e7 d4 f6 3c 7a 97 02 3f
       0.18099861 -0.33081943 0.030130817 0.51012385
0002c0 3c 25 6a bd 89 94 6a bf 2b dd 3a bf 70 e9 58 bd
       -0.057164416 -0.91632897 -0.72993726 -0.052957
0002d0 65 4c 37 bf a0 12 1a bf 86 3f 2f 3f 5f 69 2e 3f
       -0.71600944 -0.6018467 0.68456304 0.68129534
0002e0 07 2d da 3d 0f 99 08 3f 6a cf d7 3e d7 b8 81 bd
       0.106531195 0.5335855 0.42150432 -0.063340835
0002f0 54 60 76 bf e9 bc fa be 06 2e a1 3e a5 ea 1d 3f
       -0.96240735 -0.48972252 0.31480426 0.61686164
000300 80 91 3c 3f 16 b7 9b bf 09 4c 61 bd 36 36 31 bf
       0.73659515 -1.2165248 -0.055004153 -0.69223344
000310 62 1e 3c bf 2e 92 50 3f 2a b1 cd be 2c 0f 05 3e
       -0.7348386 0.8147305 -0.40174228 0.12994069
000320 4e 3e 02 be 23 8e be 3c 95 f7 8e 3e d8 24 5b 3e
       -0.1271908 0.023261135 0.27923265 0.21400774
000330 d9 b8 d5 3e ef d7 ff be 41 76 1d bf 2a fd 4f be
       0.4174259 -0.49969432 -0.61508566 -0.20311418
000340 90 12 e5 be c3 56 72 bd ed 6f 9f bd 38 88 09 bd
       -0.44740725 -0.059164774 -0.0778502 -0.033577174
000350 5c 94 bb 3f 08 17 8a 3d 5f 49 95 3d 88 90 1e 3d
       1.4654651 0.06742674 0.07289385 0.038712054
000360 ec 74 e0 be 3c 74 c5 3e 51 7f 16 bf d2 19 26 be
       -0.43839204 0.38565242 -0.5878802 -0.16220787
000370 d6 51 2c bf be ec b5 3c 38 11 1d be 25 f7 0b 3f
       -0.6731237 0.022207614 -0.153386 0.5467399
000380 30 ef 4f 3f 8d 3b 97 bf 78 c2 e2 3e f6 14 9b bf
       0.81224346 -1.1815048 0.44288993 -1.2115772
000390 d1 56 9a be e2 b3 f1 3e b0 1a 75 3d 0c 88 f4 be
       -0.3014436 0.47207552 0.059839904 -0.47760046
0003a0 98 0c 99 be f8 85 c5 3e 19 6a 0d bf 5e a8 80 3d
       -0.2989242 0.38578773 -0.5524002 0.062821135
0003b0 8d 74 6e be 21 81 7a bf f3 e4 53 3f 5b 96 1f 3f
       -0.23286648 -0.97853285 0.82771224 0.623388
0003c0 c8 b7 1a be de c6 96 be 9c d9 56 be 33 4d 30 3f
       -0.1510917 -0.294486 -0.20981449 0.68867797
0003d0 ec 53 77 be d7 b4 93 bd b4 91 ab 3e 08 cd 0a bf
       -0.24153107 -0.07212227 0.335096 -0.542191
0003e0 ed f9 43 3f f6 66 f6 bd 29 68 00 bf 10 a6 e6 3e
       0.7655323 -0.12031357 -0.50158936 0.4504857
0003f0 6e 6a c5 bf cf 26 ee be 31 87 b1 3f b4 e0 12 3f
       -1.5423105 -0.46513984 1.3869382 0.5737412

layer1.bias f4 [20]
000000 02 99 9d 3c 53 a5 32 ba f6 2b f6 3a bc 56 c4 39
       0.019237999 -0.00068147964 0.0018781412 0.00037448655
000010 17 65 66 bc 4d d1 a3 3b 75 6d a7 bc c9 e9 c5 3c
       -0.014062188 0.004999316 -0.020437935 0.024159329
000020 44 19 f3 bb b7 89 de bc 58 d0 16 38 84 ce ab bc
       -0.0074187834 -0.027165277 3.5956822e-05 -0.020972498
000030 d3 c6 35 3c 5d c0 b2 3b 48 44 40 ba c1 48 5d ba
       0.011094767 0.0054550604 -0.00073343934 -0.0008441322
000040 25 48 94 3b ce e9 36 39 57 d3 0a bc 18 5d 65 38
       0.004525202 0.00017443972 -0.008473239 5.4684555e-05

layer2.weight f4 [5, 20]
000000 90 8b 0d 3e 66 da e9 3b 61 7e 06 bd af f7 2c bd
       0.1382277 0.007136631 -0.032835368 -0.042228397
000010 63 02 f5 bf 0c 0f 04 bd 77 30 9d 3c 55 19 c2 3e
       -1.9141353 -0.032240912 0.019188149 0.37909952
000020 f5 08 4a bd 99 d0 09 be 3c 4e b1 ba 2b 98 60 be
       -0.04932495 -0.1345848 -0.0013527344 -0.21933047
000030 e9 40 dd be 2b 2d 21 bd 8a ea ba bf 79 cf 5f bc
       -0.43213585 -0.039349716 -1.4602826 -0.013660305
000040 15 d6 50 bd 85 e0 15 bc 06 a7 40 3e 4f 03 48 bc
       -0.050985415 -0.009147768 0.18813714 -0.01220782
000050 93 ad df bd 85 d7 c0 bb 21 75 90 3c 6e c5 fa 3c
       -0.109217785 -0.005885067 0.017633976 0.03061172
000060 23 ca ec 3f 69 47 83 3c f1 fb c9 bc 3a bc a9 bc
       1.8499187 0.016025262 -0.024656268 -0.020719636
000070 d4 bd 07 3d ff d5 99 3d 06 f7 87 3a 17 dc 18 3e
       0.03314002 0.0751152 0.0010373301 0.14927708
000080 77 f1 d1 3e c9 22 cc 3c 11 9b ab 3f f3 93 57 ba
       0.41004536 0.02491893 1.3406698 -0.0008223645
000090 49 d7 22 3d fa 58 7c 3b 34 bb e0 be 4c 44 ca 3a
       0.039756093 0.0038505183 -0.43892825 0.0015431731
0000a0 06 cc 86 bc c8 64 84 bc 37 da 9d bc 51 9f 62 bb
       -0.016454708 -0.016161337 -0.019269092 -0.0034579823
0000b0 de c7 ba bd bb d7 28 bc cb 8d 2c bd aa 05 84 bb
       -0.09120153 -0.01030534 -0.04212741 -0.0040289955
0000c0 5e cc 27 3d 7b f4 a9 bc 80 ae 4f bb a0 fb 54 bc
       0.040966384 -0.02074646 -0.0031689703 -0.012999445
0000d0 e4 1f 03 bd c2 04 8b bc 47 d3 8a 3d f7 0f 8a 3d
       -0.032012835 -0.016970042 0.06778579 0.06741326
0000e0 0c 68 49 bb 42 93 72 bc 5b bd 3f bc 80 93 e7 ba
       -0.0030732183 -0.014805617 -0.011702861 -0.001766786
0000f0 39 c3 03 3e c4 47 2a bb e0 8f 7b bb a3 ad 06 bd
       0.1286744 -0.0025982717 -0.0038385317 -0.032880437
000100 a4 d9 6d bc c7 40 1b bb d7 af 39 bd 82 2f 8a bd
       -0.014517222 -0.0023689733 -0.04533371 -0.06747343
000110 49 ba 8e 3d 32 10 47 bb 4e 7d 8b b7 20 08 dc bc
       0.06969125 -0.0030374643 -1.662844e-05 -0.026859343
000120 25 14 56 bb 4c 5c 5e bb fb 49 cd 3a 69 77 18 bb
       -0.0032665816 -0.0033929525 0.0015662307 -0.0023264533
000130 ad 39 9e ba 21 8e 36 bb 9a c4 8b bb 02 f6 af ba
       -0.0012071632 -0.0027855712 -0.00426538 -0.0013424756
000140 9f b0 bb 3d 24 a4 04 bc 52 1e c9 bb 45 1d 55 3d
       0.09164547 -0.008095775 -0.0061376477 0.052029867
000150 ac 62 0c 3b 58 57 cf bb 87 94 81 bd 18 eb 94 bd
       0.0021421118 -0.006327551 -0.063271575 -0.07271403
000160 3b 9b f1 3d e7 9b 70 bb 1a 25 74 bb d1 ab 70 bc
       0.11797186 -0.0036714019 -0.003725356 -0.014689402
000170 cd be fa bb 0d 93 8f bb fa 72 47 3d 75 26 34 3c
       -0.0076521398 -0.0043815435 0.048693635 0.010995497
000180 ad 1b cb bb 57 a1 ae bb 15 6e 2f bd 3e a1 43 bb
       -0.0061983676 -0.005329292 -0.04282959 -0.0029850747

layer2.bias f4 [5]
000000 b2 ef 48 3e 17 9e c4 be 75 a3 98 3c 40 4e 94 3c
       0.19622687 -0.38401863 0.01863263 0.018103719
000010 26 2f 38 3c
       0.01124171

layer3.weight f4 [1, 5]
000000 04 b5 ff 3e 4f b2 7f be f3 99 b7 bb c0 bf 21 bb
       0.4994279 -0.24970363 -0.005603069 -0.0024680942
000010 da 37 82 bb
       -0.003973943
