model/slide_nn_model_weights/trained_on_psp_hunter_nonhuman/dense_650_20_5_1_weights_13.pth (torch, 55376 bytes, 5 tensors)

layer1.weight f4 [20, 650]
00000000: 337d 103d a920 06bd bcc6 fcbd e3f4 5a3b
00000010: c76c 923c d7a1 e83e ad0c b23d e410 9d3e
00000020: 8d52 773d 8083 2dbe 17b2 94bd 1eaf b53e
00000030: 629a cabd 26f0 a83e 409a bdbe ca70 a03d
00000040: b6f8 2abf 7e55 2e3c 93c0 313e 9f95 543e
00000050: c51c 74be 25d9 bb3c 92fe 7bbe 40f3 253e
00000060: 861c 07bd b13c 423e 6421 f83e b2f6 fcbe
00000070: b89a 733d 2a3d 81be 0e99 303f cbca c13c
00000080: 0a46 a7be 357a e63e 74e4 b13c 7e54 2abe
00000090: 9342 a53d 5578 073e 7571 6d3e 0d90 5f3e
000000a0: 6867 97be 5151 f73e a354 75be e050 9cbd
000000b0: 4b11 123e 39c5 0c3e 9b2b adbd 4ac0 0b3d
000000c0: ff53 813e b503 b3be d078 883e 155f 5ebe
000000d0: 119d 003f a6c4 c53d fac8 f8be bfba 92be
000000e0: 20d4 89be ecd6 0b3f 31f7 56bd 0369 ecbe
000000f0: 49d6 a5be 0a98 373d bf1d 103e 5d28 1fbd
00000100: 34d6 7ebe 783d f53e 24b1 8039 e7c7 71bc
00000110: 4d2a 403f c1bb a43e fa13 383e 95bd 86be
00000120: 74ee 663e 99ff f53e 0435 7a3e 14bb 373d
00000130: 0987 f0be 7eaf 3b3e 6ec9 68be 578d ba3e
00000140: a217 50be 30d3 353e e69d c0be ce26 113d
00000150: 06e3 7b3d e2aa 8ebe 61c3 0fbe c107 b4be
00000160: 9063 b73e 27b5 e5bd fedb cbbe 6a51 d53e
00000170: c068 cd3e 8e8b 3cbd 4843 26bd 2247 7bbe
00000180: 7bd0 4bbe 25c1 983e ec08 083e f6de 593e
00000190: ce99 413d 105e d33b cfca eabe d8fb 113e
000001a0: 8127 f5be 0f87 06bf affb 703e 687d 8fbe
000001b0: 628e f5be c185 973e 35bb 033f c1ba 33be
000001c0: 5f67 67be bc9a 6e3e c09d 0d3f 5a41 a23d
000001d0: 9adb 01bc 1cb4 f7bc 01d2 623e a8b0 35bc
000001e0: df74 f93e 3999 a5be c495 bebd 403e b23d
000001f0: aef8 b63e 0c55 d4bd d4c8 47be 7e8f 4e3e
00000200: 42ec 2bbe 478b 193f 3b1c bd3d 555a f6be
00000210: 24fd 09be 71ea 95bd 7d1f 17bf 6b63 093c
00000220: 775e 12be ed8c c5bd 09de 7d3e a917 c5be
00000230: 597e b73d a61c ba3e b1e3 273e 121b 853e
00000240: 6214 79be 561f 563d 0004 fcbd 16a0 ecbd
00000250: e116 72be 4315 693d 9af7 cdbe 3793 c6be
00000260: d66f 6a3e 8ded c9bd 9806 87be 3ae7 6b3e
00000270: 8c32 113f d1cb 13be 7a64 143f 3cb1 b73d
00000280: 0d24 6e3e 7e57 26bf 68bb 563d d764 c5bd
00000290: 8711 183f 47ea d0be d8a7 f3bd f92b cdbe
000002a0: dd4b 73bc af0f 303e 7809 babd d137 d13d
000002b0: 560e e5be 0e13 983e 4d79 0dbf f3e8 0d3e
000002c0: f4d8 3f3e 2051 dc3e bb20 d8be 865c 4ebc
000002d0: 375a bc3e 796d 2fbe 55b4 c7bd 72ec 20bf
000002e0: eb5b d3be 546d 44bf 05d3 a1be 92fb a1be
000002f0: 6d28 d53d 131e 9cbe e1a1 c33e 2788 91bc
00000300: 2806 523d a73d 8c3e 4c55 a9be 0d63 263f
00000310: 267e 6abe adb7 2dbe 9765 663e c8d4 493d
00000320: f8de 54bf 4eac c33d d42b 263f fdc1 8dbe
00000330: 7056 5cbd a9fb 1dbe ad92 f73e 64a9 ef3d
00000340: f256 7bbe 663d 893d 4279 c3bd fad0 c7be
00000350: 9810 4abc abcc 333e 2fb3 87be f4bc 0b3e
00000360: 98b6 06be 22a0 89be 507a 853e a103 78bd
00000370: af42 f23a e38a 62be 2057 843d e8b5 18bd
00000380: 7d5a f93d d78d 873e e790 443e b7fd 843e
00000390: 94cd babe d4d6 1d3e 4538 093f 04e6 86be
000003a0: 9cad a9bd 8671 35bd becd a93e 22ee 3d3e
000003b0: 9fa1 efbe d8c4 a33e 337d b83e 1776 0cbd
000003c0: 6c8c 9a3e 61a3 223f 2f61 3fbe 0cea 473e
000003d0: 24ce a13e 1d27 453e 7e5f 1ebe 036c 183e
000003e0: e2a6 59be 5952 74bd 1a6e 9b3d 3d41 563e
000003f0: a6e1 80bc 8c0b ab3e 4fcb 963e f0aa a8bb
0.03527565 -0.03274599 -0.12342593 0.0033410124 0.017874135 0.45435974 0.08693824 0.3067695
0.06038146 -0.16944695 -0.072605304 0.35485166 -0.098927274 0.3299572 -0.37031746 0.07834013
-0.6678575 0.0106405 0.17358617 0.20760201 -0.238391 0.022930691 -0.2460883 0.16206074
-0.032986186 0.18968464 0.48462975 -0.49406964 0.059473723 -0.25241977 0.6898354 0.02365627
-0.32670623 0.45015112 0.02171538 -0.16633794 0.08069339 0.13229497 0.23187812 0.21832295
-0.2957108 0.48304227 -0.23958068 -0.07632613 0.14264409 0.1374711 -0.08455583 0.034118928
0.25259396 -0.34963766 0.26654673 -0.21715958 0.50239664 0.09656648 -0.48590833 -0.286581
-0.2691965 0.5462482 -0.052481834 -0.46173868 -0.3239005 0.04482273 0.14073847 -0.038856853
-0.248864 0.4789846 0.00024546043 -0.014757133 0.75064546 0.32174495 0.1797637 -0.26316515
0.225519 0.48046568 0.24434286 0.044856146 -0.46978024 0.18328664 -0.2273309 0.3643596
-0.20321515 0.17756343 -0.37620467 0.035437398 0.061495803 -0.27864748 -0.14039375 -0.35162166
0.35818148 -0.11216193 -0.39816278 0.41663677 0.4011898 -0.046031527 -0.04059151 -0.24538854
-0.19903748 0.29834858 0.13284653 0.21276459 0.04726582 0.006450422 -0.45857856 0.14256227
-0.47881702 -0.52549833 0.2353351 -0.28025365 -0.47960192 0.29594234 0.5145753 -0.1755171
-0.22598027 0.23301214 0.5531883 0.07922621 -0.007925892 -0.03023725 0.22150423 -0.011089481
0.48721978 -0.32343462 -0.09305909 0.087032795 0.35736603 -0.10367784 -0.19510204 0.20171925
-0.16789344 0.59978145 0.092339 -0.48115793 -0.13475472 -0.07320107 -0.5903242 0.0083855195
-0.14293848 -0.0964602 0.24791731 -0.38494614 0.08959646 0.36349982 0.16395451 0.25997216
-0.24324182 0.052275978 -0.123054504 -0.115539715 -0.2364154 0.056905042 -0.40227968 -0.3878419
0.22894225 -0.09859762 -0.26372218 0.23037425 0.56717753 -0.14433219 0.57965815 0.08969352
0.2325594 -0.6497725 0.05242482 -0.09638374 0.59401745 -0.4080374 -0.11897248 -0.4007261
-0.01484963 0.17193483 -0.09083837 0.10215724 -0.447375 0.29702038 -0.55263215 0.13858394
0.18735105 0.43030643 -0.4221247 -0.0125953015 0.36787578 -0.17131604 -0.097511925 -0.62860787
-0.41281065 -0.7672932 -0.31606308 -0.31637245 0.10408101 -0.30491695 0.3820944 -0.017765118
0.051275402 0.27390787 -0.3307289 0.6499489 -0.22899684 -0.16964598 0.22499691 0.04927519
-0.83152723 0.09554349 0.64910626 -0.27687064 -0.05379337 -0.15428032 0.48354092 0.117022306
-0.24544886 0.06701164 -0.095446125 -0.39026624 -0.012333058 0.17558543 -0.26503894 0.13646299
-0.13155591 -0.26879984 0.2606988 -0.060550336 0.0018483008 -0.22123294 0.0646193 -0.037282854
0.121754624 0.26475403 0.19195901 0.2597482 -0.3648497 0.15413982 0.53601485 -0.26347363
-0.082850665 -0.044297718 0.3316478 0.18547872 -0.46802995 0.31986117 0.3603302 -0.034292307
0.30185258 0.63530546 -0.18689416 0.19522876 0.31602585 0.19253202 -0.15466115 0.14884953
-0.21255067 -0.059648845 0.075893596 0.20923324 -0.015732598 0.33407247 0.29451987 -0.0051473305

layer1.bias f4 [20]
00000000: a743 2f39 cfac bd3c e1cb 353a 9450 a1b7
00000010: efda b638 7d47 71bb 9a70 46bb f821 323b
00000020: 6ce1 d7bb 3e70 95b8 ce0f 6d39 e74e 0abc
00000030: 7f9c 20bd 3923 fdbb 57e2 deb7 241e 853a
00000040: 1072 61ba 23e2 9abd 4ce4 c939 7fce 92bc
0.00016714503 0.02315369 0.00069349824 -1.9230218e-05 8.719216e-05 -0.0036816292 -0.0030279518 0.0027180891
-0.0065881517 -7.1257804e-05 0.00022607969 -0.008441663 -0.039211746 -0.007725146 -2.656986e-05 0.0010156077
-0.00086000655 -0.075626634 0.00038507802 -0.01792073

layer2.weight f4 [5, 20]
00000000: e026 93bc f4aa d3bd 3ca8 44bd 1797 6ebc
00000010: 2d3d 303c 9210 c4bd c4c0 633f 67f8 cfbc
00000020: bbdb 5ebf df51 07bd 48d6 9d3c e803 973e
00000030: 3a16 733e ee68 eebf 0a47 e9ba 7c94 da3c
00000040: 8f93 683d 19b5 343e 76de 093e 0ae5 c8bf
00000050: 1147 32b9 309d 9abc d0b7 58ba b93a 27b9
00000060: 47bd 7a3c 2669 d93c 574b 2d3c 4e35 28bd
00000070: 3100 80ba 92af 3cba 8b25 47ba e29f 5b3c
00000080: 42fe 21bd 4e33 77bd 8e1f 09ba 3c38 b2ba
00000090: cd2f 98ba c3c5 713d 7cb6 92bd 8d3e a83b
000000a0: ced7 c5bc 522b 27bc 1c48 d9bb 999a fb39
000000b0: 69c2 04bc 7754 163e 7119 c83d 4b0c af3c
000000c0: 692a 4eba ced3 37bd 147f d3bb 22b4 47bd
000000d0: 2217 11bd 1fb6 c33c ac3f d837 4a43 0f3d
000000e0: 5ae5 4bbd d000 6c3d 285f 723e 4a3f c2bd
000000f0: 8e1c 39bb f341 ff3c d674 e139 54b0 10ba
00000100: 5a52 9cb7 e086 293d ed91 003e 6bc5 a03b
00000110: 15a6 5dba 53e0 f7ba f8b7 8538 99e3 2bbc
00000120: 84ac d939 c1d2 533d 82fd 3739 0b64 293d
00000130: f6c4 3339 3943 83bc fbea 033e 37ed 84bd
00000140: 3cd0 783a b671 e33c d38b 643a 355b dc3a
00000150: b9fe 77bd 2fbb a23b c28a 9d3c 538b 853d
00000160: c163 863a e1a3 e3bb ca53 b43a dd9b 33bd
00000170: 91fc 893c 710b c53d d886 96bb d643 123d
00000180: ae4f 893a 022c 1fbc fc55 ef3d 706f f5bd
-0.017962873 -0.10335341 -0.048012003 -0.01456239 0.010756773 -0.09573473 0.8896601 -0.025387002
-0.8705403 -0.033037063 0.019267216 0.29495168 0.23738948 -1.8625772 -0.001779766 0.026682131
0.056781348 0.17647208 0.13463768 -1.5694897 -0.00017001877 -0.018873781 -0.0008267136 -0.00015948237
0.015303916 0.026539396 0.010577044 -0.04106646 -0.0009765682 -0.0007197793 -0.0007596842 0.013404818
-0.03954912 -0.060351662 -0.0005230837 -0.0013597081 -0.0011610925 0.05902649 -0.071637124 0.0051344098
-0.024150755 -0.010203199 -0.0066309106 0.00047989635 -0.008102992 0.14680658 0.097704776 0.021368166
-0.0007864596 -0.044879727 -0.006454358 -0.048755772 -0.03542245 0.023890553 2.5778856e-05 0.03497628
-0.049779274 0.057617962 0.23669112 -0.09484728 -0.002824578 0.031159377 0.00043002394 -0.0005519439
-1.8634997e-05 0.041388392 0.12555666 0.0049063466 -0.0008455229 -0.0018911458 6.376201e-05 -0.010491275
0.00041518 0.051714662 0.00017546679 0.041355174 0.00017144144 -0.016023265 0.12882607 -0.06490558
0.00094914786 0.027764183 0.0008718345 0.001681185 -0.060545657 0.0049661617 0.019231204 0.065207146
0.0010253118 -0.006947026 0.0013757881 -0.043849815 0.016844066 0.09621323 -0.0045937113 0.035709225
0.0010476017 -0.009715082 0.11686322 -0.11984146

layer2.bias f4 [5]
00000000: 1c24 003e 7d2e 5bbc f6ef 633d 9627 8fbb
00000010: 3cd5 d23c
0.12513775 -0.013377783 0.055648766 -0.0043687327 0.025736444

layer3.weight f4 [1, 5]
00000000: dc93 0d3f f714 11bc 9b87 9a3b 6d63 ef3b
00000010: 2e3b 753c
0.5530374 -0.008855096 0.0047158725 0.0073055536 0.014967723
