model/slide_nn_model_weights/trained_on_psp_hunter_nonhuman/dense_650_20_5_1_weights_18.pth (torch, 55376 bytes, 5 tensors)

layer1.weight f4 [20, 650]
00000000: 4329 cabe ea5b 413b 033a a0bd 87c0 1c3f
00000010: 9139 fe3c 5fa0 bdbe 536e 30bf c829 95be
00000020: 2221 04be 0394 83be a49a afbe b880 a5be
00000030: a6d5 76be 4d3b 2b3c d6ab 213e 53da 723e
00000040: 9bdc bd3d 6a5b f93e ef6f 36bf dc06 1d3f
00000050: 2023 c6be 9971 95be 45e9 22bf d70f c3be
00000060: 5467 0ebe f028 0c3f 5d2e 16bf 847b b23d
00000070: d4b6 dd3d 7632 1b3e dd02 0ebe 8da0 f2be
00000080: 6c19 503e 4471 4fbd 4295 873e 5f47 17be
00000090: c031 3fbf 5a88 b5be 35a7 413e ae46 e73c
000000a0: 0f22 ad3a cd41 cc3c 4038 e0be 781d babd
000000b0: 67da d33e c0b7 973e c32c 003e d0ca 2d3c
000000c0: cf07 0fbe c582 693f 2f6d 6dbd 30de c33e
000000d0: bf5a 213e f6f0 e0be a025 703e b622 18be
000000e0: 5f8f 1cbd d014 36bc f61a 1dbe b248 ce3e
000000f0: 32a8 49be 1d8d d0be b6da 163e a41b 2dbe
00000100: ddea df3e f308 b73c 76d3 4c3e 976b 283e
00000110: 6c03 7e3f 0ded 43be 45a4 cebd e43e 5b3d
00000120: 2dcf acbe 99de e5be bbb7 f9bd 86ea bdbd
00000130: 7cb7 a13d ae0a 0a3e d08e 17bc acd7 ef3e
00000140: dafb d63e 3f74 74bd f55c 1bbf 53e4 8cbe
00000150: 5039 b6bd d4c6 37be 1d71 cd3e c00a 5c3d
00000160: 90c9 683e 83dd 463e fdca 283f 3b3d 603e
00000170: 1f27 b83e c548 c8be 5a39 f33e 142c 15be
00000180: 39f3 a2be 28b6 59bc 99e1 23be 5960 d5be
00000190: 6bb0 5c3e a0cf 88be ba28 0abf eab3 f73c
000001a0: db55 59be 41c9 203e 3fe2 adbe 1868 d43d
000001b0: 728b debe be6b 2fbf de8b bb3e 6f7c 633c
000001c0: 0283 973d a385 813d c3f2 9fbd a22f 22bf
000001d0: 610d 653e dd25 4dbc 341b 9e3e e054 893d
000001e0: 40d1 a2be 7786 a0bd aae9 143c a65e 2e3e
000001f0: 89cd 72be e939 d93e 6e91 2d3e 3b63 a63d
00000200: 0665 2d3e af5f 573e d637 af3e 5bc1 f0be
00000210: 45cb 3ebe c0ad 67be d648 e63e 97bb ffbe
00000220: 50c9 933e 234a 9cbd 9c28 023f 9b44 393f
00000230: 9072 1d3e d36e 18bf b2cc 66be 1dee ac3e
00000240: 6ff7 d53e 9700 d4be cb6d 8dbe 8983 28bd
00000250: 0a11 88be 8c1b 4dbd 6581 053f 200c e43e
00000260: dba2 14bd 205a db3d 51be 65be fd80 ca3e
00000270: 9a8a cabe cd53 613e ecf3 62be 4ef3 28be
00000280: 4234 8fbe 43aa 81be daac 99be cc62 98bd
00000290: 55f1 2dbe d128 e13e 5665 083e 6b66 1d3f
000002a0: b738 a03e e7be 40bf 3c59 8cbe 947b 3dbe
000002b0: e742 7d3e 470c edbe 0425 523d a8d4 33be
000002c0: 48fd 12bd 0f59 87bd 71dd a33e da04 d03d
000002d0: 1997 fc3d 2105 c33e 79b2 20bf e38c 08bd
000002e0: 84d0 cbba 23f0 343f debb e7bc 6774 123d
000002f0: b8b7 b63c 96a2 a1bd 19f5 ac3e 747a 9e3d
00000300: bddc cdbe 17ea 5d3e 4bcb db3e f7eb 983d
00000310: dd19 19be e937 9c3e b297 4d3e 4931 11be
00000320: 110f f33d 4384 5f3d 0475 87bd b135 acbe
00000330: 9841 61bd f14e 57be 489d 8a3e e69b 423e
00000340: 8781 be3e e7a3 b7bc 3478 1f3f 1e7f 813e
00000350: 2647 9abd 48ae d63e fbda ac3e 4f03 86be
00000360: 39c1 98bd 7be1 21be 848d 1f3f bbdf 84bd
00000370: b6b6 573f 84e0 a23d 7967 913e a4ef 1a3d
00000380: 8973 553e 1182 5bbe 2491 b1be 9f36 003f
00000390: b9bd 023f dbf2 29be 820d 443e 5a3c d5be
000003a0: 5ed3 1abe 283f 15be 91f4 2bbe 9cee 053e
000003b0: e05a f3bd 9d74 82be f88a 1f3f 6007 413e
000003c0: e338 813c dbb6 f23c 0c26 c33e f888 42bf
000003d0: cc50 b3be dd6e 9cbe 9bd6 5b3e b397 283e
000003e0: 7a41 0f3f 0637 05be 6389 ab3e 3ac2 1dbd
000003f0: 4097 8b3e f729 8bbe 70ec 1dbf 55c5 2cbf
-0.39484605 0.0029504248 -0.07823565 0.61231273 0.03103331 -0.37036416 -0.6891834 -0.2913344
-0.12903264 -0.2569886 -0.3429767 -0.32324767 -0.24104938 0.01045115 0.15788206 0.23716097
0.09270593 0.48702556 -0.7126455 0.6133859 -0.38698673 -0.2918823 -0.6363719 -0.38098022
-0.13906604 0.54749966 -0.58664495 0.08714965 0.10825887 0.15155968 -0.1386828 -0.47388116
0.20322198 -0.050645128 0.26481062 -0.1477332 -0.7468529 -0.3545559 0.1891144 0.028231945
0.0013209003 0.02493372 -0.43792915 -0.09087652 0.41377565 0.29632378 0.12517075 0.010607436
-0.13967822 0.91215163 -0.057965454 0.38255453 0.15757273 -0.4393384 0.23451853 -0.14856991
-0.038222667 -0.0111133605 -0.15342316 0.40289837 -0.19693068 -0.4073266 0.14731869 -0.16905075
0.43733874 0.022343135 0.20002541 0.16447292 0.9922397 -0.19133396 -0.10089926 0.053526774
-0.33751813 -0.4489639 -0.12193247 -0.092732474 0.07896325 0.13480636 -0.009250358 0.46844232
0.41989022 -0.059681173 -0.60688716 -0.27517948 -0.0889765 -0.1794694 0.4012536 0.05372119
0.2273314 0.19420438 0.65934736 0.21898358 0.35967347 -0.3911802 0.47504693 -0.14567596
-0.3182619 -0.013288058 -0.16004027 -0.4167507 0.21551673 -0.26720905 -0.53968394 0.030237157
-0.21224158 0.15701772 -0.33961675 0.10371417 -0.43465763 -0.68523777 0.36630148 0.013884648
0.07398035 0.06324317 -0.07809975 -0.6335393 0.22368385 -0.012521234 0.3088013 0.06705642
-0.3180027 -0.07838147 0.009088913 0.17028293 -0.23711218 0.42426994 0.16950008 0.081243955
0.16933069 0.21032594 0.34222287 -0.4702252 -0.18632229 -0.22624874 0.44977444 -0.49947807
0.28864527 -0.07631328 0.50843215 0.7237031 0.15375733 -0.59544104 -0.22539023 0.33775416
0.4179034 -0.414067 -0.27622828 -0.041141067 -0.265755 -0.0500751 0.52150565 0.445405
-0.036288124 0.10710549 -0.22435881 0.39551535 -0.3955887 0.22004624 -0.22163361 -0.16499063
-0.27969557 -0.25325212 -0.30014688 -0.07440719 -0.16986592 0.43976453 0.13319907 0.614844
0.3129327 -0.75291294 -0.2741183 -0.18504173 0.24732552 -0.4629843 0.051304832 -0.1756159
-0.03588608 -0.066087835 0.32004884 0.10157175 0.12333507 0.3808985 -0.6277233 -0.033337485
-0.0015549813 0.7067892 -0.028287824 0.03575554 0.0223044 -0.07892339 0.33780745 0.077382
-0.40207472 0.2167133 0.42928538 0.07466882 -0.14951272 0.30511406 0.20077398 -0.14178957
0.11868108 0.054569494 -0.06614116 -0.33634713 -0.054994196 -0.21026208 0.2707312 0.19004783
0.37208197 -0.022417022 0.6229279 0.25292295 -0.07533102 0.4192984 0.3376082 -0.261744
-0.07458729 -0.1580867 0.6232531 -0.06487986 0.8426317 0.07952979 0.28399256 0.037826195
0.20844854 -0.21436335 -0.34681046 0.50083345 0.51070744 -0.16596548 0.19145778 -0.41647607
-0.15119693 -0.14574873 -0.16792513 0.13079304 -0.118825674 -0.25479594 0.62321424 0.1885047
0.015774196 0.029628208 0.38114965 -0.7599025 -0.3502258 -0.30553332 0.21468584 0.16464119
0.55959284 -0.13009271 0.33503255 -0.038515307 0.27263832 -0.27180454 -0.616889 -0.67488605

layer1.bias f4 [20]
00000000: 5fc5 f738 504c 08bc 8215 ee39 ef17 37bd
00000010: dac2 a239 5072 fc3a 98bd 84b7 b9d7 703b
00000020: 8248 a33d 0528 cebc 5ac5 afb9 fec5 823c
00000030: e97e eabc d65f 46bc 3f18 9fb8 7d7d aabb
00000040: 86d9 943a 244d 773a bd4b 083c 893d cd39
0.00011814641 -0.008318976 0.00045410922 -0.04470056 0.00031044224 0.0019260142 -1.5823913e-05 0.0036749674
0.07972814 -0.025165567 -0.0003352564 0.01596355 -0.028624969 -0.01210781 -7.586227e-05 -0.0052029477
0.0011356331 0.0009433797 0.008318839 0.00039146494

layer2.weight f4 [5, 20]
00000000: 5a65 833c 11fd 48bb b48a eaba a656 ffbc
00000010: aa4d 21bb 6471 32bb 35be 11bb 0d27 b53c
00000020: d025 903d 64ce f2bc d987 dbba c6c1 e6bc
00000030: e440 6a3b 768a de3d 7ca2 57ba e216 2ebe
00000040: c149 69bb 7230 0dbb 3d9e d73d 0a19 55bb
00000050: f886 aebc 6dad 8cbe d57f 2cbc ef3f 153e
00000060: f687 49bd a923 cabc 1a15 523b 566f adbe
00000070: 5259 313c 14aa 00c0 2f60 9a3c c8eb ba3e
00000080: bd76 b7bf 3aa6 57bd 1c1d 8d3c 7aff df3e
00000090: 36ca efbc 4271 b9bc dbd9 b2bc 08ed d4bc
000000a0: e620 873c 6049 cd3c a3d1 203d ee26 e33b
000000b0: 5b26 d33c 39db ab3b 5085 c73c 559f 993d
000000c0: a326 263d f7b3 8e3d 8244 743b 020c 95bc
000000d0: 4509 bd3d 9a5f ae3c 562f 49bb 2bfd 83bd
000000e0: 3160 b73b 7da5 f63b a739 203d b650 563c
000000f0: 48b5 fd3b 5838 1bba e2fa b8b9 0e3c a0b9
00000100: d1ca 07ba ca58 45ba bef5 85b9 fb01 c6bb
00000110: f5c5 533d d17c 95bc 3143 47b9 c440 c0bb
00000120: 52fa 43bb 2989 8d3d a1e6 9e3b cc2d 6fbd
00000130: f2bb cab8 e9b5 a2b9 8cfd c43d 0ee4 61ba
00000140: a167 023a 827a 453b 024a 2c3a c6fb e13b
00000150: 8026 093b 1079 253b aad6 4a3b 67d3 033b
00000160: dc7b 6bbd 1210 59bc 662d 913a 6c3f f4ba
00000170: 306e f1b9 64d5 383b 68bf 8339 c69b 273b
00000180: 1d30 173a 90e9 5a3a ff7f 263c 1d77 8a3a
0.01603954 -0.0030668417 -0.001789412 -0.031169247 -0.0024612942 -0.002722823 -0.0022238616 0.022113347
0.07038462 -0.02963943 -0.001674886 -0.02816857 0.0035744244 0.10866253 -0.0008225811 -0.17000917
-0.003559694 -0.0021543768 0.105282284 -0.0032516145 -0.021304592 -0.27476063 -0.010528524 0.1457517
-0.049201928 -0.024675207 0.0032056035 -0.33874005 0.010824518 -2.0103807 0.018844692 0.36508012
-1.4333111 -0.05264876 0.017225794 0.437496 -0.029271226 -0.022637013 -0.021832397 -0.025991932
0.01649518 0.025059402 0.039262425 0.006932131 0.025775125 0.0052446392 0.02435556 0.07501093
0.04056419 0.06967919 0.003727228 -0.018194202 0.09230284 0.02128582 -0.003069838 -0.06444772
0.0055961837 0.007527052 0.03911748 0.013080766 0.0077425577 -0.00059211766 -0.00035282137 -0.00030562322
-0.00051800633 -0.0007528184 -0.0002555083 -0.0060427166 0.05170246 -0.018247994 -0.0001900315 -0.0058670957
-0.0029903841 0.06910927 0.0048492705 -0.058393285 -9.667118e-05 -0.00031034581 0.09618673 -0.00086170516
0.00049745484 0.0030132835 0.00065723073 0.006896469 0.0020927489 0.002524916 0.0030950704 0.002011502
-0.05749117 -0.01324846 0.0011076152 -0.0018634624 -0.00046049198 0.0028203363 0.00025128876 0.0025575026
0.00057673623 0.00083508436 0.010162353 0.0010564063

layer2.bias f4 [5]
00000000: 6087 59bd 3992 7b3e 77f3 d7bc a1c1 20bd
00000010: 3df4 27bc
-0.05310762 0.24567498 -0.02636121 -0.03924716 -0.010251102

layer3.weight f4 [1, 5]
00000000: 4467 87bc 380a 0c3f eed9 a43c 3401 acbb
00000010: f97a 473c
-0.016528733 0.5470309 0.020123448 -0.005249167 0.012175315
