model/slide_nn_model_weights/trained_on_psp_hunter_nonhuman/dense_650_20_5_1_weights_12.pth (torch, 55376 bytes, 5 tensors)

layer1.weight f4 [20, 650]
000000 7a b4 d0 3d 8d 90 03 3b 14 57 a8 3e 0c 14 84 be
       0.10190673 0.0020075173 0.32878935 -0.25796545
000010 f3 1c b2 3a ae 13 54 be 04 90 78 be 50 f3 48 3e
       0.001358895 -0.20710632 -0.24273688 0.19624066
000020 26 75 08 3f fd 4c 53 3f 1d 5d 87 bd 6d 4a 20 bf
       0.53303754 0.8253935 -0.06609557 -0.62613565
000030 9a 13 a8 be 1b 6f 1d 3e f0 13 1e 3f 38 d5 f8 3d
       -0.32827455 0.15374415 0.6174917 0.12150043
000040 b1 f8 a2 be 0a 48 60 3c 87 ea b5 3d e0 3c 06 3e
       -0.3183036 0.01368905 0.08882623 0.1310916
000050 a5 22 09 3f 99 60 6a bf a0 bb 21 be be 09 1e 3e
       0.5356849 -0.91553646 -0.1579423 0.15433404
000060 92 59 e3 3e 12 c4 83 be 3b 7e f9 be 71 2a ec 3e
       0.44404274 -0.25735527 -0.4872912 0.4612613
000070 f9 e0 38 be cf ef 87 3e b4 c8 d7 bd 5c c2 38 3d
       -0.1805457 0.26550147 -0.10536328 0.04510723
000080 cd 94 40 3e 28 c8 69 3e d5 28 25 bc bb 80 0a 3f
       0.18806763 0.2283026 -0.010080536 0.5410268
000090 ce 3c 0b bf 2e 40 30 bf 54 ca 2a bf f8 c7 60 be
       -0.54389656 -0.6884793 -0.6671498 -0.21951282
0000a0 63 03 2d be ea 77 41 bf 4b 36 53 3e a2 cf 77 be
       -0.16895823 -0.755736 0.2062618 -0.242003
0000b0 e7 26 ab 3e cb a2 5e be 10 7d ab 3d ba 88 09 be
       0.33428118 -0.21741788 0.08373463 -0.13431063
0000c0 54 7a 48 bf 54 a1 80 be ef dc bf be a5 cb bc 3e
       -0.7831166 -0.25123084 -0.37473246 0.36874118
0000d0 ac a7 80 be 62 29 fb 3e 59 81 c0 3d 74 5f 84 3e
       -0.25127923 0.4905501 0.09399671 0.25854075
0000e0 89 57 a0 3e bf 7d 4c be 94 81 93 be f6 5f 7a 3d
       0.31316784 -0.19969843 -0.28809798 0.06112667
0000f0 46 73 11 bf be 62 9e be 01 95 47 3e 52 1a 4d be
       -0.5681652 -0.3093471 0.19490434 -0.20029572
000100 de fe 8f be 49 66 77 be 06 19 1d 3e 53 51 aa bd
       -0.28124136 -0.24160112 0.15341577 -0.083162926
000110 a1 8f 17 3f 1a 5e 8c 3e f0 a5 7d 3e c5 00 6d bd
       0.59203535 0.27415544 0.24770331 -0.057862062
000120 23 2e 4b 3e 6e cb 57 bf 45 fb 93 3e 9e 1c 88 be
       0.19841819 -0.84294784 0.2890264 -0.26584333
000130 e0 5b 4a be 82 0d 08 3e 7f 12 13 3d c3 01 0c 3e
       -0.1976161 0.13286403 0.03590631 0.13672547
000140 4f 79 a8 3c 0c 11 53 3f 0c 31 f1 3e 52 aa 1f bf
       0.020565657 0.82447886 0.47107732 -0.62369263
000150 b7 16 27 3c 2c 80 00 3e d6 08 0a bf df a2 2b 3e
       0.010198287 0.12548894 -0.5391973 0.16761349
000160 00 2e b3 3e 2b 78 25 be fb d2 7f 3e b2 04 6c 3e
       0.34996033 -0.16159122 0.24982826 0.23048666
000170 21 ea a6 be a3 66 41 bf 89 67 95 bd 35 a2 10 3e
       -0.326005 -0.75547236 -0.072951384 0.14124377
000180 75 aa f6 bd b9 88 b1 be 31 9a 30 be d0 ad 34 3f
       -0.12044231 -0.34674624 -0.1724632 0.70577717
000190 5c 0f d6 3e 9d 4c 77 be c4 d6 11 3f 91 58 5f be
       0.41808593 -0.2415032 0.5696833 -0.21811129
0001a0 6f 7e 10 bf 79 92 38 bf df 31 e5 be 05 46 23 be
       -0.5644292 -0.720985 -0.4476461 -0.15944679
0001b0 2b 91 a6 be 2a ea 85 3a cd 78 14 bc 72 5d 02 3f
       -0.3253263 0.0010216881 -0.009062004 0.50923836
0001c0 18 40 79 be 6e 18 77 3e 9f 11 d9 be 89 b8 08 3e
       -0.24340856 0.24130413 -0.42396256 0.13351645
0001d0 3c 41 90 3f a1 59 e0 3d 0f b5 32 3e ab 11 1d 3d
       1.1269908 0.10954595 0.17451881 0.038346928
0001e0 c1 03 09 bf 9f 49 11 be b6 62 b8 be c8 4e 2f 3e
       -0.53521353 -0.1418824 -0.3601281 0.17119896
0001f0 2c 50 a0 3d f9 a5 a4 be 07 31 01 bd ff a3 29 be
       0.078277916 -0.32157877 -0.031540897 -0.16566466
000200 60 9a ad 3e a9 8a e1 be 8a 23 87 3e c1 2e 2f bf
       0.3390684 -0.44051102 0.26394302 -0.68430716
000210 38 89 c5 3a 3c 55 bd be 72 2d ce 3e fd 90 00 bd
       0.0015070802 -0.3697909 0.40269047 -0.03138827
000220 0f b2 b7 3e 76 ed 9e 3d 8e 0e 65 3f 88 74 29 3f
       0.35878035 0.07760136 0.89475334 0.6619344
000230 72 61 9e 3e cc 06 7a be 52 d6 95 3d 31 1e b3 3e
       0.3093372 -0.24416655 0.07316269 0.34983972
000240 92 8e 6f 3d 71 61 1a bf 99 16 a0 be 34 7b 34 3e
       0.058485575 -0.60304934 -0.3126724 0.17625123
000250 73 c4 42 3f d1 e8 f9 bd bc 5a c5 3d 49 4b b9 bc
       0.7608101 -0.12202609 0.09636447 -0.022618907
000260 b1 d6 9d be 64 c9 df 3d 0f 78 da 3d 3a 32 c1 be
       -0.3082786 0.10927084 0.106674306 -0.37733632
000270 76 f2 85 be e2 f0 92 bd 7d ad 7a 3f 24 1e d2 be
       -0.26161546 -0.07174851 0.9792097 -0.4103862
000280 48 07 a6 be bf 0e d3 3e d9 5d 8e 3e 01 fe 1d 3f
       -0.3242743 0.41222188 0.27805975 0.61715704
000290 6e c7 41 be b0 d9 c5 3e 8f 8d 34 3f 69 4b 0a 3f
       -0.18923733 0.38642645 0.705285 0.54021317
0002a0 14 66 d2 bd b2 68 be 3e b1 19 80 be 8f 45 39 bf
       -0.10273376 0.3718925 -0.250196 -0.72371763
0002b0 8b 4a 18 3f 8d 49 29 bf 33 06 68 3d 7a 4e da be
       0.59488744 -0.66127855 0.056646537 -0.42637998
0002c0 d9 24 0a bf 9a 29 e2 3e b8 a8 96 3d 01 7a a9 be
       -0.53962475 0.44172364 0.07356399 -0.33100894
0002d0 e7 aa db be 39 7f ec 3e 20 85 da be e5 a2 c0 be
       -0.42903826 0.46190813 -0.4267969 -0.3762428
0002e0 c9 ee 3b 3e c1 3a 83 bf 09 11 ab 3e cf 37 37 3e
       0.18352808 -1.0252305 0.33411434 0.17892383
0002f0 c8 5b db bd b5 2f 12 3f 8f 4e a1 be c2 a9 27 3f
       -0.10710865 0.57104045 -0.31505248 0.65493405
000300 26 99 42 bf 04 11 15 bf b0 19 52 3e c4 71 87 bf
       -0.76014936 -0.5822909 0.20517612 -1.0581594
000310 76 2b 3c 3e b3 23 cc be 4d c3 9d be 2e 39 bd 3d
       0.18375954 -0.39870986 -0.30813065 0.09239422
000320 f1 ba 00 3f c6 b3 d5 bd 55 05 8b bf 66 e6 4e bc
       0.5028525 -0.1043468 -1.0861002 -0.012628173
000330 5d da e1 be 49 e4 a2 3e 73 24 d3 be 80 f2 65 3e
       -0.4411191 0.31814793 -0.41238746 0.22455788
000340 2a 04 88 be 63 87 f1 be 69 4d fb be d5 06 ba 3d
       -0.26565677 -0.47173604 -0.49082497 0.09083334
000350 14 2a f9 bd f1 06 cc bd 65 6b 59 be 60 f4 44 bf
       -0.12166229 -0.099622615 -0.21232374 -0.76935387
000360 65 ed 2a 3e 16 be 4d bc ee 65 48 bf f9 df 5e 3f
       0.16692121 -0.012557527 -0.7828053 0.87060505
000370 a5 35 4f 3f 8f 91 07 3f 38 df b8 be b0 bc 78 3f
       0.8094123 0.5295648 -0.36107802 0.97162914
000380 60 ea a4 3d bd 35 73 be a9 cc 17 bf 03 8e 58 3d
       0.08052516 -0.23750968 -0.5929666 0.052869808
000390 a3 c2 64 be 15 4e 99 be 6b 9d 59 bd 0d 62 b3 be
       -0.22339873 -0.29942384 -0.05312864 -0.35035744
0003a0 36 60 2d 3e e8 cb 92 3e 4d a1 1e 3e db 6c 98 be
       0.16931233 0.28671193 0.15491219 -0.2977055
0003b0 3d 11 9c be f9 47 29 be 9f b2 bd 3e 18 9a 6d be
       -0.30481902 -0.16531362 0.3705034 -0.23203313
0003c0 ba 66 a3 3e 47 08 52 be 8a c2 c4 3d d6 5e 88 bc
       0.31914312 -0.2051097 0.09607418 -0.016646784
0003d0 9b b3 86 be d6 79 36 be 4e 5a e5 be 8f c9 f9 bc
       -0.26308903 -0.17819914 -0.4479546 -0.030491618
0003e0 29 5f 91 3e dc e0 25 be 2f c8 5b bc 38 6d 05 3e
       0.28392914 -0.16199058 -0.013414427 0.13029945
0003f0 47 fb 18 3f 3e b8 39 3c 83 76 35 3e 5f 91 81 3f
       0.5975842 0.011335431 0.1772099 1.0122489

layer1.bias f4 [20]
000000 9f ef bc bc 8a f5 65 3c ee 63 6e 3d 1b cf 83 bc
       -0.023063479 0.014035592 0.05820077 -0.016089967
000010 32 08 fb bb 5b bf a5 bc de 9f dc 3b 92 45 91 bb
       -0.007660889 -0.020232847 0.006732925 -0.0044333423
000020 36 ba fd ba e8 97 6c 3b 5d 5d 9c 3c fd 08 bb bc
       -0.0019357863 0.0036101285 0.019087488 -0.022831434
000030 cc b1 60 bc 5a 63 1c 3c c6 de a9 bb 9d 24 4a 3c
       -0.013714265 0.009545172 -0.0051840274 0.012337831
000040 b1 15 64 3c 6c 7b 69 b8 e4 84 4f 3a ff cd e0 39
       0.013921187 -5.5666475e-05 0.00079162256 0.00042878088

layer2.weight f4 [5, 20]
000000 3f 42 b8 3d de 83 1e 3d 48 ae 37 3b fa 3d 79 bc
       0.089970104 0.038699977 0.0028027464 -0.01521253
000010 75 cf 79 3c d1 31 b2 3b 40 d8 5e 3d 91 f2 11 be
       0.0152472155 0.0054380675 0.05440545 -0.14252688
000020 9b 85 f1 3c cc 48 25 3d 34 d3 b0 3c 7b cc 16 bc
       0.029482653 0.040352628 0.021585084 -0.009204025
000030 21 85 fd 3c ec a9 c4 3c 58 fe d1 bc bc 32 8c 3b
       0.03094727 0.024006806 -0.025633976 0.004278509
000040 63 bb b4 3c 5a 16 00 3c 9a 28 52 3d 4d de 7e 3c
       0.02206201 0.007817829 0.051308252 0.01555593
000050 7e 6d 05 3e 13 89 a3 3c 93 8f 8b 3c 97 55 81 bc
       0.13030049 0.019962823 0.017036235 -0.015787883
000060 ed cb 19 3d 86 d0 ba 3c d9 77 f3 3c 79 1a 27 be
       0.037547994 0.02280451 0.029720234 -0.16318692
000070 bb 13 a2 3b 8b 9a ab 3c 95 db 85 3b 84 b9 5a 3b
       0.0049461997 0.020947715 0.004085014 0.0033374736
000080 17 91 f4 3c 28 f8 c0 3c ff d7 56 ba 38 da 5c 3a
       0.02985434 0.02355583 -0.0008195638 0.0008424851
000090 75 d0 c4 3c 07 cf 28 3b 6d ac b5 3c 68 fb d3 3a
       0.024025181 0.0025758164 0.022176946 0.0016172947
0000a0 72 22 07 bf 0b 0f 8b bd 07 23 37 bd af 93 a8 bd
       -0.52786934 -0.067899786 -0.04471114 -0.082312934
0000b0 ce 01 7e 3e a3 0a 68 be a7 4e 21 bc bf a5 ba 3c
       0.24805376 -0.22660308 -0.009845412 0.022784112
0000c0 3c 67 7d 3e 03 fd 03 3c 86 2c 9e 3e ca 10 95 bf
       0.24746412 0.008055928 0.30893344 -1.1645749
0000d0 03 8e ab 3d 4c c3 4f bf e7 42 40 bd 54 f0 f8 3b
       0.08376696 -0.81157374 -0.046938803 0.0075970087
0000e0 4d db f9 be 1e 8e ba bc 9f 1c e0 3c 35 68 93 bd
       -0.48800126 -0.022772845 0.027357398 -0.0719761
0000f0 c5 95 52 3e 9f b6 13 be ce 37 7e be 94 b8 74 3e
       0.20564945 -0.14425133 -0.24825975 0.23898536
000100 8f fc 7a 3e 86 93 80 be 22 f6 f1 bd 22 a0 45 3c
       0.24510406 -0.2511255 -0.11814524 0.012062104
000110 2d e7 93 bd 90 d3 d0 bc 4a 7b 45 bf 8d 89 c7 bf
       -0.07221828 -0.025491506 -0.7714125 -1.5588852
000120 c8 36 c6 3d fb a4 c8 be 22 74 0c bf cd 44 bf 3c
       0.096784174 -0.3918837 -0.54864705 0.023348236
000130 62 a3 7f bf 7c 5a 72 bc 92 0b f1 3c 17 0f bf bc
       -0.9985868 -0.014792081 0.029424462 -0.023322625
000140 9d 34 7f 3d f5 9b a6 3c 61 70 a7 3c 9e 71 74 bc
       0.062306035 0.020338038 0.020439329 -0.014919667
000150 31 24 96 3c 8e e0 27 3a 39 14 f6 3c 2b fc 05 bd
       0.018327804 0.00064040057 0.03003894 -0.03271119
000160 dd 66 e1 3c 28 47 b7 3c 86 dd a6 3c 4a 09 7c 3b
       0.02751487 0.022372797 0.020369302 0.0038457685
000170 0e 21 16 3d 7e 90 e4 3c b3 1a 00 bc 2a b0 22 3c
       0.036652617 0.02790093 -0.007818866 0.009929696
000180 08 be db 3c 82 ef 76 3a 1c 25 d1 3c 38 40 e9 3d
       0.026824012 0.0009419845 0.02553039 0.11389202

layer2.bias f4 [5]
000000 7a 26 e2 bb d9 5e eb bb 3e 95 9b 3e 9e e8 34 3e
       -0.0069015594 -0.0071829376 0.303873 0.17666861
000010 ca de 77 3a
       0.00094555004

layer3.weight f4 [1, 5]
000000 23 f0 92 bc 5e 4d 26 bb e9 aa 40 3e 08 14 1d 3f
       -0.017936772 -0.0025375704 0.18815197 0.6135869
000010 ad 03 07 bc
       -0.0082406225
