model/slide_nn_model_weights/trained_on_psp_hunter_nonhuman/dense_650_20_5_1_weights_3.pth (torch, 55366 bytes, 5 tensors)

layer1.weight f4 [20, 650]
-1.6257914 -0.2669516 0.6670777 0.24044733 -1.4615853 -0.3825614 0.9241621 1.0982938
-0.11080335 -1.167557 -0.55101645 1.270404 1.1813635 -1.3446394 1.8228308 0.44751883
-0.61929566 0.62936866 -0.123124234 1.6430455 -0.88791823 -0.024678389 -0.34432092 0.8256451
-0.35821825 0.5072372 -1.1393839 1.266959 1.5179001 0.52630794 0.77384263 -0.8069288
-0.16377133 -0.58079815 -0.78217274 0.04349521 1.8639357 -0.93598527 -0.7655889 0.09795994
-1.0141844 0.26451233 1.4243891 -0.26998323 -1.2308073 -1.6798884 0.06568211 -1.4570491
0.5771516 2.0273993 -0.7588922 -0.12695259 -1.5033525 -0.2623601 -0.62924576 -1.1207668
-0.7260179 -0.94856256 -0.1608316 -0.75429094 1.0892214 -1.0633688 0.072938204 -1.5324949
0.61019164 -1.4483039 -0.1791579 -1.2284315 0.3537838 0.10473027 1.0825794 1.2216119
1.6810689 0.0656955 1.0990629 -0.5148134 -0.81057775 0.6066882 -0.6615055 -1.3538167
0.77533066 -1.0756407 0.48484334 0.91237956 0.33751506 -0.4478758 0.1362969 -0.045392916
-1.3154998 1.0777224 0.30422094 -1.3600651 -0.14838523 0.84360427 -0.9741345 0.9457671
-0.2934679 2.1422336 -0.5900156 0.02692371 -0.31375232 -0.14024378 -0.29606217 -1.0400088
1.534395 0.933909 0.6825127 -0.95826995 -1.0646322 -0.5342044 -0.9446957 -1.4809297
-0.20765056 -1.563388 -1.029249 -0.18632963 -0.577471 -0.48547533 -0.78447866 -0.2522488
0.39149392 -0.771776 0.059046827 -0.103994034 -0.28997156 0.32667688 -0.85507786 -0.3697411
-0.23270969 0.5642572 -0.33931062 -0.88177735 1.4764382 1.0835394 0.5973794 -0.51060927
0.25154942 -1.0179039 -0.5591198 0.5092233 1.3975939 -1.7978896 0.94543624 0.08709278
1.4969176 0.41315588 -2.6728342 -0.03615664 -0.5913718 -0.10270343 -0.17411722 -0.9423686
-0.5521119 -0.9319123 1.7782383 0.6456963 -0.30760935 0.7107796 -0.98202723 -1.5910628
0.13258071 0.325444 -0.12494214 1.8285621 -1.6757442 -0.8119277 -1.2142392 -0.19737159
0.21825854 0.92077297 0.3447209 1.603528 0.9465772 0.33343542 -1.2542874 -0.23663783
1.063591 0.82668763 0.25007972 -0.092929035 0.42022014 -0.7654566 -0.036594935 0.58005095
-1.2744056 0.8217818 0.48673126 0.88306653 0.63036627 0.37940478 -0.7870026 0.78319365
0.94763684 2.1555457 -0.6980782 0.24019061 0.818351 -0.5192548 0.99697846 0.2627263
0.2321439 -1.5081655 0.53291464 -0.14744802 0.17730881 -0.42982242 -0.2896199 -0.0021631753
0.8523279 1.656239 1.6122518 0.010978556 -1.3566256 -1.1713899 0.9246057 0.6250297
-0.7409601 -0.9298597 2.0805497 -1.1159109 0.42318982 0.11482229 0.48110852 -2.3459656
0.72521704 1.6621493 1.1208929 -2.19665 0.23227105 2.6555185 1.7594056 -1.349477
-0.17333601 -0.21504797 0.509564 1.3103461 -0.9520459 -0.5085641 -0.9264243 0.14311393
-0.03914772 -0.75390846 1.8081775 -0.67374605 -2.3893642 -0.8101975 0.3411401 0.32044864
1.6839594 -0.24082041 -0.089188956 -0.46711874 0.91094273 -0.69777274 -1.047449 -0.83799547
00000000: ef19 d0bf e1ad 88be 9bc5 2a3f d337 763e
00000010: 3a15 bbbf 16df c3be e395 6c3f e494 8c3f
00000020: deec e2bd 8272 95bf 6a0f 0dbf 999c a23f
00000030: eb36 973f 251d acbf 8552 e93f 3021 e53e
00000040: 298a 1ebf 4e1e 213f 8f28 fcbd 514f d23f
00000050: 9c4e 63bf 552a cabc d54a b0be 7a5d 533f
00000060: 6268 b7be 4cda 013f 55d7 91bf b62b a23f
00000070: 8d4a c23f 1ebc 063f 8d1a 463f e392 4ebf
00000080: acb3 27be 30af 14bf 793c 48bf 0928 323d
00000090: 7295 ee3f bb9c 6fbf a2fd 43bf 399f c83d
000000a0: cbd0 81bf 296e 873e 6252 b63f 3e3b 8abe
000000b0: 188b 9dbf 9506 d7bf 5884 863d 9680 babf
000000c0: 35c0 133f e9c0 0140 c246 42bf dcff 01be
000000d0: db6d c0bf 1054 86be 4016 21bf 4975 8fbf
000000e0: 4fdc 39bf ffd4 72bf 0ab1 24be 3619 41bf
000000f0: 9b6b 8b3f 781c 88bf a060 953d cb28 c4bf
00000100: 8535 1c3f 0662 b9bf 2b75 37be 3e3d 9dbf
00000110: 2623 b53e d37c d63d f691 8a3f c75d 9c3f
00000120: 442d d73f 5d8b 863d 18ae 8c3f d0ca 03bf
00000130: 0682 4fbf eb4f 1b3f 6d58 29bf de49 adbf
00000140: 127c 463f 98ae 89bf 633d f83e b591 693f
00000150: c6ce ac3e fa4f e5be 6a91 0b3e eced 39bd
00000160: 4c62 a8bf cff2 893f d9c2 9b3e 9d16 aebf
00000170: 4cf2 17be 73f6 573f e160 79bf cb1d 723f
00000180: 6d41 96be 5b1a 0940 430b 17bf 1d8f dc3c
00000190: 25a4 a0be 119c 0fbe 7695 97be 021f 85bf
000001a0: 0e67 c43f a914 6f3f 27b9 2e3f 2e51 75bf
000001b0: de45 88bf 9fc1 08bf 94d7 71bf 1b8f bdbf
000001c0: 59a2 54be 191d c8bf 6ebe 83bf 32cd 3ebe
000001d0: 24d5 13bf 3990 f8be 98d3 48bf c126 81be
000001e0: e471 c83e 1d93 45bf 16db 713d d3fa d4bd
000001f0: 2777 94be 3142 a73e 62e6 5abf b54e bdbe
00000200: 734b 6ebe 2973 103f 1fba adbe 29bc 61bf
00000210: edfb bc3f 6bb1 8a3f dbed 183f 4ab7 02bf
00000220: 16cb 803e ad4a 82bf 7a22 0fbf 755c 023f
00000230: 5be4 b23f 3f21 e6bf 1c08 723f b35d b23d
00000240: ff9a bf3f 2b89 d33e b70f 2bc0 fc18 14bd
00000250: 2464 17bf 2d56 d2bd c94b 32be 123f 71bf
00000260: 3557 0dbf ce91 6ebf 509d e33f 5a4c 253f
00000270: f97e 9dbe a7f5 353f 2366 7bbf f2a7 cbbf
00000280: 3dc3 073e 99a0 a63e aae1 ffbd 530e ea3f
00000290: c97e d6bf 7eda 4fbf 316c 9bbf c71b 4abe
000002a0: 2b7f 5f3e c7b7 6b3f 427f b03e 6840 cd3f
000002b0: e252 723f 0cb8 aa3e 7d8c a0bf 3051 72be
000002c0: c023 883f cda1 533f 730a 803e 9451 bebd
000002d0: 1827 d73e f7f4 43bf 92e4 15bd 387e 143f
000002e0: b91f a3bf 4b60 523f d734 f93e a610 623f
000002f0: af5f 213f 5841 c23e 0179 49bf 617f 483f
00000300: 5498 723f 76f4 0940 41b5 32bf 87f4 753e
00000310: 737f 513f e2ed 04bf fb39 7f3f 1084 863e
00000320: 21b7 6d3e 910b c1bf 186d 083f 9dfc 16be
00000330: 7190 353e af11 dcbe 0f49 94be 0fc4 0dbb
00000340: 2932 5a3f a4ff d33f 445e ce3f 67df 333c
00000350: e8a5 adbf 1bf0 95bf f6b2 6c3f f201 203f
00000360: 90af 3dbf 490b 6ebf ba27 0540 2bd6 8ebf
00000370: 56ac d83e f327 eb3d db53 f63e 4d24 16c0
00000380: d3a7 393f 4fc1 d43f 6b79 8f3f ea95 0cc0
00000390: 76d8 6d3e 04f4 2940 3434 e13f aabb acbf
000003a0: ff7e 31be 8935 5cbe c972 023f 6cb9 a73f
000003b0: 48b9 73bf 4231 02bf 252a 6dbf 758c 123e
000003c0: 5c59 20bd 2500 41bf 5c72 e73f 9f7a 2cbf
000003d0: 58eb 18c0 1a69 4fbf eaa9 ae3e d811 a43e
000003e0: fb8b d73f a099 76be b3a8 b6bd 302a efbe
000003f0: 8b33 693f 3ca1 32bf cf12 86bf df86 56bf

layer1.bias f4 [20]
-0.025615443 -0.039061945 -0.0059441463 0.00026308 -0.016729884 -0.00031115874 -0.0023502551 0.002588921
-0.017773153 -0.0040067625 -0.014801972 -0.0012428818 -0.00043215294 -0.0016502667 -0.021706281 0.014717742
-0.00048174802 4.510829e-05 -0.016984282 -0.14619662
00000000: 7ad7 d1bc 6bff 1fbd 1dc7 c2bb 00ee 8939
00000010: 1c0d 89bc 0523 a3b9 bd06 1abb e3aa 293b
00000020: 0199 91bc 294b 83bb f883 72bc 31e8 a2ba
00000030: 9692 e2b9 c34d d8ba 5fd1 b1bc af22 713c
00000040: 2093 fcb9 a832 3d38 9f22 8bbc 91b4 15be

layer2.weight f4 [5, 20]
-1.256021 -0.47781652 -0.051725917 -0.010961423 -1.117096 0.07960202 -0.42800686 0.017877243
0.26205027 -0.0059977085 -0.10744089 0.05893546 -0.005853063 -0.012902843 0.36388987 0.067083135
-0.014879672 -0.12972368 0.48918238 0.37201113 0.012250164 0.010510226 0.015794143 -0.0062236562
0.06283933 -0.05128486 0.019575896 -0.0012271568 -0.005577016 0.005262007 -0.03773259 -0.015790682
-0.0036300728 0.004047495 -0.019109674 -0.005520762 -0.0005572635 0.0013516406 0.018678278 0.13463315
-0.034860823 0.015669731 0.008006102 0.005961959 -0.030854058 0.002990919 0.13427804 0.012250729
0.09085237 0.0121536795 0.00027182972 -0.031034458 0.0013141511 0.013886974 -0.004140518 0.012394532
0.017796367 0.00659646 0.009169395 0.14599802 -1.7534066 -0.35501745 -0.076966025 -0.010959104
-1.3792006 -0.11821599 -0.43382347 0.013289567 0.57701296 -0.08148425 0.074239634 -0.40262577
-0.0069727106 -0.4705568 0.3493664 0.04847699 0.0042004064 0.079192184 -0.06405034 -0.0036031557
0.017424602 0.013472048 0.025730496 -0.008935579 0.0346792 -0.0011721583 -0.012558221 0.00023049768
-0.11539257 0.007954658 -0.07941693 0.0018745823 -0.0071050264 0.0036961834 -0.09321867 -0.008134111
0.0010821123 0.0034692143 0.02431292 0.0033705644
00000000: 4cc5 a0bf 5ea4 f4be 8ede 53bd 8a97 33bc
00000010: 00fd 8ebf 6206 a33d b723 dbbe 4c73 923c
00000020: 742b 863e 6d88 c4bb f809 dcbd 4f66 713d
00000030: 0dcb bfbb 7266 53bc c64f ba3e e262 893d
00000040: dec9 73bc 49d6 04be 1d76 fa3e 3e78 be3e
00000050: e9b4 483c 1533 2c3c b862 813c d0ef cbbb
00000060: e8b1 803d 1310 52bd a15d a03c 8dd8 a0ba
00000070: 67bf b6bb ea6c ac3b 7d8d 1abd 765b 81bc
00000080: 84e6 6dbb d9a0 843b e48b 9cbc 82e7 b4bb
00000090: 5215 12ba 8829 b13a 3003 993c 46dd 093e
000000a0: 39ca 0ebd cf5d 803c 072c 033c 895c c33b
000000b0: a6c1 fcbc 4b03 443b 2f80 093e 48b7 483c
000000c0: cf10 ba3d 3a20 473c 5e84 8e39 fa3b febc
000000d0: 983f ac3a 3186 633c 2fad 87bb 6f12 4b3c
000000e0: b0c9 913c 1e27 d83b 3b3b 163c 8180 153e
000000f0: a16f e0bf d9c4 b5be 5da0 9dbd d08d 33bc
00000100: a589 b0bf 3a1b f2bd 1c1e debe 7cbc 593c
00000110: 1fb7 133f 37e1 a6bd f30a 983d f724 cebe
00000120: 567b e4bb d2ec f0be 27e0 b23e cf8f 463d
00000130: 90a3 893b 832f a23d d32c 83bd ec22 6cbb
00000140: 0abe 8e3c ddb9 5c3c c3c8 d23c 8966 12bc
00000150: c70b 0e3d 1ba3 99ba ffc0 4dbc c0b1 7139
00000160: f152 ecbd 4154 023c 58a5 a2bd 8bb4 f53a
00000170: 48d1 e8bb ab3b 723b 6ee9 bebd ef44 05bc
00000180: aad5 8d3a c25b 633b e42b c73c b0e4 5c3b

layer2.bias f4 [5]
0.14144821 -0.050822422 -0.077793404 0.37731168 -0.012308637
00000000: cdd7 103e 2c2b 50bd 2652 9fbd ff2e c13e
00000010: 2aaa 49bc

layer3.weight f4 [1, 5]
0.32655144 -0.006456507 -0.021392552 0.38072684 0.008207743
00000000: c031 a73e 1b91 d3bb 6f3f afbc a1ee c23e
00000010: c579 063c
