model/slide_nn_model_weights/trained_on_psp_hunter_nonhuman/dense_650_20_5_1_weights_14.pth (torch, 55376 bytes, 5 tensors)

layer1.weight f4 [20, 650]
0.26540303 -0.17663687 -0.39309633 -0.06553147 0.14710584 0.123875014 0.95385146 -0.08462533
0.014103758 0.19939788 0.4973445 0.0033458145 0.35557073 -0.0154173765 -0.10837375 -0.21203642
-0.4786747 -0.13998413 0.042840272 -0.3082441 -0.08388568 0.09773671 -0.36147615 0.2520179
0.32849616 0.17222932 0.1718479 0.06692847 0.3819488 -0.26943678 0.40317953 -0.38682136
-0.10845921 0.05596186 -0.018395115 -0.2101738 0.43103626 0.10412978 -0.0039508976 -0.046136435
-0.21358961 0.13811167 -0.42656067 0.5639451 -0.047166623 0.56719226 -0.02116152 0.15591978
0.4930812 0.31742936 -0.20846288 -0.25520697 0.33056659 0.23685308 -0.06610063 -0.35662264
-0.3652359 0.23696688 -0.198429 0.20687306 0.24064577 0.3214141 0.14936465 0.271288
-0.328021 0.20488325 -0.3050806 -0.2415792 0.111524984 0.37369138 0.22177118 -0.15259264
-0.5048062 0.0901734 0.03366804 0.35666078 -0.72099906 0.5936815 -0.3491332 -0.117533475
0.2112725 -0.18299629 -0.22966033 0.036122542 -0.3559502 -0.51572156 0.49114743 -0.3625848
0.116652206 -0.11560977 0.010789264 0.21878727 0.34748468 0.1111866 -0.07134278 -0.17505679
-0.2743694 0.19155389 -0.025778716 0.049673066 -0.05831161 0.26614383 -0.045027316 0.06737602
-0.036940243 -0.091763124 0.045154933 -0.21643531 -0.21882492 -0.3709503 -0.072163396 -0.24086155
-0.12283437 -0.35863668 0.1145529 0.4445221 -0.4150299 -0.25271088 0.47344834 -0.07590413
0.2410923 0.07200063 0.049191896 0.289297 -0.5588826 -0.09580923 -0.22021836 0.1689718
-0.09157335 -0.092816316 0.3522597 -0.13785818 -0.20282781 0.017776666 -0.20447068 0.049144015
0.0027702658 -0.2449724 -0.069089584 0.046770513 0.063264765 0.09856313 0.22208913 0.21323988
0.12275257 0.45514184 -0.35074726 0.14739183 0.020103844 -0.010373928 -0.3309748 0.17197722
0.02086207 0.121189065 -0.05637507 0.19010632 0.030379718 -0.43172964 0.5210214 0.028841354
-0.1548722 0.12981272 0.39167723 -0.47076222 0.33897427 0.14560209 -0.5645204 -0.44580323
0.07892719 -0.09198441 0.0757352 0.2842733 -0.27057993 -0.23097531 0.20529942 0.16920863
-0.40786177 0.22198486 -0.39428082 0.15090792 0.35157636 0.45526028 0.17944674 -0.8990338
0.18306538 0.033578124 -0.17016676 -0.21835253 0.3726682 -0.33497375 0.31188053 0.49116433
-0.15516675 0.3980772 -0.29809928 0.2710331 0.2966671 0.113588125 0.09319431 0.1491336
-0.63986593 0.06198297 0.21100034 0.35465 -0.20892479 -0.026893007 0.36682653 -0.08058887
-0.033793412 -0.036405016 -0.19069731 -0.0098446 -0.16476277 0.15073216 0.1593437 0.2344807
-0.26893768 0.15946753 0.031436216 0.18530205 -0.013106434 0.14534882 0.053718958 0.044262048
-0.0901251 0.047038913 0.08003559 0.14668474 -0.3387371 -0.110098384 -0.5958662 -0.4268236
-0.18608038 0.28544807 0.021080267 -0.04548037 0.08700271 0.35077664 -0.15968752 -0.17164297
-0.2535126 0.20103084 -0.5699319 -0.4006711 0.15118074 0.33648336 0.6387695 0.018618353
0.1987279 0.14478096 0.086707495 -0.102258295 -0.06984335 -0.19697538 0.24315666 0.195463
00000000: e8e2 873e 4ce0 34be ec43 c9be 5d35 86bd
00000010: eaa2 163e 2fb2 fd3d 9c2f 743f 0c50 adbd
00000020: 7313 673c f52e 4c3e f0a3 fe3e 7445 5b3b
00000030: 5e0d b63e 2a99 7cbc 0ef3 ddbd 1320 59be
00000040: da14 f5be 0058 0fbe 4879 2f3d 2cd2 9dbe
00000050: 41cc abbd 2f2a c83d 6713 b9be 7d08 813e
00000060: a630 a83e e25c 303e e5f8 2f3e cb11 893d
00000070: cb8e c33e 9ef3 89be 8c6d ce3e 730d c6be
00000080: dd1f debd 4338 653d 5ab1 96bc cd37 57be
00000090: c9b0 dc3e fe41 d53d 8876 81bb 8ff9 3cbd
000000a0: 3cb7 5abe 256d 0d3e 2966 dabe b55e 103f
000000b0: ca31 41bd 8333 113f ed5a adbc 6fa9 1f3e
000000c0: 2475 fc3e 1a86 a23e 4b77 55be 7daa 82be
000000d0: 0640 a93e 9d89 723e c45f 87bd 3e97 b6be
000000e0: 3300 bbbe 72a7 723e f930 4bbe 88d6 533e
000000f0: d86b 763e 6490 a43e 0cf3 183e 43e6 8a3e
00000100: 5ef2 a7be eacc 513e 8633 9cbe 8a60 77be
00000110: 3667 e43d 7a54 bf3e fc17 633e 3f41 1cbe
00000120: fb3a 01bf d5ac b83d 80e7 093d 3e9c b63e
00000130: 6593 38bf 83fb 173f 96c1 b2be 64b5 f0bd
00000140: d157 583e 6163 3bbe 142c 6bbe 3bf5 133d
00000150: 1b3f b6be 5406 04bf ad77 fb3e b7a4 b9be
00000160: 5ae7 ee3d d1c4 ecbd 74c5 303c c509 603e
00000170: 83e9 b13e cdb5 e33d 2a1c 92bd 1642 33be
00000180: 257a 8cbe b426 443e e32d d3bc fc75 4b3d
00000190: 28d8 6ebd 0144 883e 906e 38bd 70fc 893d
000001a0: a74e 17bd 4eee bbbd 61f4 383d 38a1 5dbe
000001b0: a413 60be 33ed bdbe 67ca 93bd 69a4 76be
000001c0: 9690 fbbd 3a9f b7be b69a ea3d 6798 e33e
000001d0: cd7e d4be 5263 81be d267 f23e a073 9bbd
000001e0: e6e0 763e 1175 933d 717d 493d bd1e 943e
000001f0: ee12 0fbf a137 c4bd ec80 61be f206 2d3e
00000200: cf8a bbbd 7b16 bebd 625b b43e b22a 0dbe
00000210: 18b2 4fbe 5fa0 913c c360 51be 3c4b 493d
00000220: 598d 353b 0bda 7abe d77e 8dbd 7092 3f3d
00000230: f590 813d 77db c93d 556b 633e 8e5b 5a3e
00000240: b365 fb3d 5a08 e93e 2595 b3be e2ed 163e
00000250: d1b0 a43c 68f7 29bc 8775 a9be cc1a 303e
00000260: efe6 aa3c f931 f83d 8ce9 66bd 3bab 423e
00000270: e3de f83c ab0b ddbe a961 053f b444 ec3c
00000280: d196 1ebe a0ed 043e eb89 c83e bf07 f1be
00000290: 098e ad3e b718 153e 6984 10bf 5240 e4be
000002a0: 94a4 a13d 5362 bcbd 0e1b 9b3d 458c 913e
000002b0: 7489 8abe cb84 6cbe 033a 523e 0745 2d3e
000002c0: 42d3 d0be 0050 633e 2ddf c9be 9b87 1a3e
000002d0: d101 b43e e017 e93e e3c0 373e 1427 66bf
000002e0: 7e75 3b3e 3789 093d 3240 2ebe ce97 5fbe
000002f0: 5ece be3e ae81 abbe ceae 9f3e e479 fb3e
00000300: 08e4 1ebe c6d0 cb3e 78a0 98be dac4 8a3e
00000310: c0e4 973e e4a0 e83d a9dc be3d 7ab6 183e
00000320: 41ce 23bf dbe1 7d3d 7910 583e af94 b53e
00000330: 61f0 55be b94e dcbc b0d0 bb3e c70b a5bd
00000340: f66a 0abd 6d1d 15bd 2846 43be 3f4b 21bc
00000350: 92b7 28be 8859 1a3e ff2a 233e b51b 703e
00000360: 33b2 89be 754b 233e 43c3 003d d2bf 3d3e
00000370: 5ebc 56bc 52d6 143e 6908 5c3d 1f4c 353d
00000380: 8293 b8bd e0ab 403d b3e9 a33d 8634 163e
00000390: f36e adbe 437b e1bd b08a 18bf 9f88 dabe
000003a0: db8b 3ebe 4026 923e 86b0 ac3c a049 3abd
000003b0: 7a2e b23d ff98 b33e 2085 23be 2dc3 2fbe
000003c0: 67cc 81be 07db 4d3e 0fe7 11bf c324 cdbe
000003d0: 20cf 1a3e 8c47 ac3e 6686 233f 8485 983c
000003e0: 547f 4b3e 7641 143e b393 b13d cc6c d1bd
000003f0: 080a 8fbd eab3 49be 0ffe 783e 7427 483e

layer1.bias f4 [20]
0.00022800681 -0.046489917 -0.011437635 0.0001234618 -0.0050161146 -0.0065015275 -0.0008503392 -0.030883944
0.0007458932 0.011917341 -0.028710755 -0.00718028 -0.007936068 0.0035855775 -0.01890362 0.009665944
0.006838818 0.0005037702 7.170964e-05 -0.0042628474
00000000: 1d15 6f39 366c 3ebd eb64 3bbc 8675 0139
00000010: 385e a4bb c40a d5bb 4ce9 5eba 5300 fdbc
00000020: 0c88 433a f340 433c d132 ebbc 8e48 ebbb
00000030: 4806 02bc 02fc 6a3b c4db 9abc e85d 1e3c
00000040: 2a18 e03b 720f 043a d262 9638 5baf 8bbb

layer2.weight f4 [5, 20]
-0.008560699 0.15341412 -0.28887972 -0.0059900275 0.13698156 0.13182501 0.03242692 -0.13199219
-0.012504417 -0.32459787 -0.5253844 -0.66181374 0.07838065 -0.15586317 -1.9400495 0.49383357
0.15377145 -0.009050592 -0.0034252186 -0.29342324 0.010757684 -0.39229193 -0.25420013 0.0061121387
-0.060083006 0.1632347 -0.03036247 0.07643314 0.022778414 0.59005207 -0.03906276 0.28228158
0.55586904 0.3477627 2.4394004 -0.29323396 -0.00022650437 0.0093037635 0.0038633756 0.28409806
-0.00270283 0.02295042 -0.07137964 -0.006354599 -0.024096424 0.067670114 -0.0050150175 0.061217096
0.00067728304 -0.053135954 0.0028877947 -0.0027524494 0.037132055 0.22123426 -0.104084834 0.05059029
0.08102735 -0.005929275 -0.0019776276 -0.026281098 0.0016427675 -0.016144633 -0.002800516 0.004377002
0.0024589573 -0.05671486 0.0045838133 -0.002226637 -0.00090416364 0.044703804 0.0022021858 0.0025285617
-0.06924926 -0.18185006 0.06271055 -0.027504932 -0.11442376 0.0037699947 -0.00019285016 0.022305248
-0.0053679757 0.021295672 -0.2076457 -0.008159952 -0.03748345 -0.05101627 -0.0075140535 0.020462558
-0.0041332636 -0.074844666 0.085644886 -0.012938315 0.02009718 -0.22233792 -1.2274102 0.08108598
-0.08732002 -0.003983857 -0.000776834 -0.06826316
00000000: 2d42 0cbc 9718 1d3e 0be8 93be fe47 c4bb
00000010: e544 0c3e 23fd 063e 17d2 043d f628 07be
00000020: 54df 4cbc b131 a6be 987f 06bf a06c 29bf
00000030: 0986 a03d 989a 1fbe 8b53 f8bf c1d7 fc3e
00000040: 4376 1d3e ef48 14bc a279 60bb 923b 96be
00000050: ff40 303c 7dda c8be 8526 82be 5648 c83b
00000060: 9919 76bd ff26 273e b7ba f8bc fa88 9c3d
00000070: cc99 ba3c a70d 173f 4600 20bd 3687 903e
00000080: 6f4d 0e3f f40d b23e 231f 1c40 c322 96be
00000090: ce81 6db9 d06e 183c b030 7d3b 4d75 913e
000000a0: f621 31bb 8502 bc3c 7d2f 92bd 3d3a d0bb
000000b0: dd65 c5bc a196 8a3d 0455 a4bb c7be 7a3d
000000c0: b28b 313a 16a5 59bd 2841 3d3b 7062 34bb
000000d0: c817 183d 3c8b 623e 6e2a d5bd c437 4f3d
000000e0: abf1 a53d 5d4a c2bb 169b 01bb 754b d7bc
000000f0: 2152 d73a c041 84bc dd88 37bb f46c 8f3b
00000100: 7526 213b d74d 68bd d033 963b c5ec 11bb
00000110: 6505 6dba 561b 373d 8c52 103b 3ab6 253b
00000120: 8ed2 8dbd e736 3abe 646e 803d 0652 e1bc
00000130: 0157 eabd 0412 773b d237 4ab9 7fb9 b63c
00000140: d8e5 afbb 4374 ae3c 13a1 54be 52b1 05bc
00000150: 3f88 19bd 70f6 50bd 7338 f6bb 18a1 a73c
00000160: 5470 87bb 2948 99bd 9666 af3d 3afb 53bc
00000170: d7a2 a43c 8dac 63be c71b 9dbf 6810 a63d
00000180: d7d4 b2bd 048b 82bb 72a4 4bba 8ecd 8bbd

layer2.bias f4 [5]
0.04617728 -0.21695197 0.04458398 -0.0617198 0.061419066
00000000: 6324 3d3d a828 5ebe b19d 363d e7cd 7cbd
00000010: 8f92 7b3d

layer3.weight f4 [1, 5]
0.33181903 -0.3165282 0.02708866 -0.019335011 0.042430907
00000000: 2fe4 a93e fc0f a2be 0ae9 dd3c 7564 9ebc
00000010: 08cc 2d3d
