model/slide_nn_model_weights/trained_on_phasepred_saps/dense_650_20_5_1_weights_4.pth (torch, 55366 bytes, 5 tensors)

layer1.weight f4 [20, 650]
0	0xbb8cc947	-0.004296455
1	0xbe4ab9a5	-0.1979738
2	0x3d8f90ac	0.07010016
3	0xbdd3dee7	-0.103452496
4	0xbcd791ad	-0.02631458
5	0x3dcae8e8	0.099077046
6	0x3daf9cdd	0.08574841
7	0x3d1b7cf1	0.03796095
8	0x3e636aa0	0.22208643
9	0x3e1cbc6f	0.15306257
10	0x3e4325e8	0.19057429
11	0x3afd4c7b	0.0019325161
12	0xbdb69f77	-0.08917134
13	0xbdb8bbb6	-0.09020178
14	0x3bb597b2	0.005541765
15	0xbd934753	-0.071913384
16	0xbd13fc10	-0.036129057
17	0x3daa1bd7	0.08306091
18	0x3dd8a6f1	0.105787165
19	0xbe3bf359	-0.18354549
20	0x3e102462	0.14076379
21	0xbe4cca7b	-0.19999115
22	0xbf1cfe77	-0.6132578
23	0x3f21fb7f	0.6327438
24	0x3e1e1745	0.15438564
25	0xbefb828d	-0.4912304
26	0xbea9da38	-0.331743
27	0xbd695b31	-0.056971733
28	0xbec78ffc	-0.3897704
29	0xbd37f003	-0.044906627
30	0xbe53d1ab	-0.2068545
31	0xbe88e8f7	-0.26740238
32	0xbeb0cf65	-0.3453323
33	0x3e4169ae	0.1888797
34	0x3da21444	0.079140216
35	0xbc4a6fb7	-0.012355736
36	0xbe45c563	-0.19313578
37	0xbebe11d6	-0.37122983
38	0xbe986be4	-0.29769814
39	0xbeb065a9	-0.3445256
40	0xbe8dd30b	-0.27700076
41	0xbe94821a	-0.2900551
42	0x3f14bf5d	0.581045
43	0xbe89c208	-0.26905847
44	0x3e97eb08	0.29671502
45	0xbe937807	-0.2880251
46	0xbd9696d1	-0.07352985
47	0x3c1082ff	0.008820294
48	0x3d09c5a2	0.033635743
49	0x3ce5e0ad	0.028061235
50	0x3db955ff	0.090496056
51	0x3e644363	0.22291331
52	0xbe1260d4	-0.1429475
53	0xbda2d244	-0.07950261
54	0xbdd8cc44	-0.105858356
55	0x3ec20ac8	0.3789885
56	0x3d40000e	0.046875052
57	0xbd2475c6	-0.04015138
58	0xbd7522d7	-0.05984768
59	0x3d402b46	0.04691627
60	0xbd966731	-0.07343901
61	0x3e3354a8	0.17512763
62	0x3e7d68ae	0.24746963
63	0x3e8cd5f3	0.2750698
64	0xbd2fc6d2	-0.04291422
65	0xbe926c3f	-0.2859821
66	0x3e5ae13f	0.21374987
67	0x3e2d3c2c	0.16917485
68	0x3cf8acc2	0.030355815
69	0x3e2997ea	0.16561857
70	0x3da3d90d	0.080003835
71	0x3ed99c24	0.42501938
72	0x3e7a846d	0.24464579
73	0xbe1a4051	-0.15063597
74	0x3d6ef1ea	0.058336176
75	0xbe6611df	-0.22467755
76	0x3d0589b1	0.032602016
77	0x3e4aaa43	0.19791512
78	0xbe15e950	-0.14639783
79	0xbeda9735	-0.42693487
80	0xbeb87fc4	-0.36034977
81	0xbe3dbab0	-0.18528247
82	0xbd08a513	-0.033360552
83	0x3e01db73	0.1268137
84	0xbe8c9d43	-0.2746373
85	0xbd8d6782	-0.06904508
86	0xbd50c948	-0.050973207
87	0x3eeccc53	0.46249637
88	0x3e2b32f5	0.16718657
89	0x3e2ec0d3	0.17065744
90	0x3e28d3cf	0.16487049
91	0x3e82f2c4	0.2557584
92	0xbe452707	-0.19253169
93	0xbd03b6d2	-0.032156773
94	0xbe40167d	-0.18758579
95	0x3db82fe2	0.08993508
96	0xbd7eb618	-0.062185377
97	0xbe709c3e	-0.23497102
98	0x3e2519d2	0.16123131
99	0x3e6a903a	0.2290658
100	0xbe33d975	-0.17563422
101	0xbd3994a8	-0.045307785
102	0x3e7aec79	0.2450427
103	0xbedd4d18	-0.4322288
104	0xba77cf10	-0.0009453157
105	0xbeafc022	-0.34326273
106	0xbe0f43d9	-0.13990726
107	0xbba4371b	-0.005011452
108	0x3ba83db5	0.005134309
109	0xbea15223	-0.31507978
110	0xbe6bba66	-0.23020324
111	0x3df2088c	0.118180364
112	0x3b99a5e4	0.004688965
113	0xbeb034b2	-0.34415203
114	0xbd5264fc	-0.051365837
115	0x3f0d0cac	0.5509746
116	0xbe1389e9	-0.14408077
117	0x3d7a280f	0.06107336
118	0x3e4e2c6c	0.20134133
119	0xbe040d16	-0.12895617
120	0xbd69bdd6	-0.057065807
121	0xbcaa62ab	-0.020799002
122	0x3ca870b2	0.02056155
123	0xbdadaef2	-0.08480634
124	0x3d998a10	0.074970365
125	0xbdfabc3c	-0.12242934
126	0xbcd8e986	-0.02647854
127	0xbd38a111	-0.04507548
128	0xbdd922db	-0.10602351
129	0xbe9c3501	-0.3050919
130	0x3e4a30d0	0.19745183
131	0x3e4c738e	0.19965956
132	0x3e174450	0.14772153
133	0xbe68094c	-0.22659796
134	0x3e9cb01d	0.30603114
135	0xbe56a305	-0.20960625
136	0x3ec1fac5	0.37886634
137	0x3eba1f90	0.36352205
138	0x3e819c84	0.25314724
139	0x3eee25b9	0.46513155
140	0x3e92b07f	0.2865028
141	0xbe5ef2da	-0.21772328
142	0x3f116e8b	0.568093
143	0x3cc952c6	0.024575602
144	0xbe426d3d	-0.18986984
145	0x3cdd09d8	0.026982233
146	0xbef80303	-0.48439798
147	0x3c328210	0.010895267
148	0xbe0cf925	-0.13766916
149	0x3dbda6d8	0.092603385
150	0xbe1cac8f	-0.15300201
151	0x3eab3d75	0.33445325
152	0xbec4a4d9	-0.3840702
153	0x3de5398f	0.11192619
154	0x3e3f902b	0.1870734
155	0xbe9263bd	-0.2859172
156	0x3e2618cb	0.16220395
157	0xbe0248c5	-0.12723072
158	0xbe06367d	-0.13106723
159	0xbebceca6	-0.36899298
160	0x3eb26982	0.3484612
161	0x3d692289	0.0569177
162	0xbe97f336	-0.29677743
163	0xbee9d9ad	-0.45673886
164	0xbde669ea	-0.1125067
165	0x3dfa9294	0.12234989
166	0x3d86ed89	0.06588275
167	0x3e63fb49	0.22263826
168	0x3da26be1	0.079307325
169	0x3e047745	0.12936123
170	0x3eba734d	0.36416093
171	0xbe55e5d4	-0.20888454
172	0xbd2882da	-0.041140415
173	0x3e255791	0.16146685
174	0x3e454ac4	0.19266802
175	0xbdc11612	-0.09428038
176	0xbd0ac102	-0.033875473
177	0x3ebe55ea	0.37174922
178	0x3f08d2eb	0.53446835
179	0xbc12cfff	-0.008960723
180	0xbef04913	-0.4693075
181	0x3dfec31f	0.1243956
182	0xbec9b653	-0.39396915
183	0x3e57b586	0.2106534
184	0x3e7caeee	0.24676105
185	0xbe81cdbb	-0.25352272
186	0x3e4186c9	0.18899073
187	0xbb5afd78	-0.003341524
188	0xbea81326	-0.3282711
189	0x3ea1792c	0.3153776
190	0xbed866b5	-0.4226586
191	0xbe84b250	-0.25917292
192	0xbe9fdd27	-0.31223413
193	0xbe26b817	-0.16281162
194	0x3f0ab7ab	0.54186505
195	0xbe185894	-0.1487754
196	0x3da5ddf8	0.08098978
197	0xbe904cc0	-0.28183556
198	0x3d87389f	0.066025965
199	0xbd37dcb0	-0.0448882
200	0x3edd70e6	0.43250197
201	0xbf050825	-0.5196555
202	0xbe355a7e	-0.17710301
203	0x3c657d62	0.014006944
204	0x3d9a8358	0.07544583
205	0xbe5911fe	-0.2119827
206	0xbe91a335	-0.2844483
207	0xbe75d783	-0.24007992
208	0x3e4b49f8	0.19852436
209	0xbe2e5d37	-0.17027746
210	0xbe3d8400	-0.18507385
211	0xbd9eaf83	-0.0774832
212	0x3e736143	0.23767571
213	0x3da96780	0.08271694
214	0x3cb4221a	0.021988917
215	0xbdabc7bd	-0.083877064
216	0x3f0ca311	0.5493632
217	0xbe4cb3d9	-0.19990481
218	0xbe7b8844	-0.245637
219	0xbd53d544	-0.051717058
220	0x3e1b596b	0.15170829
221	0x3e1e7b58	0.1547674
222	0x3e5f38f5	0.21799071
223	0xbea08722	-0.31353098
224	0x3dfc7136	0.12326281
225	0xbdd6a3fa	-0.10480495
226	0xbe0eb161	-0.13934852
227	0xbd8cc14f	-0.06872808
228	0xbec7a4a8	-0.3899281
229	0xbeaa3e80	-0.3325081
230	0xbec201db	-0.3789204
231	0xbd3d0f33	-0.046157073
232	0xbc82a4b2	-0.015947673
233	0xbce05bb2	-0.027387474
234	0xbccafaaa	-0.024777729
235	0xbce6f75d	-0.028194124
236	0x3efe9aba	0.49727422
237	0x3eb10e91	0.34581426
238	0x3d82c871	0.063858874
239	0xbe4d2e03	-0.20037083
240	0xbdbe3bd3	-0.09288754
241	0x3dc67ac8	0.096913874
242	0xbd1f1d37	-0.03884622
243	0x3b0bfcce	0.00213604
244	0xbeca361e	-0.39494413
245	0x3e737567	0.23775254
246	0x3d348366	0.044070624
247	0x3f03b609	0.5144964
248	0x3effdbf8	0.4997251
249	0x3cbbe782	0.02293754
250	0x3d1f4bcb	0.03889064
251	0xbe977b27	-0.29586145
252	0x3dd0e118	0.10199183
253	0xbe338c30	-0.17533946
254	0xbc24db66	-0.010062074
255	0x3d958b8b	0.07302006

layer1.bias f4 [20]
0	0xb8ac5a4a	-8.218417e-05
1	0xbd70a83c	-0.05875419
2	0xb953eefa	-0.00020211554
3	0xb97c5d41	-0.00024067333
4	0x39e2ef5d	0.0004328442
5	0x3cac863b	0.0210601
6	0xb7822a64	-1.5516947e-05
7	0x3a30041b	0.0006714479
8	0xb8111055	-3.4585904e-05
9	0x38ba5ee0	8.886843e-05
10	0x3b97362e	0.004614613
11	0x3ad9dcd0	0.0016621593
12	0xbd12a20c	-0.03579907
13	0x38554e78	5.0856237e-05
14	0xb77ae11c	-1.4953574e-05
15	0xb899d3f8	-7.335091e-05
16	0x3d0c543a	0.034260012
17	0xbb97088e	-0.004609174
18	0x3a49bd08	0.00076957094
19	0xb8d1aaa6	-9.997682e-05

layer2.weight f4 [5, 20]
0	0xbd301893	-0.042992186
1	0xbf3cac7a	-0.7370068
2	0x3b90ac61	0.0044150804
3	0x3bdd3ee9	0.0067518842
4	0x3afc4515	0.0019246662
5	0x3eac5116	0.33655614
6	0x3c4c11f2	0.01245545
7	0x3bba0c34	0.0056777243
8	0xbc819734	-0.01581917
9	0x3c09c011	0.008407609
10	0x3ba9efac	0.005186042
11	0xbcb6ea78	-0.0223286
12	0x3b3c60f7	0.002874432
13	0x3b5e8d86	0.0033958866
14	0xbc6da2fa	-0.014504189
15	0x3b86c8fb	0.004113314
16	0xbfbbda39	-1.4675971
17	0x3d0e1e77	0.034697022
18	0x3bcafd80	0.0061947703
19	0x3e1596f2	0.14608362
20	0xb8ea8bad	-0.00011184006
21	0x391c25bb	0.00014891375
22	0xb888bc7b	-6.5200926e-05
23	0x39534b20	0.00020150514
24	0x38b6c7c8	8.7156484e-05
25	0xb87eace0	-6.071932e-05
26	0xba642dfa	-0.0008704361
27	0xb9eb1b1f	-0.000448429
28	0xb8a026da	-7.636631e-05
29	0x38f77f34	0.00011801571
30	0x3d391fb4	0.04519625
31	0xbd03cc8e	-0.0321775
32	0xbba54f6e	-0.005044869
33	0x3a1ec9c7	0.0006057289
34	0xbaa3553d	-0.0012461316
35	0xb98f0fea	-0.00027286942
36	0xb4e887c0	-4.331214e-07
37	0xbc8494d0	-0.01618424
38	0xb927007a	-0.00015926539
39	0x39e15039	0.00042975115
40	0x3d2d2c36	0.04227849
41	0x3f3d7f57	0.7402243
42	0xbb952767	-0.0045518163
43	0xbbcfa1bc	-0.006336419
44	0xbaf20fe2	-0.0018467868
45	0xbea65078	-0.32483268
46	0xbc4fe3c0	-0.012688577
47	0xbbcb5fd9	-0.0062064943
48	0x3c783555	0.015149434
49	0xbc134385	-0.008988266
50	0xbf1affdf	-0.6054668
51	0x3cc845e0	0.024447381
52	0xba854425	-0.0010167403
53	0xbb85b3b4	-0.00408026
54	0x3ce6e8d2	0.02818719
55	0xbb99e21c	-0.004696144
56	0x3f9c2f92	1.2202017
57	0xbcdeb2a5	-0.027184794
58	0xbbd9b400	-0.006643772
59	0xbda4fc49	-0.08055932
60	0xb916dd6d	-0.00014387602
61	0xb9dd6f2c	-0.00042235234
62	0xb9a10238	-0.00030709966
63	0xb96bd53c	-0.00022490782
64	0x3984165d	0.00025193664
65	0xb89af760	-7.3893694e-05
66	0x3a577dcc	0.00082203443
67	0x39f39826	0.0004646193
68	0xb983c8ff	-0.0002513602
69	0x398275e6	0.00024883373
70	0xbcf1bee9	-0.029509978
71	0x3d221efe	0.039580338
72	0xbc737b61	-0.014860959
73	0xba2eee64	-0.0006673096
74	0x37883c1d	1.6240456e-05
75	0x376d57c0	1.4146732e-05
76	0x397840dc	0.00023675285
77	0x3bfe2c87	0.007756773
78	0x3987efe4	0.0002592794
79	0x37e98484	2.7837472e-05
80	0x3889af3c	6.565309e-05
81	0xb72bc78a	-1.0238853e-05
82	0xb9a7fb52	-0.0003203997
83	0xba1062e7	-0.00055079017
84	0xb9f8b6f1	-0.00047438548
85	0x384e56ba	4.9194998e-05
86	0xb943d690	-0.0001867658
87	0xb96cd6a6	-0.00022586677
88	0x392476ce	0.00015684517
89	0xb86d3864	-5.655772e-05
90	0xb6590694	-3.2339349e-06
91	0xb9e2e086	-0.00043273362
92	0x394064da	0.00018348117
93	0xb89f8db0	-7.608102e-05
94	0x362f29b7	2.6101313e-06
95	0x396c8ed7	0.00022559926
96	0x3909b2e9	0.00013131987
97	0x394d3b2a	0.00019572364
98	0xba306b3f	-0.0006729848
99	0xb93326a9	-0.00017085172

layer2.bias f4 [5]
0	0x3ddcf8b9	0.107896276
1	0xb8501b4c	-4.9616487e-05
2	0xbce0e72f	-0.027453987
3	0x3aba4973	0.0014212563
4	0xb895ae6e	-7.137364e-05

layer3.weight f4 [1, 5]
0	0x3f12640c	0.5718391
1	0xbb782f6d	-0.0037870065
2	0xbf0688ef	-0.52552694
3	0x3c071c56	0.008246502
4	0x366eb9ed	3.5572987e-06
