model/slide_nn_model_weights/trained_on_phasepred_pdps_nophasepro/dense_650_20_5_1_weights_5.pth (torch, 55366 bytes, 5 tensors)

layer1.weight f4 [20, 650]
0	0xbef1e576	-0.47245377
1	0xbd3470f9	-0.04405305
2	0xbecf7d97	-0.40525505
3	0xbe41a4e9	-0.18910564
4	0x3e847b34	0.25875247
5	0x3f1e0353	0.6172382
6	0x3dcd6d80	0.10030651
7	0x3f3cf907	0.73817486
8	0x3f072c60	0.52802086
9	0x3f705663	0.93881816
10	0x3f1b7ca8	0.60737085
11	0xbd3944d6	-0.045231663
12	0x3e4e36dd	0.20138116
13	0xbecb05a9	-0.39652756
14	0xbec3b7c7	-0.38226148
15	0x3cb690ed	0.022285903
16	0xbf1cbc28	-0.61224604
17	0x3e951444	0.29117024
18	0xbe9195c4	-0.28434575
19	0xbe4f7d36	-0.20262608
20	0xbe4f6f3f	-0.20257281
21	0xbe2ead10	-0.17058206
22	0x3d20488d	0.03913169
23	0xbf569a00	-0.83828735
24	0x3f32cf65	0.6984771
25	0x3eb527d3	0.35381946
26	0xbe5a1bf4	-0.21299726
27	0xbce46e5b	-0.027884653
28	0x3e17fe03	0.14842992
29	0xbe60db26	-0.21958598
30	0x3ee22d6e	0.44175285
31	0xbf3045d4	-0.6885655
32	0xbf144d6d	-0.5793064
33	0x3ede5995	0.4342772
34	0x3e4c2e95	0.19939645
35	0x3e2007e9	0.15628017
36	0xbe58dc62	-0.2117782
37	0xbdcf5dd9	-0.10125322
38	0xbece62dd	-0.40309802
39	0xbec256b1	-0.37956765
40	0xbf438595	-0.76375705
41	0xbecb6fa0	-0.397336
42	0x3f0bbf44	0.54588723
43	0xbcce4ef7	-0.025184138
44	0x3ed94541	0.4243565
45	0xbf398889	-0.7247396
46	0x3f28dd36	0.6596254
47	0x3ec38d5e	0.38193792
48	0x3ddc5828	0.10759002
49	0x3ec8f92e	0.3925261
50	0xbdd90180	-0.10595989
51	0xbe00738e	-0.1254408
52	0xbec96f13	-0.39342555
53	0xbf308853	-0.68958014
54	0x3cccf11c	0.025017314
55	0x3ed980cd	0.4248108
56	0x3ca32916	0.019917052
57	0xbe0273fe	-0.1273956
58	0xbdb47aea	-0.088125065
59	0xbf3a2897	-0.72718185
60	0x3ec77685	0.3895761
61	0x3ea58871	0.3233066
62	0x3e0c398e	0.1369383
63	0x3f027ff9	0.5097652
64	0xbe862425	-0.2619945
65	0xbf0e01ce	-0.55471504
66	0xbf05353a	-0.5203434
67	0x3e04162d	0.12899084
68	0xbf303083	-0.68824023
69	0xbf4d1f3f	-0.801258
70	0x3ee9725e	0.45595068
71	0x3d4317dc	0.047630176
72	0x3e6b1139	0.22955789
73	0xbf565b7f	-0.8373336
74	0x3f100717	0.5626082
75	0x3e046e0f	0.12932609
76	0xbf160c6a	-0.5861269
77	0xbe882b04	-0.26595318
78	0x3f206437	0.62652916
79	0xbf122385	-0.5708545
80	0xbcbf8ca1	-0.023382487
81	0x3e009422	0.12556508
82	0xbf33bfe7	-0.70214695
83	0x3f3dc8da	0.741346
84	0xbe81e455	-0.25369516
85	0xbe782eec	-0.2423665
86	0xbf3b9cdf	-0.7328624
87	0xbda22993	-0.07918086
88	0x3e92c917	0.28669044
89	0x3e2b71c2	0.16742614
90	0xbee37d01	-0.44431308
91	0x3db8d58f	0.09025108
92	0xbf540c4b	-0.8283126
93	0xbf37b82b	-0.71765393
94	0x3d1dc729	0.038520012
95	0x3f20b795	0.62780124
96	0x3d981575	0.074259676
97	0xbeb70032	-0.35742337
98	0xbf0e2bd1	-0.5553561
99	0xbe5ca0a3	-0.21545653
100	0xbf712522	-0.94197285
101	0xbe13547f	-0.14387701
102	0x3e3de67e	0.18544957
103	0xbe1c58f3	-0.15268306
104	0xbf02bc59	-0.51068646
105	0xbf06072c	-0.52354693
106	0xbe8d2fc9	-0.2757552
107	0xbf81f585	-1.0153052
108	0x3de7b900	0.11314583
109	0xbed20beb	-0.41024718
110	0x3ebf8443	0.37405595
111	0x3e9ed90a	0.31024963
112	0xbe84c2cf	-0.25929877
113	0x3f068770	0.5255041
114	0x3f50af5e	0.8151759
115	0x3eef37da	0.467223
116	0xbe7828cb	-0.24234311
117	0x3ec2c606	0.38041705
118	0x3ed34f15	0.41271272
119	0x3ec0ddf9	0.37669352
120	0xbe9d107c	-0.3067664
121	0x3e92e529	0.2869046
122	0xbf6bec47	-0.92157406
123	0x3e96d40d	0.29458657
124	0xbe5dff81	-0.21679498
125	0xbd46792d	-0.048455406
126	0xbdf04fbd	-0.11733959
127	0x3b75d59b	0.0037511352
128	0x3f02cdbf	0.51095194
129	0xbebf01d4	-0.37306082
130	0xbf554adc	-0.8331735
131	0xbf0f9a24	-0.56094575
132	0x3a8b644f	0.0010634753
133	0xbe03cf2c	-0.12871999
134	0x3e1270ac	0.14300793
135	0x3f41db56	0.75725305
136	0xbebceed3	-0.36900958
137	0x3ee94065	0.45556942
138	0xbe9c51ff	-0.30531308
139	0x3f6cddfa	0.9252621
140	0x3e2da32c	0.16956776
141	0x3eaa48aa	0.33258563
142	0x3bf278db	0.007399661
143	0xbefb067a	-0.4902838
144	0xbe2b37b8	-0.16720474
145	0xbe2239b1	-0.1584232
146	0xbef277ac	-0.47356927
147	0xbe85e52f	-0.26151416
148	0x3f01036a	0.50395834
149	0xbeb7690d	-0.35822335
150	0xbed453fd	-0.41470328
151	0xbeb44ef4	-0.35216486
152	0x3cb4b9e0	0.022061288
153	0x3edd5211	0.43226674
154	0x3dfc0b9e	0.12306903
155	0xbeaeba54	-0.34126532
156	0x3f113ae4	0.56730485
157	0xbec6804e	-0.38769764
158	0x3f2fb7f4	0.68640065
159	0xbd0a442d	-0.033756424
160	0xbf02a5bf	-0.5103416
161	0x3f0df5b8	0.5545306
162	0xbd324e40	-0.043531656
163	0xbda089f5	-0.07838813
164	0xbe8d3921	-0.27582648
165	0x3f0e468f	0.55576414
166	0xbe258a50	-0.16166043
167	0x3ebc019d	0.3671998
168	0x3e06f3c6	0.1317893
169	0x3e084a71	0.13309647
170	0x3f0175a6	0.5057014
171	0x3c142261	0.0090414
172	0xbeddc8c1	-0.43317226
173	0x3f061373	0.5237343
174	0xbbedae5b	-0.007253451
175	0xbf59a3d3	-0.850156
176	0xbf02608b	-0.5092856
177	0x3e14d3e5	0.14533956
178	0x3f494422	0.7861959
179	0x3ef256ad	0.47331753
180	0x3da3f46d	0.08005605
181	0xbea12e90	-0.31480837
182	0xbed78141	-0.420908
183	0x3c9b2fb3	0.018943643
184	0x3f47659f	0.77889436
185	0xbf59ab24	-0.85026765
186	0x3ebc802e	0.36816543
187	0xbe25ed73	-0.16203861
188	0x3d1c4f99	0.038161848
189	0x3e4fe1f1	0.20301034
190	0xbf521a7f	-0.8207168
191	0xbd96cc2f	-0.07363164
192	0xbf214ce4	-0.6300795
193	0xbedc7f98	-0.43066096
194	0x3ef57915	0.4794394
195	0xbce319d1	-0.027722271
196	0x3cd28466	0.025697898
197	0xbf048945	-0.51771957
198	0xbee6c3cd	-0.4507126
199	0xbf571cb3	-0.84028167
200	0x3f3918ea	0.7230364
201	0xbf7a1e30	-0.9770231
202	0x3e0ce3dd	0.13758798
203	0xbde58e8c	-0.11208829
204	0xbd853c3c	-0.065056294
205	0x3dce921c	0.10086462
206	0xbeb0b8e8	-0.34516072
207	0x3ebb550d	0.36588326
208	0x3cb15476	0.02164672
209	0x3e123854	0.142793
210	0xbed0d73a	-0.40789205
211	0xbcb23f40	-0.021758676
212	0x3ed6c15e	0.41944402
213	0x3e8beacb	0.2732757
214	0xbf6be51c	-0.9214647
215	0xbe90b82b	-0.2826551
216	0x3eb68508	0.3564837
217	0xbe7a271c	-0.24428982
218	0xbeb61ae1	-0.35567382
219	0x3dd54384	0.10413268
220	0x3f26bf81	0.6513596
221	0xbf0ec8c1	-0.55775076
222	0xbda95e81	-0.08269978
223	0x3efa6964	0.48908532
224	0x3ebde520	0.3708887
225	0x3df240dc	0.11828777
226	0xbe7ad5dc	-0.24495643
227	0xbf006d8d	-0.5016716
228	0xbf71d687	-0.9446797
229	0xbef325fb	-0.47489914
230	0xbeea842c	-0.45803964
231	0x3f044aff	0.51676935
232	0x3e02568c	0.12728328
233	0x3ee98075	0.45605817
234	0x3f098893	0.5372402
235	0xbeffb747	-0.49944517
236	0xbeddc795	-0.43316332
237	0x3ecaa42d	0.3957838
238	0x3ec0371e	0.3754205
239	0x3e444bb0	0.19169497
240	0x3eaed261	0.3414488
241	0x3eee0c75	0.4649388
242	0x3e28998b	0.16464822
243	0x3e39c915	0.18143113
244	0xbf267028	-0.65014887
245	0x3f0f62cd	0.56010133
246	0xbecfaabb	-0.40559945
247	0xbe3739c2	-0.17893127
248	0x3f786849	0.97034127
249	0x3d9cedcb	0.07662543
250	0x3e98f892	0.29877144
251	0x3c56f15e	0.01311907
252	0x3f028e27	0.5099816
253	0x3d727e55	0.05920251
254	0x3db0382b	0.08604463
255	0xbf8ae1ad	-1.0850121

layer1.bias f4 [20]
0	0x3cd1797e	0.025570627
1	0x3a14b42b	0.0005672599
2	0xba1734cd	-0.0005768061
3	0xb9d64fdb	-0.00040876758
4	0x3b30c68a	0.0026973807
5	0xb92aec6b	-0.00016300536
6	0xbc0f6d62	-0.008754106
7	0xb99fcaab	-0.00030477843
8	0x3979d010	0.00023824
9	0x3933344d	0.00017090254
10	0x3c36a5a2	0.011147888
11	0xb96068f3	-0.00021401401
12	0xb94e36e8	-0.00019666145
13	0x3cca0b0e	0.024663474
14	0x38356bd3	4.3254182e-05
15	0xba2ce0be	-0.00065947685
16	0xb984a08a	-0.00025296613
17	0xb80a0850	-3.2909506e-05
18	0xba2e8832	-0.0006657868
19	0x39a11514	0.00030724017

layer2.weight f4 [5, 20]
0	0xbe2accee	-0.16679737
1	0xbc3ef573	-0.011655199
2	0xbb47ce77	-0.0030488053
3	0x3dac6168	0.08417016
4	0x3d6fcf56	0.05854734
5	0xbbc772b2	-0.006086671
6	0xbf8a1681	-1.0788118
7	0x3c582981	0.013193489
8	0xbcfbd1f2	-0.030739758
9	0xbbb11718	-0.0054043643
10	0xbf791a8e	-0.97306144
11	0x3bbb9769	0.0057248366
12	0xbb99d4e5	-0.0046945685
13	0x3edc663d	0.43046752
14	0x3c121108	0.008915193
15	0xbd36afd0	-0.04460126
16	0xbb3a0fcd	-0.0028390766
17	0x3aa4509a	0.0012536228
18	0xbc34bf9b	-0.01103201
19	0xbb05c730	-0.0020412914
20	0xb970d07e	-0.00022965853
21	0xb9d9d08c	-0.00041544845
22	0xb973c98c	-0.00023249368
23	0xb8246b0e	-3.920035e-05
24	0x39c86fd6	0.00038230297
25	0xb949d243	-0.00019247182
26	0xb97872a8	-0.00023693836
27	0x39b5c7d7	0.00034671903
28	0xb9d2f80b	-0.00040239128
29	0x3a0bc6a3	0.00053320284
30	0x3827648d	3.9909548e-05
31	0x3942a9b6	0.00018564504
32	0x3825538c	3.9416875e-05
33	0x37ea2ac2	2.7914884e-05
34	0xb787b73a	-1.6178576e-05
35	0x397eb632	0.000242912
36	0xb9e77c38	-0.00044152304
37	0xb902dd3f	-0.00012480187
38	0xb9054304	-0.00012708834
39	0x38e7cb82	0.00011052845
40	0x3900a017	0.0001226667
41	0x3992b37c	0.00027981016
42	0xb8427658	-4.636342e-05
43	0x365e75a0	3.3149045e-06
44	0x3953693c	0.00020161731
45	0xb9a254dd	-0.00030962276
46	0xb893aaec	-7.041343e-05
47	0x3a044da2	0.00050469686
48	0x392596f7	0.00015791865
49	0x397a63ae	0.00023878991
50	0xb8ac2940	-8.2092825e-05
51	0x3978dbcc	0.00023733004
52	0x394d4914	0.00019577547
53	0x35fd7844	1.8884971e-06
54	0x39a7915a	0.00031961018
55	0xb96847b1	-0.00022151951
56	0x37e61930	2.7429865e-05
57	0x38deaa98	0.000106175605
58	0x39403775	0.00018331206
59	0xb9cf4eb9	-0.0003954077
60	0xb8e6f881	-0.00011013542
61	0x381b1070	3.697019e-05
62	0xb935eaea	-0.00017349017
63	0xb91e4e7c	-0.00015097292
64	0x392b4c12	0.00016336169
65	0x3920a8de	0.00015321697
66	0x3918cefa	0.00014572954
67	0xb87ae3cc	-5.9816797e-05
68	0xb9421437	-0.00018508812
69	0xba110260	-0.0005531665
70	0xb865e7c1	-5.4813692e-05
71	0xb8ee23f0	-0.00011355418
72	0xb897d09a	-7.239096e-05
73	0xb6a257a2	-4.838178e-06
74	0xb5647210	-8.51026e-07
75	0x38adcfbe	8.287978e-05
76	0xba3aed4b	-0.00071306963
77	0x39e7fb40	0.0004424695
78	0xb782346c	-1.5521618e-05
79	0x39428f3a	0.00018554638
80	0xbdc53628	-0.0962947
81	0xbc090eb4	-0.008365322
82	0xbb488141	-0.003059462
83	0x3d0c439c	0.034244165
84	0x3d23ad38	0.039960116
85	0xbbb2395b	-0.005438966
86	0xbf9bf0ed	-1.21829
87	0xbb968bce	-0.0045943027
88	0xbc81501d	-0.015785271
89	0xbc082c77	-0.0083113825
90	0xbf13a8ea	-0.5767962
91	0xba31ae47	-0.00067779835
92	0xba6fcdf2	-0.00091478147
93	0x3dd26f63	0.102751516
94	0xbb815624	-0.0039470363
95	0xbd0ee503	-0.03488637
96	0xbb306145	-0.0026913446
97	0xba5fc099	-0.0008535474
98	0xbc25e78a	-0.010126004
99	0xbac214fa	-0.0014807277

layer2.bias f4 [5]
0	0x3e2a9aef	0.16660665
1	0x389f5d7e	7.599125e-05
2	0x3792402d	1.743444e-05
3	0xb744fc58	-1.1741264e-05
4	0x3e1771ea	0.14789549

layer3.weight f4 [1, 5]
0	0x3f486f85	0.78295165
1	0x36a6d5c1	4.9720697e-06
2	0x3637e332	2.740137e-06
3	0xb5c7bccb	-1.4881601e-06
4	0x3ebe38c5	0.37152687
