model/slide_nn_model_weights/trained_on_phasepred_pdps_nophasepro/dense_650_20_5_1_weights_8.pth (torch, 55366 bytes, 5 tensors)

layer1.weight f4 [20, 650]
00000000: 0130 613e 0893 15bf ac1a b23f cfcf 56bf
00000010: c188 11bf e9a4 353f f596 bebf 1ec2 86bf
00000020: 1fad 813f adcf af3d 7671 dd3e b8b4 ecbe
00000030: 5c1a e43e 2b72 dcbe f49a da3f 8860 8d3f
00000040: 0664 3abf 05b0 96bd df75 8abe 59f5 433f
00000050: 2e97 e1be c2bd 02be 4560 593f ffae b23f
00000060: 600a 833f 2efb 0d3d a972 7cbf b00c 25bf
00000070: 5b8b 16bf afac 8cbe a824 4fbf b7bd b2bf
00000080: fda8 f63d f331 87bf bb12 34be 672c 1fbe
00000090: dec9 743f d230 a0bb 376a bbbc cd53 8e3d
000000a0: eb12 b9bd 5302 1b3f 3415 5d3f e650 193f
000000b0: 28ba 0cbf 2bd3 d8bf abf2 d13e 9536 9abf
000000c0: f6a6 913e 8b8e e7be 4871 4bbf a116 7cbf
000000d0: b51f cbbf a66f fcbf dad6 cabe 807d 48bf
000000e0: ac42 79bf 91a0 4d3e d012 6abc 65a1 d83e
000000f0: 7db2 9f3f 84f2 fabf 934a da3b eb33 cabe
00000100: 27ea 06bf d6bf 85bf 8e72 46bc 0a21 1e3e
00000110: 759e f3bb 84d3 acbe 3e5a 0bbf 71fb 90bf
00000120: cd1a ef3f 78f9 12bd aa2d dd3e d560 6abf
00000130: 1932 2cbf 05b0 05bf 5c66 08bd 2a51 a6bf
00000140: b674 ec3f de20 93bd e624 ccbe 5eb3 ef3f
00000150: 6b47 f7bf 3976 c3bc 003b 5dbd 2208 073e
00000160: 34e4 f1bd c304 70bc 5d45 ecbe c84b 163f
00000170: 254a 40bf 123c 4a3f b159 6dbe a62f 8bbe
00000180: a972 fcbe 5caa c93f f9af 2bbf 444b 2abd
00000190: 574d 89bf b3a6 7c3f c5fc 473f ce29 abbf
000001a0: 6fa5 d6bd 79de b73f 2fe0 59bc e8a6 20bf
000001b0: aa89 2f3f 9e0e 3bbf ee36 3ebe efa1 cdbe
000001c0: 4465 ccbd 94cf bd3f 3ea8 11bd fdc8 77bf
000001d0: 4a42 893f 219f 0dbe c2dd edbf f705 5fbe
000001e0: 1208 13bf c25a 43bf bf23 903d 9734 3d3f
000001f0: 4915 c2bf 9dac d7bf 6624 153f 2578 143f
00000200: 4fd6 cd3e 1a08 bd3e c8d6 78bf 6d3d 9cbf
00000210: dc8d ba3e 67f5 643d 4b9c a93f e5f2 5d3f
00000220: 680a ecbc a81c debc e3de 0a3f 129c ee3e
00000230: 66a8 d3b9 1222 92be ae08 ad3e e441 25bf
00000240: 4f6c 113e 1609 88be 8bda 15bf 4ea5 163c
00000250: 1d7c cabe f706 013e 90cd a2bf 08bc ef3e
00000260: 9761 313e a848 b0be f788 933f 5b73 07be
00000270: 1fd3 0b3f 82dc fd3e 11c2 58be 8801 04bd
00000280: a4fd 93bf b376 0a3f d531 b53f d366 333f
00000290: 00d7 d9bf c3c3 7dbf b086 ecbd e8d9 013f
000002a0: 5f75 20bf e47d e3be 20ef f53e 7a34 16be
000002b0: 8596 e03e e46a d1bd 238f adbf 2606 55bf
000002c0: c606 8a3f d22a d8be ab75 d4be 0a03 643e
000002d0: e8c0 20bc a455 5abf 69db cfbe 2808 893f
000002e0: d7c5 d4be f380 1abf 64bf 403d d6f4 a93e
000002f0: 4f32 ab3d a961 2c3f 96d5 033e 2800 f53f
00000300: 7b3c 3b3e 5b28 053e c0c9 27be c76b 433f
00000310: 00aa 923e 875f 66be 598c a8be 625e 3a3e
00000320: 7d5d 233e bdeb 1ebf d38d a53e 8454 603f
00000330: d13a b2bf 901f c73f 17ea 07bf 1b70 a73f
00000340: e3e8 a33d 7e89 8e3f 8d42 20bf 2e84 bfbf
00000350: 83ba 8bbe a44d 6cbf 8b9e 0d3f 2c81 d53f
00000360: b710 f7be 2157 52be 6e3f d63e c57c 483e
00000370: 74ea 06be 32bd 5dbf 0f39 b13d f49a 0940
00000380: 569a 16be 4d4f 923f fef2 d1be 4421 583f
00000390: 658b a83f effc 673f 9c4c 1f3f 7763 5dbf
000003a0: a757 0d3f e55a fc3e 0495 173f c80c 703f
000003b0: db0b d03e 6f4d dbbf 6948 783f 2c1b af3f
000003c0: a3e2 e9be bbcd 04bf 3d69 0740 00e3 03bf
000003d0: 8833 1ec0 0cd7 93bf f241 593e 34da fdbe
000003e0: 040f d33f 3065 84bf b717 8ebe 2ed4 1a3f
000003f0: b7eb 3c3f d440 2f3e c269 85bf 4da2 e93e
0.21990968 -0.58427477 1.391439 -0.8391084 -0.56849295 0.7095476 -1.4889818 -1.052799
1.0130957 0.08584533 0.43250626 -0.46231627 0.4455136 -0.43055853 1.7078538 1.1045084
-0.72808874 -0.07357792 -0.27043054 0.76546246 -0.44060653 -0.127677 0.8491252 1.3959655
1.0237541 0.03466337 -0.9861246 -0.64472485 -0.5880639 -0.27475497 -0.8091531 -1.3964146
0.12043951 -1.0562118 -0.1758527 -0.15544282 0.95620525 -0.0048886323 -0.022877796 0.069495775
-0.090368114 0.6055042 0.8636048 0.59889066 -0.5497155 -1.6939443 0.41005453 -1.2047907
0.28447694 -0.4522594 -0.7946973 -0.9847203 -1.5869051 -1.9721572 -0.39617044 -0.783165
-0.9736736 0.20080782 -0.014286712 0.42310634 1.2476345 -1.960526 0.006661722 -0.39492735
-0.5270104 -1.0449169 -0.012112273 0.15442291 -0.007434661 -0.33755124 -0.54434574 -1.1326734
1.8680054 -0.035882443 0.431989 -0.91554004 -0.6726394 -0.5222171 -0.033300743 -1.2993519
1.8473117 -0.07184003 -0.398719 1.8726614 -1.931867 -0.023860084 -0.054011345 0.13186696
-0.118111044 -0.014649573 -0.4614667 0.58709383 -0.75113136 0.7899791 -0.23178746 -0.2718479
-0.4930623 1.5755115 -0.6706539 -0.041575685 -1.0726727 0.9869186 0.7812007 -1.3372133
-0.10480773 1.4364768 -0.013298078 -0.6275468 0.68569434 -0.7306918 -0.18575642 -0.40162608
-0.099802524 1.4828973 -0.03556084 -0.9679106 1.0723355 -0.13830234 -1.85833 -0.21779619
-0.5743419 -0.7631036 0.07038068 0.7390837 -1.5162746 -1.6849552 0.58258665 0.57995826
0.40202567 0.36920244 -0.9720273 -1.2206246 0.36436355 0.055898096 1.3250822 0.8669875
-0.028813556 -0.027113274 0.5424635 0.46603447 -0.00040370523 -0.2854162 0.33795685 -0.64553666
0.14201473 -0.26569432 -0.58536595 0.009194685 -0.39547816 0.12600313 -1.2718983 0.46823144
0.17322384 -0.34430432 1.1526173 -0.13227598 0.5461902 0.49582297 -0.2116778 -0.032228023
-1.156178 0.5408737 1.4155833 0.7007877 -1.7018738 -0.99126834 -0.11549127 0.50723124
-0.62679094 -0.44431984 0.48034 -0.14668456 0.43864837 -0.10225466 -1.3559307 -0.83212507
1.0783317 -0.4222017 -0.41496024 0.22266784 -0.009811617 -0.8528693 -0.40597084 1.0705614
-0.4155719 -0.6035301 0.047057524 0.33194607 0.08359205 0.6733652 0.12874445 1.9140673
0.1828479 0.13003676 -0.16385555 0.7633633 0.28645325 -0.22497378 -0.32919577 0.18200067
0.15953632 -0.6207846 0.32334766 0.8762896 -1.3924199 1.5556507 -0.5309157 1.3081087
0.08003404 1.1135709 -0.6260155 -1.4962213 -0.27290735 -0.9230597 0.5532004 1.6680045
-0.4825494 -0.2054105 0.41845268 0.19578846 -0.13175374 -0.86616814 0.08653461 2.1500826
-0.14707312 1.1430451 -0.410057 0.8442576 1.316754 0.9062032 0.6222627 -0.86479896
0.5521187 0.49288097 0.59211755 0.937695 0.40634045 -1.7133006 0.9698549 1.3680167
-0.45680723 -0.5187642 2.1157982 -0.5151825 -2.4718952 -1.1550002 0.21216562 -0.49580538
1.6488957 -1.034338 -0.27752468 0.6048001 0.7379717 0.17114574 -1.04229 0.45631638

layer1.bias f4 [20]
00000000: b56d 16bc dde4 87b8 1d98 6c3c 9ed8 1e3a
00000010: b136 8cbb 3153 5c39 118f 67b9 1b90 7b3a
00000020: f91c e1b9 b571 4239 5970 fabc c866 5cb9
00000030: e44f 063a 6224 38bc 1ac5 9eba 74e6 ce39
00000040: 1b8f 0cbb 5cb0 ffb8 b2ce 05b9 ec9a 6a38
-0.00918143 -6.479931e-05 0.0144405635 0.00060595 -0.0042789807 0.00021011826 -0.00022083173 0.00095963635
-0.0004293693 0.00018543641 -0.03057115 -0.00021019124 0.0005123599 -0.011239143 -0.0012113184 0.00039463083
-0.0021447602 -0.00012192197 -0.00012760868 5.593423e-05

layer2.weight f4 [5, 20]
00000000: a275 9038 4c74 95b9 2cd5 08b8 f302 a2bd
00000010: b136 03b8 9484 b9bd 80f5 6ab7 a005 89b7
00000020: 4d7e 6db8 d46e c3b7 d5b4 483d f693 94b6
00000030: a080 4bb8 28f0 873a 5139 ebbc b792 0b39
00000040: bf9e 2438 a81c 4b39 5813 5e37 5080 e4b7
00000050: d4d2 6e37 e1cb 4f39 7de9 0539 4c4f 73b7
00000060: 00ff 8fb6 8875 923c 187b 95b8 828e e6b8
00000070: 20c4 6cb6 589f 5a38 80dd 15b8 dae1 a9b7
00000080: 2a50 ef38 4e55 d338 bc16 a2b8 6836 9ab9
00000090: 466d 1538 0ba3 06b9 cc6d 4e39 6298 6cbd
000000a0: e6da a636 6c67 2a39 bc98 de38 c81b 27b7
000000b0: 00dd 7534 0cd0 b03c a457 feb8 e8f4 23b9
000000c0: 0cbd a739 2a7f ceb9 c2e4 1a38 6cc6 b1b9
000000d0: c5b5 1f3a 1e3d 4438 b0a7 30b6 e00d a3b7
000000e0: 26ae 023c 0fe6 cb38 67c5 55b9 feb5 b238
000000f0: 018f 85bf 8d60 28bd 52cd d1be 606f d9be
00000100: 351b bfbf 375b f53c f975 a6bc 2624 693d
00000110: 76f5 41bc 5d4f 39bd ebf5 903e fa0f bdbc
00000120: 43f1 76bb 1ef8 ecbd c03f 6b3c d138 51bc
00000130: 87d3 f83e c2ba 30bb b41c f2bb 3da7 11bd
00000140: 118f 283e ab8e e2b9 2022 61b8 a718 8f3d
00000150: ffc5 f83e e304 a6bc dbc1 1aba 07d6 1e3b
00000160: 22fa dcb9 4568 77ba 27ee e7bc a2b1 8839
00000170: d31a 0fb9 e23e 0dbd 8498 47bd c57d 96b8
00000180: fffe babb d003 0ab9 a721 89ba 0b31 0d3d
6.888366e-05 -0.00028506143 -3.262346e-05 -0.07910719 -3.128377e-05 -0.090584904 -1.4004647e-05 -1.6334292e-05
-5.662283e-05 -2.329742e-05 0.04900058 -4.4279686e-06 -4.8518763e-05 0.0010371255 -0.028713854 0.00013310729
3.924849e-05 0.00019370264 1.3236735e-05 -2.7239468e-05 1.4234993e-05 0.00019817009 0.0001277085 -1.4502391e-05
-4.291418e-06 0.017878309 -7.127802e-05 -0.00010993799 -3.52809e-06 5.212365e-05 -3.5730656e-05 -2.025154e-05
0.0001141134 0.00010077153 -7.7289966e-05 -0.00029413705 3.5626137e-05 -0.00012839974 0.00019686593 -0.05776251
4.9726686e-06 0.00016250991 0.00010614234 -9.960444e-06 2.2897802e-07 0.02158358 -0.00012127988 -0.00015636126
0.00031993573 -0.00039386126 3.692951e-05 -0.00033907907 0.00060924544 4.678696e-05 -2.632365e-06 -1.9437575e-05
0.007976091 9.722646e-05 -0.00020386801 8.5216e-05 -1.0434266 -0.041107703 -0.4097696 -0.42467785
-1.4930178 0.029950721 -0.020319926 0.05691924 -0.011838308 -0.045241702 0.2831262 -0.023078907
-0.0037680424 -0.11570762 0.014358461 -0.012769894 0.48598883 -0.0026966785 -0.0073886756 -0.03555988
0.16460826 -0.00043212375 -5.367596e-05 0.06987124 0.4858856 -0.020266002 -0.00059035205 0.0024236457
-0.00042148033 -0.00094378396 -0.028311802 0.00026072288 -0.00013647536 -0.034483798 -0.048729435 -7.175984e-05
-0.0057066674 -0.00013162126 -0.00104623 0.0344706

layer2.bias f4 [5]
00000000: 50fa a6bb 9c33 b6b6 5363 1c36 f921 ba3e
00000010: bdc6 45bd
-0.0050957575 -5.430031e-06 2.3303626e-06 0.36354044 -0.048285235

layer3.weight f4 [1, 5]
00000000: 8179 d13a b48c 2fb9 2b0c 8039 47b1 413f
00000010: 9a59 24bd
0.0015981646 -0.00016741717 0.00024423128 0.7566113 -0.040124513
